weights/142_blocks_block7_project_conv_weight.npy (npy, 75392 bytes, 1 tensors)

array f4 [56, 336, 1, 1]
00000000: 063f 2cbe aa2e 2ebd f01f 253d 7b09 96bc
00000010: 8c1c 033e e04a d53b d219 263d 525c 813e
00000020: c45d da3d f6c7 023e e888 973d 6079 453d
00000030: 2f85 9bbd 6063 8b3b d05a 59be bdcb 39be
00000040: d46c 113e 8e8d 943d 5597 f23d 6081 c83d
00000050: 80e9 f33a c2fc 80bc 9a9d b23d 1034 803c
00000060: b65f 25be bad8 bd3d 17e8 61bd 7c47 d03d
00000070: 50b4 693b 41bb 0a3e c427 213e 77ff 6abd
00000080: b04b 19be 22bf 823d 70fa 47bd 05b5 13be
00000090: a429 cfbc befd 82bd d881 dd3d c024 95bd
000000a0: 9c4b 843d 20e9 cabc d008 1fbd a8e2 853e
000000b0: 0c28 523d c199 923d 18b3 c63d e0c3 5b3c
000000c0: 1241 1ebe f85a 5abd 6055 6abd 0431 433e
000000d0: 4693 1b3e 3069 0fbd 2990 aa3d d428 b0bd
000000e0: 6fae 34be 51f2 873e 9a92 d23e a4b1 2a3d
000000f0: 9850 aa3d e03a b83c b09b a5bc 1c24 9cbd
00000100: ee45 4cbe b073 bd3c 3c22 55bd f097 ca3c
00000110: 6df8 19be db56 0dbe 5ebf b93c 70a1 533e
00000120: 34e6 a23d 6d8f de3d fe1c 213e b25d cfbd
00000130: ea60 d93d 1af3 7b3d 6c07 08bd 659e de3d
00000140: 29e8 383e b0c0 33bc 4064 263e 92f2 41be
00000150: b052 c93c 58fb 273e 24d0 fa3d 2fcd 41be
00000160: a6e3 8f3e afe5 07bd f2ed a23d cb07 9ebd
00000170: d9cc d63d d51e 1a3d b01c e4bd 5052 8ebc
00000180: 8891 4ebd 809c 22bd f220 cd3d 4045 6fbd
00000190: e859 e13c 3bf5 81bd e159 833d c43f bf3d
000001a0: b6c4 26be 78f6 803d 54d8 5cbc 2bf7 26be
000001b0: 4478 72bd 2c00 f53c 75af a03d 9ee5 ae3d
000001c0: 743d 12bd 0131 273e d73b 2c3e 297d 143e
000001d0: 8548 58be 788d ce3d d09b 0b3c dad6 bfbd
000001e0: 9c51 f23d 685d ddbc 7082 76bc 0691 b13d
000001f0: 4418 e53d a0ad 4b3e 09a4 0e3e a5a7 54be
00000200: d01e e83c 3605 8f3d eb53 aebc d835 eabc
00000210: 33b0 053e 8899 c4bc a58f b8bd 6fea 06be
00000220: 40ad 35bb 4751 c13d 98d8 1c3d a12b f1bd
00000230: 29a5 a53d 1e1b abbd c8b7 ad3d d0aa bebd
00000240: 10b3 85bc 1a5a 59bd 81e7 f03d ec12 80bd
00000250: 50d1 c73c 4841 8e3d 18b3 6bbd d044 b13c
00000260: c0cb ed3d 7e5f 073e b867 95be 881a e0bc
00000270: 2010 83bc e4d8 163d 10b4 91bb 5eb5 e4bb
00000280: 0f30 95bd e027 263c 9025 febb a712 993d
00000290: 3e32 463c cc07 f43c c0b8 14bd aa55 26bd
000002a0: 44c0 c03d 5ce1 393d 20d1 1c3d a045 c73c
000002b0: 10fd f43c f191 56be 48b2 9c3c cfa6 32be
000002c0: 7758 81bd 54ad 863d e073 5d3c 680d d4bc
000002d0: 7cb7 5abe c4b9 a63c 3ccc 6bbe 73c4 89bd
000002e0: 54ca c93d f8e2 e4bd c0b9 adbb 00e0 f9b9
000002f0: cbcb d2bc 6647 c9bd d0c7 7f3c 219e 71be
00000300: 5f62 953d 6a52 af3d 7067 8b3c 4026 17bd
00000310: c617 48bd f8e3 88bd d20c 913d d819 543c
00000320: 0d71 42bd 9003 09bd fc3a a53d a0c1 4b3d
00000330: 8016 a03a 10be f53c f81b 1dbd 0a16 d0bd
00000340: 90f9 293c a8a8 953d a7b6 a4bd 4b0b d03d
00000350: 4674 afbe 60bf 673c 4811 08bc 5c9f 29bd
00000360: 19da 2b3d 5adf 2abe a4bc 2e3d bcc2 513d
00000370: 207e e1bb 2342 263e b1e3 35be bdd5 713e
00000380: 24bf 553d 18a1 a2bd 8415 55be 84f0 6abd
00000390: d03d 56be 9800 4dbc d001 09bc 65ff 8abd
000003a0: 1625 93bd 6927 47be 7b8b 043e b01e bcbc
000003b0: 386b 92be 20d5 93bc 9061 1e3b 200d dbbc
000003c0: 2812 c9bc f2b3 a9bd e4db 37bd a0c0 97bb
000003d0: 06c0 f4bd d4a1 a3bc 9e83 3e3e 2636 9a3d
000003e0: 22ba d23d 4211 a33d 85b6 133e d204 8abd
000003f0: be59 d1bd a2a4 343d cebd f13d 3e48 01be
-0.16820917 -0.04252497 0.04031366 -0.018315068 0.12803859 0.00650917 0.040551968 0.25265747
0.106624156 0.12771592 0.0739916 0.048211455 -0.07593762 0.00425379 -0.21226048 -0.18144126
0.14201671 0.07253562 0.118452705 0.09790301 0.0018609017 -0.015745524 0.08721466 0.015649825
-0.16149792 0.09269853 -0.05515298 0.101698846 0.0035660453 0.13547994 0.15737826 -0.057372537
-0.14970279 0.06384112 -0.04882282 -0.14424522 -0.02528841 -0.06396054 0.10815781 -0.072824
0.06459734 -0.024769366 -0.038826764 0.26149487 0.051307723 0.071582325 0.09702128 0.013413399
-0.1545451 -0.05330941 -0.057210326 0.19061667 0.15192899 -0.035012424 0.083282776 -0.08601537
-0.17644666 0.2655206 0.41127473 0.041673318 0.08316153 0.022489011 -0.02021584 -0.07624075
-0.19948551 0.023126453 -0.0520346 0.024730653 -0.15036173 -0.13802664 0.022674259 0.20667052
0.07954064 0.108672 0.15733716 -0.10125293 0.10614188 0.061511137 -0.033210203 0.10870055
0.18057312 -0.010971233 0.1624918 -0.1894019 0.024575561 0.16404474 0.12246731 -0.18925928
0.2810337 -0.033178028 0.07955541 -0.0771633 0.1048829 0.03762706 -0.11138284 -0.017373234
-0.05043176 -0.03970003 0.100160494 -0.05841565 0.027508691 -0.06345602 0.064136274 0.09338334
-0.16285977 0.0629701 -0.013479311 -0.16305225 -0.059196725 0.029907309 0.07845966 0.0853989
-0.035703138 0.16327287 0.16819702 0.1450087 -0.21121414 0.10085577 0.008521035 -0.093671516
0.11831972 -0.027022079 -0.015045747 0.08670239 0.11186269 0.19890451 0.13929762 -0.20767076
0.028335005 0.06983416 -0.02128025 -0.028590128 0.13055496 -0.02399899 -0.09011773 -0.13175367
-0.0027721673 0.094393305 0.038292497 -0.117759 0.080881424 -0.083547816 0.08482319 -0.09309924
-0.016320735 -0.053064443 0.11762906 -0.06253609 0.0243918 0.06946045 -0.057543844 0.021639258
0.11611128 0.13220021 -0.29180694 -0.027356401 -0.0159989 0.036827937 -0.004446514 -0.0069796285
-0.07284557 0.010141343 -0.0077559426 0.07474261 0.01209694 0.029788874 -0.036309004 -0.04060904
0.09411672 0.045380935 0.038285375 0.024325192 0.029905826 -0.2095411 0.01912798 -0.17446445
-0.063157015 0.065760285 0.013516396 -0.025885299 -0.21359056 0.020352252 -0.23027128 -0.06726923
0.09853044 -0.11176103 -0.005301684 -0.00047659874 -0.025731942 -0.09828071 0.015611604 -0.23595478
0.072941534 0.08560641 0.017017096 -0.036901712 -0.048850797 -0.066841066 0.070825234 0.012945615
-0.047471095 -0.033450663 0.08067891 0.049745202 0.0012213737 0.029997855 -0.03835675 -0.101604536
0.010374442 0.07307559 -0.08042651 0.10158404 -0.34268397 0.014144748 -0.008304901 -0.041411743
0.04195604 -0.16686764 0.04266037 0.051211104 -0.0068814903 0.16236167 -0.17762639 0.23616691
0.05218424 -0.079408824 -0.20808989 -0.05735828 -0.20922017 -0.012512349 -0.008362249 -0.06786994
-0.07184808 -0.19448628 0.12943833 -0.022963852 -0.28597426 -0.018045962 0.0024167039 -0.026739657
-0.02454479 -0.08286275 -0.04488744 -0.004631117 -0.11950688 -0.019974627 0.18604895 0.07529859
0.10289408 0.07962276 0.14425094 -0.06739201 -0.10222195 0.04410232 0.118037805 -0.12625214
