weights/160_blocks_block8_se_expand_bias.npy (npy, 1472 bytes, 1 tensors)

array f4 [336]
000000 f8 a3 24 3d e8 e2 d3 bd ba 7c ad 3c 63 89 fc bb
       0.040195435 -0.10346013 0.021177638 -0.0077068075
000010 97 18 c7 bb 5f d9 e2 bc 9a c8 63 3c b7 74 ce 3b
       -0.0060759294 -0.027691541 0.013902808 0.0063005346
000020 b8 cb 07 3a ea 3e 6f bb 2f fe 1f bc e1 a7 0a bb
       0.0005180198 -0.0036506006 -0.009765192 -0.0021157193
000030 fd f5 84 3c b6 44 76 3c 7d 9d c8 bd 7f b2 3d bd
       0.016230578 0.01503103 -0.097956635 -0.046312805
000040 29 4d 5b 3c 4e 13 43 bd a2 3d e2 bd 81 c2 be bd
       0.013385096 -0.047625832 -0.11046912 -0.093144424
000050 0b 8c f1 bd 36 61 18 bd f9 97 bb bb 64 43 f6 3a
       -0.11794289 -0.037202083 -0.0057249037 0.0018788395
000060 68 2b 84 bb 02 3a 96 bc 1b 0f 00 bd 23 2a ca 3c
       -0.0040334947 -0.018338207 -0.031264406 0.024678295
000070 d6 9a be 3c 87 73 e2 3c fd bc 0e 3d 9f b5 19 bd
       0.02326719 0.027642978 0.034848202 -0.037526723
000080 19 77 3d 3b 3a 46 13 bc 1d 6d a6 ba ed 78 95 3c
       0.00289101 -0.008988911 -0.0012697313 0.018246138
000090 b5 c5 91 3c 12 33 aa bd 6e 63 15 bc b7 b2 a7 3d
       0.01779447 -0.08310522 -0.009117944 0.08188384
0000a0 fc 1e a2 3c 02 d0 8d 3c d9 b5 31 3c b5 8f 4f 3c
       0.019790165 0.0173111 0.0108465785 0.01266854
0000b0 cb c2 fb bc 7e 57 8c 3c 24 6f b4 bc c3 ae 98 3c
       -0.030732533 0.017131563 -0.022025652 0.01863802
0000c0 5d 0e 8c 3c dd 4d 75 bc 45 6b 64 3d 5c 65 6e bd
       0.017096693 -0.014972177 0.055766363 -0.058202133
0000d0 21 12 1e bd fe 5e e5 3b ba 82 96 3b c5 75 3c bb
       -0.038591508 0.0069998493 0.0045932205 -0.002875672
0000e0 a7 b3 0b 3d d4 aa 4a bb 76 cd f9 bb 8d 30 81 3c
       0.034106877 -0.0030924575 -0.00762337 0.015770221
0000f0 b4 14 f8 3c aa bc 60 bd 94 aa e3 3c 18 6a 52 bc
       0.03028331 -0.054867424 0.027791299 -0.0128426775
000100 76 b5 31 3b f4 e9 43 bc 62 b2 eb bd a8 46 39 bc
       0.0027116216 -0.011957634 -0.11508633 -0.01130835
000110 40 9e ce 3c bc 77 9e 3c a9 97 d2 bc bb cf 75 ba
       0.025221944 0.019344203 -0.025707083 -0.00093769626
000120 ae bc ec 3c 05 c3 17 3d 69 2d 91 bd 6b 3e 27 3d
       0.028898563 0.03705122 -0.070887394 0.04083101
000130 20 00 fb bc 5e 4b 8e 3c 0f 29 74 bd ee c7 c8 3b
       -0.030639708 0.017369922 -0.05960947 0.006127349
000140 7a 03 01 3b 42 df aa bc f0 e5 82 3c 52 77 d9 bc
       0.001968591 -0.02085841 0.015978783 -0.026546154
000150 d6 d5 9b bd b7 b9 27 3d f8 c0 1f bb 41 05 dc 3c
       -0.07609145 0.040948596 -0.0024376493 0.026857974
000160 96 91 a4 bb 06 b0 01 3d b2 e1 dc bc 17 5f 51 3c
       -0.005022238 0.03166201 -0.026963089 0.012779019
000170 d2 ae f8 3c b8 53 a4 3d a5 4f 0e 3d 08 09 04 3c
       0.030356798 0.080237806 0.034743924 0.008058794
000180 0d af 0e 3c 90 66 72 3b 17 ef ba bd 9b 57 ef bc
       0.008708728 0.0036987402 -0.09127634 -0.029216578
000190 0b 79 cd bc 01 55 fb 3b da 2e ba bd 96 4f 4d bb
       -0.025082132 0.0076700454 -0.090909675 -0.0031327954
0001a0 4a d4 b4 3c 2c 5b 11 3d 2a b0 05 3c e7 d7 a0 bb
       0.022073884 0.03548734 0.008159677 -0.00490855
0001b0 66 91 a9 3b 09 1f a0 3c 14 44 eb 3c 64 4a 6a bd
       0.0051748035 0.019546049 0.028718986 -0.05719985
0001c0 56 33 2b bc d3 32 fc ba 95 b6 01 be e2 f3 02 bd
       -0.010449251 -0.0019241221 -0.12667306 -0.031970866
0001d0 4f 3b e4 bc 34 ca ec bc d4 e0 91 3b 4a 15 76 bc
       -0.027860312 -0.028905012 0.0044518504 -0.015019724
0001e0 cb ae 9b 3c ee 7c 1e be 3d 9c 98 bb a4 a2 ab 3c
       0.019004246 -0.15477344 -0.004657297 0.020951577
0001f0 2c 51 e2 bc 58 9e 0a 3d 62 22 33 bd 66 59 d6 3b
       -0.027626596 0.033842415 -0.043733962 0.006541419
000200 70 45 18 3c f4 da 86 bc 69 5a b5 3c 82 26 d3 bd
       0.009293899 -0.016461827 0.022137837 -0.10310079
000210 0a 4f 2a 3c d5 f7 1c 3d b7 7b 9c 3c 30 3e d0 3c
       0.010394821 0.03832229 0.01910196 0.025420278
000220 81 2d 99 b8 35 52 55 3c 8b cf e7 3c 96 9b a1 3c
       -7.304084e-05 0.013020088 0.028297206 0.01972751
000230 93 5d 7c bb 5e 24 d5 bd 07 84 1c bd 1d 57 f6 3b
       -0.0038507923 -0.10407327 -0.03821185 0.007517709
000240 a1 cd 4f 3c 3b 7e e1 3b 29 75 98 3c 12 cc 21 3a
       0.012683303 0.006881503 0.018610554 0.00061720714
000250 21 4c b1 3b 01 3f 9b bb 7d 47 1c 3d dd 8e b6 bc
       0.0054106866 -0.0047377353 0.038154114 -0.02228492
000260 f4 b0 7d 3c cb 19 e6 bd 65 14 3d bc d9 7b 08 3d
       0.015484083 -0.11235388 -0.011540507 0.033321235
000270 64 4d d7 bc 60 1d d2 bd 22 fe 15 3d c3 ce b3 3c
       -0.02628202 -0.10259509 0.036619313 0.021949178
000280 7c 8c bb 3c e7 45 b7 3c 30 1f 9c 3c 88 a7 57 bd
       0.022894137 0.0223722 0.01905784 -0.052650005
000290 8f b5 03 3a 60 50 ec 3c 3b 33 4d ba 80 7d 30 bd
       0.0005024308 0.02884692 -0.00078277633 -0.043088436
0002a0 48 51 7b 3b 27 9d 25 bd 31 49 a1 3a 4f 07 77 bb
       0.0038348008 -0.040433075 0.0012305138 -0.0037693565
0002b0 dc 59 6f bc b9 b4 6d 3b 94 8a 91 bd 50 2d 74 3b
       -0.0146088265 0.003627105 -0.0710651 0.0037258454
0002c0 e7 b9 17 bd d8 1d 85 bc 24 a2 15 bc a9 60 81 bc
       -0.037042525 -0.016249582 -0.009132896 -0.015793161
0002d0 22 4a 1b 3d 2a a9 ec bb 11 37 78 3b b6 90 52 3c
       0.037912495 -0.0072223144 0.003787462 0.012851885
0002e0 5e 86 e1 3b ea ba 15 3d 35 c1 8b 3c 1e 03 20 3c
       0.006882473 0.03655521 0.017059902 0.009766368
0002f0 f2 8a 45 bc 18 35 3b 3c f5 0f 3c 3c 81 e4 5d 3c
       -0.012057053 0.011426233 0.011478414 0.013543249
000300 85 2c b3 3b 9c 1a 16 bd 71 a3 ce bc e4 f9 fc bc
       0.0054679536 -0.03664647 -0.02522442 -0.030880876
000310 2d be 23 bd a4 9c 1d 3c 64 34 11 3c 37 0b 12 bd
       -0.039976288 0.009619866 0.008862589 -0.035655227
000320 11 6c f0 3c c3 1c ba bd d9 ca 1d bd b4 2b c5 bd
       0.029348405 -0.09087517 -0.03852353 -0.09627476
000330 3e 23 b0 3c d9 dc 1f 3d 37 96 76 3c 7f 5a 43 bd
       0.02150118 0.039028976 0.015050462 -0.047693726
000340 82 6c ca 3b 7c 81 b5 3c 48 29 ae bd e3 f8 29 3c
       0.006177486 0.02215647 -0.085039675 0.010374281
000350 58 0e b0 3d b5 24 66 bc cd 8b 25 3c de 69 8e 3c
       0.08596486 -0.014046838 0.010104132 0.017384466
000360 ab 61 48 bc e9 c9 15 3d f4 6f c0 bc a5 07 e5 3c
       -0.012230317 0.03656951 -0.023490883 0.027957747
000370 d2 02 d0 bc f4 a6 94 3c 83 c8 40 bb 1c 56 b3 3c
       -0.02539197 0.018146016 -0.002941639 0.021891646
000380 7d d9 1f 3b 3c fa e9 3c 5d 04 ee 3c 2f 31 cb 3c
       0.0024391108 0.028561704 0.029054815 0.024803726
000390 b4 26 0f 3c bb a1 91 bc 14 a7 d9 bd 19 c1 2e 3a
       0.008737255 -0.017777314 -0.10627571 0.0006666347
0003a0 09 e6 18 bd 45 f2 14 bd f9 35 3d bd 1c 6a 74 ba
       -0.037328754 -0.03636386 -0.04619405 -0.0009323673
0003b0 62 56 cf 3c 8b b9 4a 3d 24 86 9b 3c 7c 42 23 bd
       0.025309745 0.049493354 0.018984862 -0.039858326
0003c0 99 f7 5f bd 05 f5 20 3d 73 67 3f bd cd 2b a0 bc
       -0.054679487 0.03929617 -0.046729516 -0.019552136
0003d0 24 69 be bc 94 91 8b bc 6e c4 01 3c 67 ec fa bd
       -0.023243494 -0.01703719 0.007920368 -0.122521214
0003e0 fd e7 a8 3b d9 27 bc 3c d4 69 ec 3c 12 d5 e0 3c
       0.0051546083 0.02296822 0.028859057 0.02744535
0003f0 4b b7 4e 3d 71 f1 3a bc 2d 67 cd 3b f4 7a 71 3a
       0.05046777 -0.011410103 0.006268403 0.0009211742
