weights/178_blocks_block9_se_expand_weight.npy (npy, 18944 bytes, 1 tensors)

array f4 [336, 14, 1, 1]
000000 93 45 5c bd 48 c9 d8 bc b9 e9 0d be b0 2c cf 3b
       -0.05377729 -0.026463166 -0.1385869 0.006322466
000010 73 39 20 bd 28 7a 9c 3c 9c 8e c1 bc c0 37 51 3d
       -0.039117288 0.019101217 -0.023627572 0.051078558
000020 c0 75 71 3c ef b8 98 bd 83 27 6c bd 5e de 24 bd
       0.014737546 -0.07457148 -0.05765487 -0.04025113
000030 02 5a a1 3c 94 bb 48 bd ab 0b 58 be 05 58 51 be
       0.01969624 -0.049007013 -0.21098201 -0.20443733
000040 2a f0 cf bd 34 dd e0 bd 30 2a d8 bd 5c 95 45 be
       -0.101532295 -0.10979691 -0.105549216 -0.19295257
000050 7f dc 9f 3e aa 84 96 3c aa 04 c1 bd e8 87 ea 3c
       0.31222913 0.018373806 -0.09424718 0.028629258
000060 f5 1b bd bd 46 ff 25 be 3a f3 20 3e bc ec 62 3d
       -0.09233848 -0.1621066 0.15717784 0.05540155
000070 3a da 76 3d a8 5d 55 3d f4 10 36 bd 28 02 ad 3b
       0.06026671 0.05209127 -0.04444976 0.005279798
000080 b6 94 ea 3c 3a 01 e8 3d d4 df e8 bd 98 48 82 3c
       0.028635364 0.11328359 -0.11370817 0.015903756
000090 7c ed f4 3c 64 86 2d 3d aa 91 ba bd 48 67 ff bc
       0.029898398 0.042364493 -0.091098145 -0.031177178
0000a0 4c 2e d0 3d 58 89 0f bd b5 a9 36 3d c0 13 0f 3b
       0.101650804 -0.03504309 0.04459544 0.002183184
0000b0 c0 c8 d4 bb d2 5d 01 3d 71 d5 0e 3d 74 71 25 3d
       -0.006493658 0.031583615 0.034871522 0.0403914
0000c0 71 84 2e bd d2 af 34 3d 81 d3 2d 3d e4 3f fe 3b
       -0.042606775 0.044112988 0.042438034 0.007759081
0000d0 ae 12 65 bd a0 74 ed 3a 21 f1 3a 3e 2e 7f 0e bd
       -0.055926017 0.0018116422 0.18256046 -0.034789257
0000e0 c6 cc 93 3d 8d 1a 05 3c d0 89 81 bb ff b0 02 3e
       0.07216792 0.008124006 -0.003953196 0.12762831
0000f0 35 b1 8a 3c 54 64 0a 3d b0 99 7a bc c4 21 69 3d
       0.016930202 0.033787087 -0.015295431 0.056916967
000100 04 ea 03 3d 18 29 58 bc 2f 18 29 bd ec b7 96 bc
       0.032205597 -0.013193391 -0.04128283 -0.018398248
000110 84 37 aa 3c 00 c6 51 b9 d9 f5 e5 3d 72 50 7a be
       0.020778425 -0.00020005554 0.11228532 -0.2444475
000120 de f1 a3 bd f7 bb 5c be 77 49 a3 bd 36 12 23 be
       -0.08005117 -0.21556078 -0.07972997 -0.15924916
000130 82 9f c0 be dd f4 d4 bc a6 23 19 be 7a 8f dd 3e
       -0.37621695 -0.025995666 -0.14955005 0.43273526
000140 93 b2 1c be 2e 13 e7 bd 20 e7 4c 3b 52 ea f7 bd
       -0.15302496 -0.11282955 0.003126569 -0.1210524
000150 34 80 76 3d 98 8c 9c 3b a9 88 80 bd bd e1 89 3c
       0.060180858 0.0047775023 -0.06276066 0.016831273
000160 be 27 02 3d d0 39 c1 3d 57 2b 77 bd 00 15 6f 39
       0.031776182 0.09434855 -0.060344066 0.00022800639
000170 b3 be 84 3d 0e 1f 5e bc 20 42 ba bc 54 ed 31 3d
       0.064816855 -0.013557209 -0.022736609 0.043439224
000180 92 a2 d6 3d f0 86 fe bb 4c 5c 78 3d f1 37 56 3d
       0.104802266 -0.0077675506 0.060634896 0.052299444
000190 df b5 9a 3c 09 62 ce 3d fc 24 b8 3d d7 80 0d 3e
       0.018885551 0.100772925 0.08991429 0.1381868
0001a0 a8 0d 27 3c 02 39 c5 3d 66 f8 b9 3d a2 e5 3d 3d
       0.010196127 0.09630014 0.09080581 0.046361573
0001b0 8d 43 19 bc 58 38 40 bc e7 92 4e 3d e8 1d c2 bc
       -0.009354484 -0.011732183 0.050433066 -0.023695901
0001c0 58 c6 9f 3c 73 a5 5b 3d 18 51 50 bc af 46 e5 3d
       0.019503757 0.05362458 -0.012714647 0.111951225
0001d0 7e 6e 46 bd 70 c8 55 3c 88 b0 01 3d cc 68 b4 bc
       -0.048445217 0.013048276 0.031662494 -0.022022627
0001e0 f2 9e 66 bd 11 79 a8 3d e0 94 a3 39 63 f4 78 bd
       -0.056303926 0.082262166 0.00031200703 -0.06077994
0001f0 98 ce bc 3d 2c 0a 0b bd 3c 32 9c bd a8 3b 8d bd
       0.09219092 -0.033945248 -0.07626769 -0.06896144
000200 0a cf 1e bd f4 21 28 be 19 b6 43 be 24 4a 56 be
       -0.038771667 -0.16419202 -0.19112433 -0.2092672
000210 1e 96 58 be 5e 58 cd be 4a 73 29 be 00 7b cf 3b
       -0.21151015 -0.4010648 -0.16547886 0.0063318014
000220 4a 0d c2 bd 41 64 67 be a0 06 1d 3b 34 d9 de bd
       -0.09475191 -0.22596838 0.0023960248 -0.10881272
000230 15 8e 87 bd 7a d6 64 3d 80 8f 7a 3c 42 97 a9 3c
       -0.06618897 0.055868603 0.015293002 0.020702008
000240 6c 7a 2e 3b e5 31 f0 bd c4 98 4a 3d e2 f9 b3 bc
       0.0026623262 -0.117282666 0.049462095 -0.02196974
000250 e3 8e 27 bd b0 4f e4 3b cf d6 4b 3d d6 1a 9b 3c
       -0.04090775 0.0069675073 0.049765404 0.018933695
000260 f2 1b a5 3d e8 5f c6 bc 69 0e d8 3d b2 2e 52 bd
       0.08061971 -0.024215654 0.105496235 -0.051314063
000270 4e fa 52 bd d9 71 b2 3d f6 53 36 bd 4c 0b c9 3d
       -0.05150824 0.08713121 -0.044513665 0.09816608
000280 ac c0 a8 3d 30 dc 46 bd 60 5e 33 3c 5c 6b 60 bc
       0.08239874 -0.04854983 0.010947794 -0.0136974715
000290 4e aa 25 bd 36 c3 fb 3d b8 ba 25 3e d0 23 19 bd
       -0.04044562 0.12293093 0.16184509 -0.03738767
0002a0 87 df 0b bd 99 45 b3 be 67 a9 14 be 53 b2 23 3e
       -0.03414872 -0.35014036 -0.14517747 0.15985994
0002b0 03 ce 50 be e4 86 9b bc fc 31 29 3d c2 aa cd 3d
       -0.20391087 -0.01898522 0.041307434 0.10042335
0002c0 18 46 d6 bc 70 7b 31 3d 92 05 7e bc 08 35 a8 3d
       -0.02615647 0.04333061 -0.015504258 0.0821324
0002d0 2b f8 16 3d bc c5 8d bd fb 2e 57 3d 30 50 99 bb
       0.036857765 -0.069224805 0.05253504 -0.0046787485
0002e0 40 aa 79 3b c0 99 df 3c de 30 57 3d 7f 38 8b 3d
       0.0038095862 0.027294993 0.052536838 0.06797885
0002f0 00 cc 30 bb 20 29 1a 3d d8 80 08 3d 08 9a 0c 3c
       -0.0026977062 0.037636876 0.033326 0.008581646
000300 a4 d9 73 bc 8f f6 fe 3c 98 f8 ae 3d 20 a0 13 bc
       -0.014883433 0.031123428 0.08543509 -0.009010345
000310 7c c5 84 3d a0 ec 98 3b b5 00 22 bd ec 38 a1 3d
       0.0648298 0.00466688 -0.039551456 0.07872185
000320 aa 81 df 3c c9 ef e6 3c ec ba 10 3d 7d 9c 27 3d
       0.027283508 0.02819051 0.035334513 0.040920723
000330 d8 f2 a4 3c 5e 12 90 3c 50 54 4a 3b 20 97 49 ba
       0.020135328 0.017586883 0.0030873008 -0.0007690061
000340 8f c3 bb 3d b6 59 2c 3c a0 85 59 bb 0c 64 80 bc
       0.09168159 0.010519436 -0.003319122 -0.015672706
000350 2e 25 df bc 1d 25 c2 3d d6 55 2c 3d a0 66 05 bc
       -0.027239408 0.09479735 0.042074047 -0.0081421435
000360 c3 2c ef 3c 0d 34 b8 bd dc ed 2b 3d 1c 84 8c 3c
       0.029196149 -0.08994303 0.041974887 0.017152838
000370 1e d9 c7 3d 00 10 fa b7 01 9b f2 3d 14 74 2d 3c
       0.09758209 -2.9809773e-05 0.11845971 0.010586757
000380 45 ed 90 3d 9e 68 82 3c 70 f1 9c bc d8 9a 5c 3d
       0.070765056 0.015919026 -0.019158095 0.053858608
000390 62 a4 10 3d f0 85 60 3d 3c cc 02 bc 9c 63 93 3c
       0.035313018 0.054815233 -0.007983264 0.017991833
0003a0 58 0c cf 3c 82 22 4d bb 34 f6 93 3b 27 4f d3 3d
       0.02527444 -0.0031301086 0.0045154337 0.103178315
0003b0 71 d9 a1 3d 58 61 88 3b f0 35 a0 3d e0 e9 8b 3b
       0.07902802 0.004161995 0.07822788 0.0042698234
0003c0 46 09 f1 bc 22 44 4e 3d 83 91 2d 3d cc d7 f6 3d
       -0.029423367 0.050357945 0.0423751 0.12052879
0003d0 40 72 50 bc b6 30 61 3d b6 c0 11 3d e4 cf 28 3d
       -0.012722552 0.054978095 0.035584174 0.041213885
0003e0 f8 88 47 3c 21 50 89 bd b2 6b 19 3e 33 b4 fa bc
       0.012178652 -0.067047365 0.14982489 -0.030603504
0003f0 2c be 14 3d 58 1b a9 3c e0 d2 2f 3b 81 95 24 3d
       0.036314175 0.020642921 0.0026828572 0.04018164
