weights/212_blocks_block11_bn1_running_mean.npy (npy, 2816 bytes, 1 tensors)

array f4 [672]
0	0x3cc6a0a0	0.024246514
1	0xbc5a9585	-0.013341312
2	0x3c87d88d	0.016582752
3	0xbd395189	-0.045243774
4	0xbd40d992	-0.04708249
5	0xbb339d56	-0.0027407012
6	0xbe88ba0e	-0.26704448
7	0xbe9c4f4d	-0.30529252
8	0xbd564920	-0.05231583
9	0x3bcc79e5	0.006240117
10	0xbbaf3d49	-0.005347882
11	0xbad6de20	-0.0016393103
12	0xbd52d047	-0.05146816
13	0xbf2ca98c	-0.6744621
14	0xbde6229e	-0.112370715
15	0xbd9e703c	-0.07736251
16	0xbd125210	-0.035722792
17	0x3d9877ec	0.07444748
18	0x3b2aa9f9	0.0026041253
19	0xbdefab86	-0.117026374
20	0x3c446b14	0.01198842
21	0xbe774bc4	-0.24149996
22	0x3e4b3387	0.19843875
23	0xbb9fed4f	-0.0048805843
24	0xbc8dae1a	-0.017294932
25	0xbf05b825	-0.5223411
26	0xbf13ba72	-0.5770637
27	0x3ae0602b	0.0017118504
28	0xbe3e02e4	-0.1855579
29	0x3cd51547	0.026011122
30	0xbea5a921	-0.32355598
31	0x3c219e8a	0.009864459
32	0xbd67efc0	-0.056625128
33	0xbdd25aad	-0.10271201
34	0xbaab3157	-0.0013060969
35	0xbe32c0a3	-0.17456298
36	0xbca3a9fd	-0.019978518
37	0x3d20ccce	0.039257817
38	0x3cf7e026	0.03025825
39	0x3ca9381e	0.020656642
40	0xbed6b411	-0.41934255
41	0x3c56f223	0.013119253
42	0x38996298	7.313973e-05
43	0xbdc3f795	-0.09568707
44	0xbd862f3f	-0.0655198
45	0x3bdacb83	0.0066770925
46	0xbdea5de6	-0.11443691
47	0x3db7a9cc	0.08967933
48	0xbdb4dbc3	-0.08830979
49	0xbb2f5360	-0.0026752576
50	0xbaab9968	-0.0013091983
51	0xbdbb3cc1	-0.09142447
52	0xbc2882d8	-0.010285102
53	0xbc19337e	-0.009350656
54	0xbccdd57e	-0.025126215
55	0x3e3d0e67	0.18462525
56	0x3d84c746	0.06483321
57	0xb9b50edb	-0.00034534078
58	0xbe68b9dc	-0.2272715
59	0x3d6b9c8b	0.057522338
60	0x3e41282f	0.18862985
61	0xbc6c920c	-0.014439117
62	0xbe6b71cc	-0.22992629
63	0xbb87865a	-0.004135889
64	0x3c6f6df5	0.014613618
65	0x3da525ad	0.08063827
66	0xbd6dc674	-0.058050588
67	0xbc55767c	-0.013028737
68	0xbbc813fc	-0.006105898
69	0xbd0863c6	-0.033298276
70	0xbd69bd96	-0.05706557
71	0xbcf32865	-0.029682348
72	0x3bdf9524	0.006823199
73	0xbe6bded8	-0.23034227
74	0xbd3701cf	-0.04467946
75	0x3d17e0d5	0.03707965
76	0xbccea57b	-0.025225392
77	0xbcdae68a	-0.026721258
78	0xbb34ae1d	-0.00275696
79	0xbc838201	-0.016053202
80	0x3dc7d95d	0.09758256
81	0xbb8bfbb6	-0.0042719496
82	0x3b0fb1c0	0.0021926016
83	0xbae3bddb	-0.0017375307
84	0x3d914cc3	0.07094719
85	0x3c338f20	0.010959417
86	0x3d67ad55	0.056561787
87	0x3dc30dc3	0.09524109
88	0xbc8d7048	-0.017265454
89	0xbced092d	-0.02893504
90	0x3c7cce8f	0.015430107
91	0xbba0baaa	-0.0049050646
92	0xbb0a1149	-0.0021067432
93	0xba930b77	-0.0011218627
94	0xbb04b950	-0.0020252056
95	0xbdd0c52d	-0.10193858
96	0xbd0855f0	-0.03328508
97	0xbe1b90d2	-0.15191963
98	0xb8d75fbf	-0.00010269833
99	0xbdccf9c4	-0.100085765
100	0x3ce7f12d	0.028313244
101	0x3c8007be	0.015628692
102	0xbd557d1c	-0.052121267
103	0x3a2fcc89	0.00067061983
104	0xbd465370	-0.048419416
105	0xbd1cf66d	-0.038320947
106	0xbd09b64f	-0.03362113
107	0x3b10a17d	0.002206891
108	0xbd1c56e9	-0.03816882
109	0xbb32cddc	-0.0027283346
110	0x3bff695a	0.0077945413
111	0xbcd70514	-0.026247539
112	0x3a8a3ef1	0.0010547322
113	0xbe8bed16	-0.2732932
114	0x3da9f501	0.08298684
115	0xb9b13180	-0.0003379695
116	0xbef3236f	-0.4748797
117	0xbdb46892	-0.08809008
118	0x3d7b8b0f	0.061411913
119	0x3cf1f9bc	0.029538028
120	0xbcb4d8e9	-0.022076087
121	0xbce1c2fa	-0.027558792
122	0xbeeff04c	-0.4686302
123	0xbe8644a3	-0.2622424
124	0x3c658e69	0.014011004
125	0xbc36ca9e	-0.011156706
126	0xbd564c2d	-0.05231874
127	0x3ea5d46f	0.32388636
128	0x3c70c915	0.014696379
129	0xbdbd79cd	-0.09251747
130	0xbc60345f	-0.013684361
131	0x3d828d8d	0.06374655
132	0xbb6b7049	-0.0035925081
133	0xbd3b921f	-0.04579365
134	0x3b21e292	0.0024701697
135	0xbd67ced8	-0.056593746
136	0xbd4514b1	-0.048115436
137	0xbd38c03f	-0.045105215
138	0xbd8e40e6	-0.06945972
139	0xbcc23d5e	-0.023710903
140	0xbce27e22	-0.027648035
141	0xbdae3a02	-0.08507158
142	0x3d914383	0.07092955
143	0x3b37e065	0.0028057334
144	0xbe2e2422	-0.17005971
145	0xbadeb28f	-0.001699047
146	0xbd0aa84a	-0.0338519
147	0x3ed46970	0.41486692
148	0xbea0f7c9	-0.31439045
149	0x3d3448a0	0.044014573
150	0x3c1b2f32	0.009471701
151	0xbc51d663	-0.012807461
152	0xbc768815	-0.015047093
153	0x3a206668	0.00061187753
154	0xbc57dd61	-0.013175339
155	0xbde3b162	-0.111178175
156	0xbc5ce997	-0.0134834265
157	0xbd34a77f	-0.04410505
158	0xbde4380c	-0.111435026
159	0xbd44c573	-0.048039865
160	0x3f2b31f2	0.66873085
161	0xbd62a9e8	-0.055337816
162	0xbceb7aff	-0.028745173
163	0xbbed2465	-0.0072370046
164	0xbcdcdfe3	-0.026962226
165	0xbd2dbb3c	-0.04241489
166	0x3d75136c	0.059832975
167	0xbc25d1cf	-0.010120823
168	0xbd8cc712	-0.06873907
169	0xbd8aa31c	-0.06769392
170	0xbd2a588c	-0.04158835
171	0xbccf3c66	-0.025297355
172	0xbdcbd1db	-0.09952136
173	0xbd28a692	-0.04117448
174	0x3bd86f07	0.0066050324
175	0x3c616a05	0.013758187
176	0x3b710dbe	0.0036781873
177	0xbd7e4b6b	-0.062083643
178	0x3d0b8b25	0.034068245
179	0xbf1bde45	-0.6088603
180	0xbe6971c0	-0.22797298
181	0xbb06aa83	-0.002054841
182	0xbce8c5c4	-0.028414614
183	0xbe529cd2	-0.20567635
184	0x3cfc99fe	0.030835148
185	0xbda1c416	-0.078987285
186	0xbd07a90c	-0.0331202
187	0xbda9efa5	-0.08297662
188	0x3cfcf062	0.030876342
189	0xbd8fc13e	-0.0701928
190	0xbd5cd018	-0.05390939
191	0xbc10af45	-0.00883085
192	0x3c9409b6	0.018071037
193	0xbe506ecd	-0.20354767
194	0xbd5b0fc4	-0.053481832
195	0xbe181710	-0.14852548
196	0xbdd6be79	-0.104855485
197	0x3e451b5c	0.19248718
198	0xbd03c0de	-0.032166354
199	0x3a6c98cd	0.00090254546
200	0xbd5ba55e	-0.053624503
201	0xbd965eac	-0.07342276
202	0xbcc6e1fd	-0.024277681
203	0xbd533d1d	-0.051571954
204	0x3c8d8e04	0.017279632
205	0xbc1e20e0	-0.009651393
206	0xbc7b3397	-0.015332124
207	0x3d9e1e78	0.07720655
208	0x3e23cd27	0.15996228
209	0xbd4f22f6	-0.05057045
210	0x3ba399eb	0.0049927137
211	0x3c8a245c	0.01686304
212	0xbdfc7840	-0.12327623
213	0x3dbd6523	0.09247806
214	0x3b14833c	0.002266123
215	0xbc6bb3a9	-0.014386096
216	0xbd8ff34c	-0.07028827
217	0xbc0545a1	-0.008134277
218	0x3a04db42	0.00050680724
219	0xbcd82af5	-0.026387671
220	0xbd14c3a6	-0.036319397
221	0xbb9a791d	-0.004714145
222	0xb990f140	-0.00027645566
223	0xbd19bba1	-0.037532452
224	0xba36d103	-0.0006973894
225	0xbe81f38a	-0.25381118
226	0xbe4767c4	-0.19473177
227	0xbd044b0c	-0.032298133
228	0x3e0b5ff8	0.13610828
229	0xbca3d08c	-0.019996904
230	0xbcf2fa96	-0.029660504
231	0xbcdd3185	-0.027001152
232	0x3d0f0703	0.034918796
233	0xbd253d47	-0.04034164
234	0xbd94b338	-0.07260746
235	0x3e2da746	0.16958341
236	0xbd102a15	-0.035196383
237	0xbdcc73d7	-0.09983032
238	0xbc7f1ec8	-0.015571304
239	0xbd68ca55	-0.056833584
240	0xbd99341f	-0.074806444
241	0x3bbfe754	0.005856434
242	0xbd599181	-0.05311728
243	0xbdf8f875	-0.121567644
244	0x3d282a4f	0.041055974
245	0x3d21698d	0.0394073
246	0x3d49f378	0.049304456
247	0xbc07f0dc	-0.008297171
248	0xbdec2800	-0.11531067
249	0xbd40ca86	-0.04706814
250	0xbd8dee99	-0.069302745
251	0xbc0045e5	-0.007829164
252	0x3a9a3684	0.0011765515
253	0xbc825aa6	-0.015912365
254	0xbc1aa58c	-0.0094388835
255	0xbd308d64	-0.04310359
