weights/214_blocks_block11_se_reduce_weight.npy (npy, 75392 bytes, 1 tensors)

array f4 [28, 672, 1, 1]
0	0xbb9d8a00	-0.0048077106
1	0x3bec95a0	0.007219985
2	0xbad6fb00	-0.0016401708
3	0xbd0d96c8	-0.034567624
4	0xbbdf09c0	-0.006806582
5	0xbbac9540	-0.0052668154
6	0xbbcd78c0	-0.006270498
7	0xbc786540	-0.015160859
8	0xbb764420	-0.0037577227
9	0xbaa43480	-0.0012527853
10	0x3c4a4110	0.012344614
11	0x3afc8f80	0.001926884
12	0xbb74b664	-0.0037340159
13	0x3cc721b0	0.024308056
14	0x3c123720	0.008924276
15	0x3c920318	0.01782374
16	0xbcbd9ca8	-0.023145989
17	0xbd8e93c1	-0.069617756
18	0xbc0dc640	-0.0086532235
19	0xbd00d6d4	-0.031454876
20	0xbc84b7d4	-0.016200937
21	0x3c86e4c8	0.016466513
22	0xbb3fac80	-0.0029247105
23	0xbba9f180	-0.0051862597
24	0xbcc82a5c	-0.024434261
25	0x3b1c2d80	0.002383083
26	0xbca7aa90	-0.020467073
27	0x3d0279f8	0.0318546
28	0x3d900e5f	0.07033991
29	0x3cd3ade0	0.025839746
30	0xbb550500	-0.00325042
31	0xbc4f2be0	-0.012644738
32	0x3d1ff284	0.03904964
33	0x3d9503da	0.07276125
34	0x3d8d4a00	0.0689888
35	0xbbca8e40	-0.0061815083
36	0x3c937280	0.017998934
37	0xbcad3df0	-0.021147698
38	0x3bc61400	0.0060448647
39	0x3d20f130	0.039292514
40	0x3c94e5cc	0.018175982
41	0x3c37cc40	0.011218131
42	0xbd464e90	-0.048414767
43	0xbc1af1a0	-0.009457022
44	0x3b4d62b0	0.003133934
45	0x3cde60e8	0.027145818
46	0xbd510f70	-0.051040113
47	0xbc252ef8	-0.010081999
48	0x3c4233d0	0.011853173
49	0xbd21c8a0	-0.03949797
50	0x3b18454e	0.0023234668
51	0xbd49e750	-0.049292862
52	0x3c9bf270	0.019036502
53	0x3b1b59c0	0.0023704618
54	0x3cb600a0	0.022217095
55	0x3d892b50	0.06697714
56	0xbd0a2c24	-0.033733502
57	0x3c36a880	0.011148572
58	0x3d1ee9f8	0.03879735
59	0x3b4714c0	0.0030377358
60	0xbd0b97a9	-0.03408018
61	0x3c8af9a0	0.016964734
62	0xbd9dd5d0	-0.07706797
63	0x3ba69ac0	0.0050843656
64	0x39665800	0.00021967292
65	0xbc457440	-0.012051642
66	0x3cd03e18	0.025420234
67	0xbaed9de8	-0.0018128725
68	0xbcc297e8	-0.023754075
69	0x3c074220	0.0082555115
70	0x3c219820	0.00986293
71	0x3ba9223d	0.005161552
72	0x3c916a70	0.017750949
73	0x3d2574e3	0.040394675
74	0xbc0a7820	-0.008451492
75	0x3f070506	0.5274204
76	0xbced9f24	-0.029006548
77	0xbe463c90	-0.1935904
78	0xbc129800	-0.008947372
79	0xbd18b758	-0.037284225
80	0xbdcd9042	-0.100372806
81	0xbbfada90	-0.007655449
82	0xbc183b00	-0.00929141
83	0xbcd6b8cd	-0.026211167
84	0x3cc2e7d0	0.023792177
85	0xbb6588c0	-0.0035024136
86	0xbca0a0f0	-0.019607991
87	0x3ae6b700	0.0017602146
88	0x3c2ea820	0.010660201
89	0xbb8e2c40	-0.004338771
90	0x3dbb1440	0.09134722
91	0x3b42b080	0.0029707253
92	0xbd3cb03d	-0.04606651
93	0x3ccc0d00	0.024908543
94	0xbc1b1a30	-0.009466693
95	0x3cc8e540	0.024523377
96	0xbb064300	-0.0020486712
97	0x3d487289	0.048937354
98	0x3a80ef00	0.0009836853
99	0x3c710660	0.014710993
100	0xbd1b9754	-0.037986115
101	0x3c9dc8c0	0.019260764
102	0x3bf7e3c0	0.0075649917
103	0xbc45aa60	-0.012064546
104	0xbb0c1b40	-0.0021378547
105	0xbcb1fd21	-0.021727147
106	0xbcd75ee0	-0.026290357
107	0x3c21c9a4	0.009874735
108	0x3c706d28	0.014674462
109	0x3e1c5580	0.1526699
110	0x3b4e5900	0.0031486154
111	0xbb1d1d00	-0.0023973584
112	0xba8c4c00	-0.0010703802
113	0xbcebec60	-0.028799236
114	0x3c201cb8	0.009772472
115	0x3cc3c8c0	0.023899436
116	0x3be89dc0	0.0070988834
117	0x3c4cf1c8	0.012508817
118	0xbd0570d2	-0.032578297
119	0xbc2982b8	-0.010346107
120	0x3ae80800	0.001770258
121	0xbe5e91cd	-0.21735306
122	0x3d543a88	0.051813632
123	0xbc36bb00	-0.011152983
124	0x3d43f918	0.047844976
125	0xbc63d700	-0.01390624
126	0x3dad36cc	0.08457717
127	0x3c6542c0	0.013992965
128	0xbbbe0580	-0.0057989955
129	0xbc3669d8	-0.011133634
130	0x3c25a0b8	0.010109119
131	0x3d0a3a98	0.033747286
132	0xbb352034	-0.0027637603
133	0xbbad7088	-0.005292956
134	0xbb345d00	-0.0027521253
135	0xbd63fb1c	-0.0556594
136	0xbd967fe8	-0.07348615
137	0x3d08fcc0	0.033444166
138	0x3c8784d4	0.01654283
139	0xbd65b0a0	-0.056076646
140	0xbbad6770	-0.0052918717
141	0xbdf22604	-0.11823657
142	0xbd5d1144	-0.053971544
143	0xbc653480	-0.013989568
144	0x3c7fafa0	0.015605837
145	0x3cc5eadc	0.024159841
146	0xbbee0740	-0.007264048
147	0xbaff7d80	-0.0019492358
148	0x3d2d4ed0	0.04231149
149	0xbd670404	-0.056400314
150	0xbccb10d6	-0.024788301
151	0xbab58700	-0.0013849437
152	0x3b1ad980	0.0023628175
153	0xbd2fa658	-0.042883247
154	0x3aa71700	0.0012747943
155	0x3c57c5e0	0.013169736
156	0xbb5808c0	-0.00329642
157	0x3bcb7b50	0.0062097684
158	0xbd0df978	-0.03466174
159	0x3c4950b0	0.012287304
160	0xbd19ba56	-0.03753122
161	0xbd494eae	-0.0491473
162	0x3bc9c840	0.006157905
163	0xbc2db460	-0.010602087
164	0xbd4a6637	-0.049413886
165	0x3d1ac80c	0.037788436
166	0x3d17e446	0.037082933
167	0xbc87a410	-0.016557723
168	0xbcde7890	-0.027157098
169	0x3bb95f10	0.0056570843
170	0x38364000	4.3451786e-05
171	0x3d8a1718	0.06742686
172	0xb97ebc00	-0.00024293363
173	0xbc98a720	-0.018634379
174	0x3d054881	0.03253985
175	0x3d0f8b42	0.035044916
176	0xb9c56c00	-0.00037655234
177	0xbc18c6c0	-0.009324729
178	0x3d085b94	0.03329046
179	0xbd9bbfc4	-0.07604936
180	0xbc0adb40	-0.008475125
181	0xbc2516c0	-0.010076225
182	0x3c13ed80	0.009028792
183	0x3c23b700	0.009992361
184	0xbcd277e0	-0.025691926
185	0xbce894dc	-0.028391294
186	0x3cf70878	0.030155405
187	0xbc706240	-0.014671862
188	0x3d6936f3	0.05693717
189	0x3b456200	0.0030118227
190	0x3d2f3f7c	0.042785153
191	0x3a92fe80	0.0011214763
192	0xbc9c18d8	-0.019054815
193	0xbb38f03c	-0.0028219363
194	0x3d0d8c0c	0.034557387
195	0x3d8f4c2e	0.06996952
196	0xbb8fdbf0	-0.0043902323
197	0x3d1cde90	0.03829819
198	0xbc8a7bce	-0.016904738
199	0x3c56c8a0	0.013109356
200	0xbcd51220	-0.02600962
201	0xbc6064e0	-0.0136959255
202	0xbcc68910	-0.024235278
203	0xbc604180	-0.013687491
204	0x3c1bfcb0	0.009520695
205	0xbcd59380	-0.02607131
206	0x3c2bd40a	0.010487566
207	0xbd4e7631	-0.050405685
208	0xbce8d6e0	-0.028422773
209	0xbc4f9840	-0.012670577
210	0xbb0a7680	-0.002112776
211	0xbd47071b	-0.04859076
212	0xbd0e3950	-0.034722626
213	0xbd666966	-0.05625286
214	0xbb70dda0	-0.0036753193
215	0x3ce7d6e0	0.028300703
216	0xbcb20b48	-0.021733895
217	0xbccdb750	-0.025111824
218	0xbba99220	-0.00517489
219	0xbc311aa0	-0.010809571
220	0x3c278480	0.010224462
221	0x3c5f2a60	0.013620943
222	0xbc2b9f80	-0.0104750395
223	0x3c752a60	0.014963716
224	0x39e7e600	0.00044231117
225	0x3c5d5060	0.013507932
226	0xbaf6d0a0	-0.0018830486
227	0xbae73600	-0.0017639995
228	0x3e76b93c	0.24094099
229	0x3adbcec0	0.001676999
230	0x3d7d0f08	0.061781913
231	0xbc254408	-0.010087021
232	0xbc769c60	-0.015051931
233	0x3b0b4460	0.0021250471
234	0x3caefd30	0.021360964
235	0x3bb0e140	0.0053979456
236	0x3c11aa20	0.008890659
237	0x3c3eadf0	0.01163815
238	0xb933bd00	-0.00017141178
239	0xbc9938e0	-0.018703878
240	0xbcc8a390	-0.024492055
241	0xbcf695e0	-0.030100763
242	0xbc996120	-0.01872307
243	0x3bb3a2c0	0.005482048
244	0xbb475930	-0.003041815
245	0xba6e9f00	-0.00091026723
246	0xbc8d78ed	-0.017269576
247	0x3bf89e00	0.0075871944
248	0x3c351f80	0.0110548735
249	0x3bb34040	0.0054703057
250	0xbd466cf6	-0.048443757
251	0x3da0d4c4	0.07853082
252	0x3a769400	0.0009406209
253	0xbd3df9e0	-0.046380877
254	0x3d78fdb8	0.06078884
255	0x3dba4a84	0.09096244
