weights/218_blocks_block11_project_conv_weight.npy (npy, 301184 bytes, 1 tensors)

array f4 [112, 672, 1, 1]
0	0x3d08d4e0	0.03340614
1	0x3d110e50	0.03541404
2	0x3bedcb30	0.007256888
3	0xbc6475a0	-0.01394406
4	0xbca2fb2a	-0.019895155
5	0xbca93298	-0.020654008
6	0xbc0238e8	-0.007948138
7	0xbd299d60	-0.04140985
8	0xbda4e48d	-0.08051405
9	0x3d73c483	0.05951358
10	0x3ae2ca80	0.0017302781
11	0x3c86136c	0.016366683
12	0x3c46dcc0	0.012137592
13	0xbdc4b1be	-0.09604214
14	0x3dbecfdd	0.093169905
15	0xbcd74850	-0.026279598
16	0xba958280	-0.001140669
17	0xbd84951c	-0.06473753
18	0xbd088a48	-0.033335
19	0xbbf213b0	-0.007387601
20	0xbd293618	-0.041311353
21	0xbd18bf98	-0.037292093
22	0xbb535240	-0.003224507
23	0x3c869a58	0.016431019
24	0x3aad44c0	0.0013219342
25	0x3a7a1c00	0.00095409155
26	0xbc3bc52c	-0.011460584
27	0x3aeb2540	0.0017940179
28	0xbcfb9f3c	-0.030715577
29	0x3d470d92	0.048596926
30	0xbd286a56	-0.041117035
31	0xbdc25af4	-0.09490004
32	0x3d08f0e0	0.03343284
33	0x3c2fd540	0.010731995
34	0xbc2cc8d0	-0.010545924
35	0xbdc12602	-0.094310775
36	0x3dcc7aac	0.09984335
37	0xbbd389e8	-0.0064556487
38	0x3d46c814	0.048530653
39	0x3d1bf5f4	0.038076356
40	0x3d860d51	0.06545509
41	0x3c0b8318	0.008515142
42	0x3c9158a0	0.017742455
43	0x3c0ef59c	0.00872555
44	0x3d3e4620	0.046453595
45	0x3c57e240	0.013176501
46	0xbc42f7d8	-0.011899911
47	0x3ca7ed18	0.020498797
48	0x3d3f1370	0.046649396
49	0xbd3c21b1	-0.045930568
50	0xbcaf2f08	-0.021384731
51	0x3bbbe650	0.0057342425
52	0xbd181a90	-0.037134707
53	0xbb739a40	-0.0037170798
54	0x3d63be4c	0.055601403
55	0xbdbca9f0	-0.092121005
56	0xbc0dda90	-0.008658066
57	0x3c759c30	0.014990851
58	0x3d918244	0.07104924
59	0x3cb010c4	0.02149237
60	0xbdb5d23b	-0.08877989
61	0xbddb6cec	-0.107141346
62	0xbc943e30	-0.01809606
63	0xbd4aea23	-0.049539696
64	0xbba243c1	-0.0049519246
65	0xbcb32cc8	-0.02187194
66	0xbafa6a90	-0.0019105244
67	0xbda59c8a	-0.08086498
68	0xbc465f00	-0.012107611
69	0x3d300dc7	0.04298189
70	0xbc1c9a60	-0.00955829
71	0xba925840	-0.0011165217
72	0xbbd94adc	-0.0066312384
73	0xbcca0e98	-0.024665162
74	0xbd1d43dc	-0.038394794
75	0xbd2c5b78	-0.04207942
76	0x3cee725a	0.029107261
77	0x3cfd9068	0.030952647
78	0x3d83554f	0.06412756
79	0xbd166f53	-0.03672726
80	0xbd4a4684	-0.049383655
81	0x3cdca5d8	0.02693455
82	0x3c79db48	0.015250035
83	0x3c06b41d	0.008221653
84	0x3dab8dc0	0.08376646
85	0xbdae00e4	-0.084962636
86	0xbc078ea0	-0.008273751
87	0xbda77fda	-0.081786826
88	0x3d337ff8	0.043823212
89	0x3cdbaf6a	0.026817042
90	0xbdc38782	-0.095473304
91	0xbcb0b120	-0.021568835
92	0x3d017d9f	0.031613942
93	0xbc200010	-0.00976564
94	0xbd9f0d96	-0.07766263
95	0xbbc7db40	-0.0060991347
96	0x3d21f6b8	0.03954193
97	0xbe030fdc	-0.12799019
98	0xbd0bccd4	-0.034130886
99	0xbdcd6897	-0.100297146
100	0xbdb10431	-0.086433776
101	0xbd0120b0	-0.031525314
102	0xbc6cfd00	-0.014464617
103	0xbb9cfac0	-0.004790634
104	0x3de612a0	0.11234021
105	0xbdc8d0da	-0.0980546
106	0x3d7c1d23	0.061551224
107	0x3d8bb753	0.06822076
108	0xbdecdf6b	-0.11566051
109	0x3d524a37	0.051340308
110	0x3d461a14	0.048364714
111	0xbd2db8d1	-0.042412583
112	0xbd64b9a0	-0.05584109
113	0xbc2e9350	-0.010655239
114	0xbd5da696	-0.054113947
115	0xbca1e2c0	-0.019761443
116	0xbc2d475a	-0.010576094
117	0xbdea1ce2	-0.1143129
118	0x3d8c3a99	0.06847114
119	0x3db1644e	0.0866171
120	0xbc570000	-0.013122559
121	0x3c9c133c	0.01905214
122	0x3d772d0b	0.06034569
123	0xbbd246c0	-0.0064171255
124	0x3c521f60	0.012824863
125	0x3c547a20	0.01296857
126	0x3c9e83e2	0.019349996
127	0xbc475a40	-0.012167513
128	0xbd9ace4a	-0.07558878
129	0xbc0bb118	-0.008526109
130	0x3d020ff8	0.03175351
131	0x3dc041b8	0.09387535
132	0x3c09a2b2	0.008400606
133	0x3d656eb8	0.056013793
134	0xbc9d0eb1	-0.019172044
135	0xbd8b9282	-0.068150535
136	0x3d00ddab	0.0314614
137	0xbc4c7df2	-0.0124812
138	0x3cddc274	0.027070262
139	0xbd4410dd	-0.047867645
140	0xbb5df300	-0.0033866763
141	0x3d1cf6d0	0.038321316
142	0x3cab54f0	0.020914525
143	0xbd0b17be	-0.03395819
144	0x3c484728	0.012223996
145	0x3dd51b12	0.10405554
146	0xbc19fca0	-0.009398609
147	0x3e05fc80	0.13084602
148	0x3b918c60	0.004441783
149	0xbceefb58	-0.029172584
150	0xbb4d8d00	-0.003136456
151	0x3d0da2fa	0.034579255
152	0x3da419f1	0.080127604
153	0x3dcc4ef3	0.09975996
154	0x3c4bf243	0.012447896
155	0xbda4ada2	-0.0804093
156	0x3cd0d450	0.025491863
157	0xbd01f080	-0.0317235
158	0x3bf73f40	0.007545382
159	0xbd26ec99	-0.04075298
160	0xbd3cdb42	-0.046107538
161	0x3be25fe0	0.006908402
162	0xbd97b522	-0.07407595
163	0xbd37fbe0	-0.04491794
164	0x3cea2920	0.028584063
165	0xbd0b3cac	-0.033993408
166	0xbb3546c0	-0.0027660578
167	0xbb9f0b00	-0.004853606
168	0xbd2f1814	-0.042747572
169	0xbc0d4914	-0.00862338
170	0xbca6d86b	-0.020366868
171	0xbd5527fc	-0.052040085
172	0x3ceb8b64	0.02875299
173	0xbcee796c	-0.029110633
174	0x3d50c2ce	0.05096703
175	0xbd3bc396	-0.045840822
176	0xbd2bc01c	-0.041931257
177	0x3c5a8e40	0.013339579
178	0x3d8189d4	0.06325117
179	0x3b80fc90	0.003936358
180	0xbe00f2db	-0.12592642
181	0xbd0a20cc	-0.033722684
182	0x3ca0a91a	0.019611884
183	0x3d10b386	0.035327457
184	0x3cda2ae0	0.026631773
185	0xbd580dad	-0.052747417
186	0xbc8990d4	-0.016792692
187	0xbba8f050	-0.0051556006
188	0xbd9a3535	-0.0752968
189	0xbc09eee0	-0.008418769
190	0x3c016de0	0.007899731
191	0x3c9d6310	0.019212276
192	0xbc91cc4c	-0.017797612
193	0xbd795476	-0.060871564
194	0xbc29cc50	-0.010363653
195	0x3d0903e4	0.033450976
196	0x3a7c9300	0.0009634942
197	0x3c400af8	0.011721365
198	0xbd4bd7ba	-0.04976628
199	0xbddf229e	-0.108952746
200	0xbcb6cc04	-0.02231408
201	0x3d0a7818	0.033805937
202	0xbd019c54	-0.031643227
203	0xb712d800	-8.75257e-06
204	0xbc8caf30	-0.01717338
205	0xbd7d7cf8	-0.061886758
206	0x3c547a30	0.012968585
207	0xbd154bcc	-0.03644924
208	0xbdde3251	-0.10849441
209	0x3d800d28	0.06252509
210	0xbd4bf980	-0.04979849
211	0x3d7a5f5c	0.061126098
212	0xbd6638d9	-0.056206558
213	0xbdc6162e	-0.09672199
214	0x3c7236b0	0.014783546
215	0x3aee9380	0.0018201917
216	0x3cb6ab1c	0.022298388
217	0xbd0b2182	-0.033967502
218	0xbc46f290	-0.012142792
219	0xbc635890	-0.013876095
220	0x3d0b9f40	0.03408742
221	0xbc7d2340	-0.015450299
222	0xbc8bf3ee	-0.017084088
223	0x3d5af8c8	0.053459913
224	0xbc12c508	-0.008958109
225	0xbd49f5de	-0.049306743
226	0x3d656c18	0.05601129
227	0x3beba7c0	0.007191628
228	0xbcf9d202	-0.030495647
229	0x3c3e62e0	0.011620253
230	0x3dc7d50b	0.097574316
231	0x3d5bcbf6	0.05366131
232	0xbd28d615	-0.04121979
233	0xbc591b98	-0.013251208
234	0xbc5c9adc	-0.013464656
235	0x3cad8eb0	0.021186203
236	0x3d8e0630	0.06934774
237	0xbd80ab3f	-0.062826626
238	0x3cf7d798	0.03025417
239	0xbca88660	-0.020571887
240	0x3d0bab36	0.034098826
241	0xbae6a640	-0.0017597154
242	0x3d17ece0	0.037091136
243	0xbdcf7e43	-0.101315044
244	0xbdc7722c	-0.097385734
245	0xbc0e44e8	-0.008683421
246	0x3d7a3478	0.061085194
247	0xbd49f234	-0.04930325
248	0xbd79b35d	-0.06096207
249	0xbc1c8430	-0.009553
250	0x3b2dd740	0.0026526004
251	0x3d328c0b	0.043590587
252	0xbc658880	-0.014009595
253	0x3ba04180	0.0048906207
254	0xbd1a585d	-0.037681926
255	0x3c4384e0	0.011933535
