weights/249_blocks_block13_bn1_bias.npy (npy, 2816 bytes, 1 tensors)

array f4 [672]
00000000: d947 febf ea10 19bf f50a edbf 7952 7bbf
00000010: 9217 9bbf e45a 8e3f d08f dbbf 2bc9 03bf
00000020: 370c 03bf 08de ccbe 708f 2abe e631 3abe
00000030: 8796 f7be f2df 77bf 47f2 cbbf 056e 24bf
00000040: 89a6 24bf 788e 9b3d 9461 23be ebbc bd3e
00000050: 13ae 31bf 672e 7e3c d8b4 b2bf 2fd8 63bf
00000060: fcf5 b9bf c60a 8fbf fb5e b8be 2ed9 8dbf
00000070: be2b 24bf cf5f 5dbf 746f ffbf 8639 a8bf
00000080: 2a90 d63e ccc0 b63e 352f aebe b1f8 48c0
00000090: 9721 c3bf ad07 9abf beae 6e3e 7d2c 8e3e
000000a0: d1c4 6bbf d95d 9dbf 107c 99bf 5ce0 673f
000000b0: 37d2 30bf f02f 0fc0 2de2 4fbf 0b68 12c0
000000c0: c86f 80bc 0565 bb3e 8b38 8dbf d4e7 bdbf
000000d0: efc3 97bf b207 353f b3f8 1dbf 33ee 67bf
000000e0: c47a 80bf 6f3d 1bbf 836a 883e 5de8 cfbf
000000f0: b4d5 e1bf 1a0b 18bf 1dfb 843f ee6c e6bf
00000100: 4ead 1dbf 3cab 4abf be55 1dbf 2e7c 47bf
00000110: fcc1 a7be bcb0 76bf 940b b6bf 0af7 b5bf
00000120: 612f 55bf 3c81 b3bf fe02 87bf 5349 1fbf
00000130: 9bc8 753e 334a 9a3e dc7f 89bf 641b 50bf
00000140: 8f1a e6bf 43eb a63f 37b3 c13c 00d9 c7bf
00000150: be34 33be 98c3 7fbf f7be afbe 36e6 b6bf
00000160: 2ced c7bf f2ef 33bf 51d7 a3bf 336c abbf
00000170: c87d 363e 75e3 44c0 1f73 49bf 1513 dbbe
00000180: c4a8 eebe 4f7d f3bf a37e cdbc 61df d1bf
00000190: 2f05 583f e76a 583e 9f4d 66be 18f5 76bf
000001a0: b52d 11c0 7fc3 f5bf 8024 8ebf b155 abbe
000001b0: ba50 8abf 5516 43bf 55fc 9ebf 03d9 cebf
000001c0: d9dd febf b5af c5bf 8673 18c0 3513 8f3e
000001d0: d5c0 24bf f8df 3abf 489f 363e b5bd 3e3f
000001e0: 2a2b 9c3d 6c1c c2bf 1462 d1bf ce8d eebf
000001f0: f9ba 32bf 051e a5bf 2f4b b6be 5cd2 00bf
00000200: 70e1 dfbf af5f 9abf 4066 b1bf 365a 32bf
00000210: d1b4 93bf eb86 14bf 1351 e13d 9518 113f
00000220: 4a94 c1be c6a0 a53e 9aba 0fbe ae8b 48be
00000230: 85a5 0abf 282a d2be 345e f5be 3925 89bf
00000240: 9d08 cabf ebfb 66bf c5df 23bf d739 073f
00000250: d57b 80bf 1800 51bf fec8 e0be c85f 9bbf
00000260: c457 86bf eabc 64bf ca6c e2bd e347 afbf
00000270: f1af 95bf 1c12 b0bf d674 a8bf 140d 84be
00000280: 11f5 153e 7b2f fabe 5b7e a5bf 9e97 19bf
00000290: 10f4 15c0 3dc5 22bf c57a e7be d912 19bf
000002a0: 4400 1b3f f480 b1bf a4ce 72bf e229 a8bf
000002b0: 8fbf 82bf 9843 283f f59c 06bf c9d1 a9be
000002c0: 87b0 dfbe 4d2e 7fbf b2a8 a7bf 7bfc eabe
000002d0: d755 31bf ccf4 87be 1f58 57bf 1c87 2abf
000002e0: 0840 2fbf 42ff 8cbf 0d58 42bf d192 85bf
000002f0: a812 b6be d458 183e 72e3 5fbf c9d2 4fbe
00000300: 846b 9dbf 09b2 75bf e2db 94bf 0eb9 dfbf
00000310: 63b1 63bf af93 b4bd 7981 0ebe 8d5b 5dbf
00000320: dded 9cbf fabb babf 8176 c4bf a758 c9be
00000330: 808d 253e 6f47 76be a48b 42bf 116d 16c0
00000340: f6ef 13bf 87dd 9dbf 197b c4bf a715 ebbf
00000350: 3a98 88bf dd33 a6bf 6e55 09bf 6f09 1e3d
00000360: a763 18bf 2f36 aebf fa1e 123f 5345 38bf
00000370: 65da 66be cd56 81bb 4aac febd 087e 493f
00000380: 98d0 92bf 97dc d4bf 92e6 07bf 04b9 903f
00000390: b474 403e 73a0 c8bf 2569 abbd f8b9 01c0
000003a0: 1b27 18bf d300 92bf 9ec0 673f d495 87bf
000003b0: f82b 9abf 7841 93bd 504b 2dbf 43af ddbf
000003c0: 7044 56bf 62d2 92bf 2347 49bf 3d4e b0bf
000003d0: 55fb f2bc c41b 1dbf 3d09 91bf 26a8 25bf
000003e0: 9add 76bf 1664 77bf b874 c7bf edb5 b2bf
000003f0: 0007 fdbf d71a acbf 1d80 1cbf 7db7 12c0
-1.9865676 -0.59791434 -1.8518969 -0.9817272 -1.2116568 1.1121488 -1.7153263 -0.5147883
-0.51190513 -0.40013146 -0.1665628 -0.18183097 -0.4835703 -0.9682609 -1.5933312 -0.64230376
-0.6431661 0.07595533 -0.15955192 0.37058195 -0.6940624 0.015513993 -1.3961439 -0.89001745
-1.4528193 -1.1175163 -0.36009964 -1.1081903 -0.64129245 -0.8647432 -1.9955888 -1.3142555
0.41906863 0.35693967 -0.3402039 -3.140179 -1.5244626 -1.2033592 0.23308846 0.27768317
-0.92097193 -1.2294265 -1.1990986 0.9057672 -0.6907076 -2.2373009 -0.8120449 -2.2876003
-0.015678301 0.3660051 -1.103288 -1.4836373 -1.1856669 0.7071487 -0.6170761 -0.9059784
-1.0037465 -0.60640615 0.26643762 -1.6242787 -1.7643342 -0.5939194 1.0389134 -1.8001993
-0.61592567 -0.7916753 -0.6145896 -0.7792386 -0.32765186 -0.96363425 -1.4222283 -1.4216015
-0.8327542 -1.4023814 -1.0547788 -0.6222126 0.24002306 0.30134735 -1.0742145 -0.81291795
-1.7976855 1.3040546 0.023645027 -1.5613098 -0.17500588 -0.9990783 -0.34325382 -1.4289005
-1.5619254 -0.70288 -1.2800084 -1.3392395 0.17821419 -3.0763829 -0.78691286 -0.42787996
-0.46613133 -1.9022616 -0.0250848 -1.6396295 0.8438291 0.2113453 -0.22490548 -0.96467733
-2.2684147 -1.9200286 -1.1104889 -0.33463815 -1.0805886 -0.7620595 -1.2420756 -1.6159977
-1.9911453 -1.5444247 -2.382051 0.2794434 -0.6435674 -0.72998 0.17834198 0.7450822
0.076254204 -1.5164924 -1.6358056 -1.8637025 -0.6981655 -1.2899786 -0.35604236 -0.5032098
-1.7490673 -1.206045 -1.3859329 -0.696689 -1.1539556 -0.5801837 0.11001792 0.56678134
-0.37808448 0.32349223 -0.14036027 -0.19584534 -0.5415881 -0.41047788 -0.47923434 -1.0714484
-1.5783879 -0.90228146 -0.6401332 0.5282263 -1.003779 -0.8164077 -0.43903345 -1.2138605
-1.0495534 -0.8935076 -0.11055906 -1.3693813 -1.1694318 -1.3755527 -1.3160655 -0.25791228
0.14644267 -0.4886435 -1.2929186 -0.59996974 -2.3430214 -0.6358221 -0.45210853 -0.59794384
0.6054728 -1.3867478 -0.9484656 -1.3137782 -1.0214709 0.6572814 -0.5258325 -0.33167866
-0.43689367 -0.99680024 -1.3098357 -0.45895752 -0.69271606 -0.26553953 -0.8411884 -0.6661241
-0.6845708 -1.1015399 -0.75915605 -1.043543 -0.3556111 0.14877635 -0.8745643 -0.20295252
-1.2298436 -0.95974785 -1.1629603 -1.7478349 -0.88942546 -0.08817231 -0.13916577 -0.8646782
-1.226009 -1.4588616 -1.5348665 -0.3932545 0.16167259 -0.24050687 -0.75994325 -2.350407
-0.57788026 -1.233323 -1.5350066 -1.8365983 -1.0671456 -1.2984577 -0.5364598 0.038583215
-0.5952706 -1.3610286 0.57078516 -0.7198078 -0.22544248 -0.003947115 -0.12435205 0.78707933
-1.1469908 -1.6629819 -0.530862 1.1306462 0.18794519 -1.5673965 -0.08369664 -2.0269756
-0.5943467 -1.1406502 0.90528286 -1.0592599 -1.2044668 -0.071902215 -0.6769304 -1.7319111
-0.8369818 -1.1470454 -0.7862417 -1.3773876 -0.02966086 -0.6137049 -1.1330944 -0.647097
-0.9643189 -0.96637094 -1.5582495 -1.3961769 -1.9767761 -1.3445691 -0.61132985 -2.2924492
