weights/258_blocks_block13_bn2_bias.npy (npy, 576 bytes, 1 tensors)

array f4 [112]
0.39163497 -0.31152165 -0.17399824 0.24844824 0.44986284 0.6897694 0.11273936 -0.3056051
0.4331593 0.10946646 0.42830628 0.2959818 -0.31645942 -0.08529678 -0.5231033 0.6309864
0.7413641 -0.16067453 0.11010096 -0.7261305 0.04785061 0.0624431 0.1944323 -1.2281764
0.056513004 0.55393606 -0.2715866 -0.09783786 -0.100066915 -0.25415966 -0.12856027 -1.4143723
-0.75456893 -0.024818294 0.21286665 0.60948044 0.5318561 -0.300367 0.022215035 -0.007968152
-0.6952927 0.06986355 0.70388937 -0.14686313 0.13267757 -0.23055421 -0.056173816 -0.57166964
1.0617124 -0.27470675 -0.049279507 0.5819387 -0.060482714 -0.16655393 0.19475819 0.14444953
0.052240685 -0.3683445 0.1566073 -0.6728305 -0.8092736 0.3447092 -0.24473973 -0.37416837
0.14213516 0.10609207 0.21182223 -0.46941984 -0.5015855 -0.6500288 -0.8103812 0.6990397
-0.7923824 0.14383535 0.49292326 0.15114446 0.09710007 0.32925004 -0.3778721 -0.2791482
0.2800709 -0.24130693 0.14946426 -0.10439156 0.4445026 0.2850069 0.028626002 1.193085
0.76778734 0.087044 -0.01456759 0.22209299 -0.12917471 0.00074597937 0.80482215 0.06854656
0.15556441 -0.97083205 -0.56966466 -0.18468991 -0.23492548 -0.22802281 -0.02938601 0.1366247
-0.36226514 -0.22472787 0.08650679 0.6464056 -0.63765544 0.3231333 -0.009807104 0.31853196
00000000: 6184 c83e c47f 9fbe 982c 32be 3769 7e3e
00000010: 6c54 e63e ba94 303f e5e3 e63d 4678 9cbe
00000020: 0ec7 dd3e f42f e03d f64a db3e ed8a 973e
00000030: f806 a2be 14b0 aebd 19ea 05bf 5388 213f
00000040: 0aca 3d3f dd87 24be 9d7c e13d b0e3 39bf
00000050: 00ff 433d 56c4 7f3d 4319 473e e234 9dbf
00000060: 2e7a 673d c1ce 0d3f 660d 8bbe 375f c8bd
00000070: e2ef ccbd 3721 82be 4ea5 03be 270a b5bf
00000080: 6e2b 41bf bc4f cbbc b7f9 593e e906 1c3f
00000090: b927 083f b4c9 99be 4efc b53c da8c 02bc
000000a0: b4fe 31bf 9f14 8f3d 1832 343f 4a63 16be
000000b0: a1dc 073e 6716 6cbe 8416 66bd f158 12bf
000000c0: 31e6 873f 5da6 8cbe 4fd9 49bd eff9 143f
000000d0: b9bc 77bd 1d8d 2abe b16e 473e 94ea 133e
000000e0: 54fa 553d a697 bcbe aa5d 203e 9f3e 2cbf
000000f0: 8e2c 4fbf b97d b03e 0d9d 7abe ff92 bfbe
00000100: e18b 113e cd46 d93d ede7 583e cc57 f0be
00000110: e867 00bf 4a68 26bf 2475 4fbf 44f4 323f
00000120: 93d9 4abf 9349 133e 7060 fc3e 9dc5 1a3e
00000130: 67dc c63d 7693 a83e 7478 c1be 83ec 8ebe
00000140: 7465 8f3e 2a19 77be 290d 193e 3ecb d5bd
00000150: d895 e33e 6dec 913e 1481 ea3c 02b7 983f
00000160: b68d 443f 2044 b23d e7ac 6ebc 586c 633e
00000170: 6046 04be d48d 433a d308 4e3f 2462 8c3d
00000180: 474c 1f3e 7388 78bf 8bd5 11bf 5a1f 3dbe
00000190: 4e90 70be d07e 69be eeba f0bc 58e7 0b3e
000001a0: d17a b9be 101f 66be 792a b13d d67a 253f
000001b0: 633d 23bf ba71 a53e faad 20bc 9f16 a33e
