weights/269_blocks_block14_bn1_running_mean.npy (npy, 2816 bytes, 1 tensors)

array f4 [672]
00000000: eb9a 45bd f657 f0bd 4572 49bd 49b3 ddbb
00000010: a955 b0bd 9d9c 21bc 8502 b4bd a57c 70bd
00000020: 4331 68bd f8f2 8e39 9836 e0bc fe1b 04bd
00000030: 70a7 6d3e 2430 11bd 3334 6cbe 6738 a8bd
00000040: d313 96bd cf45 8ebd b54c 60bc 2f93 acb9
00000050: dfeb 943b b559 2abd a3e7 53bd b2d6 2e3e
00000060: 74dc 8a3b e77d a3bd d1c6 9e3c 8621 b1bc
00000070: a726 39be 1ea9 c33b 1c40 023f 45eb 563c
00000080: 1325 6e3b ad45 fcbc 2847 173c e544 5b3e
00000090: 4f80 1e3e 7c2d a23b 4e1e 79bd eb22 8bbd
000000a0: 886e b73d 8628 99bd 97af 39bd 8bd9 e6bd
000000b0: 9b7f 57bc 28b5 50ba ef61 61bd 4ac3 9e3a
000000c0: a875 c5bd 53eb 22be 6c6e d63a 7972 88bc
000000d0: e4c8 78bb 8ddf e9bd 05cf 51bd 1416 b73b
000000e0: 2ad6 b8bd 1e68 86ba 8a25 6b3c 15c8 7dbd
000000f0: 267d b0ba 998b 193d 3120 9fbc 95c2 2dbd
00000100: 83ba 1abc 9cad 1a3d ca71 fcba b756 b53e
00000110: ba1a c9bd 365c 4b3c 607e 3dbb e0b2 9bbc
00000120: 16a5 d5bc c023 09be b83f 26bb 02e5 cdbb
00000130: d43e 22bd 07a4 933c 6221 1ebc bb35 d7bc
00000140: 46da 38bb 5ae7 45bd 1f96 233d d53e b3bb
00000150: d39f 17bd 3d64 bb39 32ec 60bc 9183 d83c
00000160: dc48 3cbd 6f7a 433a 33fb 6bbe d18e 96bb
00000170: 4d2d 44bd 1ba2 803e f88f 30b9 ecd1 85be
00000180: 457b e2bd 139f 5bbd a640 33ba 8929 d8bc
00000190: db69 debd 09b1 e5bc 1603 99bc d329 443c
000001a0: 18d8 45bc 7199 393c 9f3d f7bd b49b c53b
000001b0: 851c a1bb a7a1 79bb 6134 d2bc bf13 f33c
000001c0: 9bf6 913d df7b 9f39 839e 2c3e f509 253d
000001d0: 4c2a fd3a 9ed5 10bd e791 f5bc 87b3 88bd
000001e0: 0238 89bd f46a 6bbd 1036 63bd d869 f43b
000001f0: 9ba3 89be 2992 25bd e7b2 c3bc eed2 eabc
00000200: 27ed 043d 5815 063e e4c5 773c 3c25 463a
00000210: 8ffd f6bd 8be1 263c 24e0 033a 2c7a 9abb
00000220: 9b33 a0bd cb05 d2bb 10c1 a0bd f32a 20bd
00000230: c432 1d3e 319f 363e 6103 46bb 1fc0 b0bb
00000240: db08 5bbe 77f6 033b 6cd7 c73b 6f56 eabd
00000250: 258a 49bd 7b3a cc3a 1604 0abd 2afc 7fbc
00000260: 2709 2bbd bc95 f33a 6efd a3ba 8fd9 b0bd
00000270: 616f f4bc 6c46 ed3d 0190 07ba 8ec8 8d3b
00000280: 8ed6 5cbc c1d7 823f e39d e9bd e589 d8bd
00000290: f084 b0be cb12 3dbc da57 65bc fece 45bc
000002a0: 7d8a 51bb dd36 7139 599b 50bb c523 673e
000002b0: 64c8 323b 4d1c dfbd 0839 7dbd af91 66bb
000002c0: 4b8d f1bc babc 72bc 4186 c7bc 0809 293b
000002d0: 750a 96bd 6e28 0fbd 8cb8 8cbd 2589 35bd
000002e0: e246 e9bc b4e3 febe 9abe 58bc f040 65bd
000002f0: 6980 c03b 3d52 94bd 5e1d e9bc 5979 6abc
00000300: a6fb 203d deb8 10bd 9a84 c5bd b52d 3bbc
00000310: 1585 bdbd a110 cdbd 1feb 4c3c e369 04bc
00000320: 649b 7fbd 3ad0 af3c 1b5b 6ebe b674 5dbd
00000330: ea9f 54bc ed60 edbc de6e bb3c 575a cfbb
00000340: 0b94 e13a 25ad 9bbd bc0b 063b 0871 68bd
00000350: 85ef 233c ad15 84bc aed8 a4bb b8d2 6dba
00000360: 3d79 94bd 62e4 87bd f9ee f7bd 1825 91bc
00000370: c238 19bc fb1f 2e3c ac7e 353c c83b cfbc
00000380: b6a1 a539 a212 19bd ff56 3abd d6f0 bebc
00000390: 1f79 adbc e7ed c5bc 9896 053d 3ad9 a03c
000003a0: 0d8b 4bbd 999c ec3c e8cd c03d 915e 06be
000003b0: 1694 abbd 9799 793d acaf 04bd c7c6 f139
000003c0: dab1 08bd 5c71 993c 24f4 b03b d032 0cbd
000003d0: 0880 07be ef45 71bd 7c71 40bd 4895 03bc
000003e0: d78d 113c 2b9d 95bc 3c6d 02bc 29be 07bd
000003f0: c5fa bf3c d394 443b 75a6 a4bd fc82 1ebd
-0.048243444 -0.11735527 -0.04918124 -0.006765757 -0.086100884 -0.009864 -0.08789543 -0.05871262
-0.056687605 0.00027265376 -0.027369782 -0.032253258 0.23208404 -0.0354463 -0.23066787 -0.08213883
-0.07328 -0.06946909 -0.013690163 -0.00032916057 0.0045447196 -0.041589458 -0.051734578 0.17074087
0.004237706 -0.07982998 0.019381912 -0.02162243 -0.18081151 0.005971088 0.50879073 0.013117616
0.0036338016 -0.030794943 0.009233274 0.21413 0.15478633 0.00494927 -0.060819916 -0.067937694
0.08956629 -0.07478432 -0.04533347 -0.11271962 -0.013152982 -0.00079615647 -0.055025037 0.0012112644
-0.09641582 -0.15910082 0.0016359813 -0.016656147 -0.0037961537 -0.11419592 -0.05122282 0.0055873487
-0.090252236 -0.0010254418 0.014352212 -0.06195839 -0.0013465032 0.037486646 -0.01942453 -0.042421896
-0.009443882 0.037763223 -0.0019259986 0.3541772 -0.09819551 0.0124121215 -0.0028914437 -0.019006193
-0.026079696 -0.13392544 -0.002536757 -0.0062834034 -0.0396107 0.01802255 -0.009651514 -0.026270738
-0.0028206273 -0.048316337 0.03993809 -0.0054701366 -0.037017655 0.00035742103 -0.013728188 0.026429923
-0.04596792 0.00074569037 -0.23045044 -0.0045946618 -0.047894765 0.25123677 -0.000168383 -0.2613672
-0.11058668 -0.053618502 -0.00068379415 -0.026386993 -0.10860034 -0.028038519 -0.01867823 0.011972862
-0.012075447 0.011328087 -0.120723 0.006030524 -0.00491673 -0.0038090737 -0.025659742 0.029672502
0.071271144 0.00030419134 0.16857342 0.0402927 0.0019314974 -0.03535997 -0.029976798 -0.06674867
-0.06700136 -0.057475045 -0.05547148 0.0074589066 -0.26882634 -0.040422592 -0.023889018 -0.028665032
0.03245273 0.1309408 0.015122864 0.0007558649 -0.12060081 0.01018561 0.0005030653 -0.004714271
-0.07822343 -0.006409382 -0.07849324 -0.03910346 0.15351397 0.17834164 -0.0030214416 -0.0053939964
-0.21390097 0.0020135918 0.0060986783 -0.11442267 -0.04920401 0.0015581393 -0.033695303 -0.015624085
-0.041756775 0.0018584053 -0.0012511441 -0.08635246 -0.029838266 0.115856975 -0.00051712996 0.0043268865
-0.013478888 1.0222093 -0.114070676 -0.10573176 -0.34476423 -0.011540125 -0.013997996 -0.012073277
-0.0031973415 0.00023003989 -0.0031830876 0.22572239 0.0027280087 -0.1089407 -0.061821967 -0.003518205
-0.029486319 -0.014815504 -0.02435601 0.0025792737 -0.07326213 -0.034950666 -0.06871137 -0.044320244
-0.028476182 -0.497831 -0.013229037 -0.055970132 0.0058746827 -0.07242248 -0.028456386 -0.014311158
0.03930249 -0.035332553 -0.09644432 -0.011424472 -0.09253899 -0.10012937 0.012507229 -0.008081886
-0.06240405 0.021461595 -0.23276941 -0.054066382 -0.01297758 -0.028976882 0.022880014 -0.006327908
0.0017210258 -0.07601384 0.0020453772 -0.05674842 0.010005836 -0.016123617 -0.005030713 -0.0009072232
-0.07249687 -0.066353574 -0.12106127 -0.017717883 -0.009351911 0.010627742 0.011077564 -0.02529706
0.00031591736 -0.037371285 -0.045493122 -0.023308199 -0.02117592 -0.024161292 0.03261432 0.019634832
-0.049693156 0.028883265 0.094142735 -0.13122012 -0.083778545 0.06093749 -0.032394096 0.00046115203
-0.033372737 0.018730812 0.0054001976 -0.034228146 -0.13232434 -0.058904584 -0.046983227 -0.008031197
0.008883915 -0.01826342 -0.007960614 -0.033140335 0.023435006 0.0029995933 -0.08039562 -0.038699135
