weights/297_blocks_block15_bn2_running_mean.npy (npy, 576 bytes, 1 tensors)

array f4 [112]
00000000: 973e 473e 9e1a 6ebe 2eaa 87bd ce3f c43d
00000010: 33ec adbe 8953 7e3d 0e68 e03c 8534 7dba
00000020: a16e 88be 168a aebd 51c3 18be 0caa b3bd
00000030: 71af cabd c5a6 95bc b15e 423e 0422 dc3d
00000040: 2103 a4bd c530 af3c 7007 dc3d 1fec 09bc
00000050: db8c 4db8 4790 c53d b035 c23d 7dba 153d
00000060: 212e 88bc 72f6 70be eea4 aebd 3c32 5cbe
00000070: 9a84 2cbe 9ced 2cbc 3e3d 3b3c 21bb 343e
00000080: f715 163e 9862 ef3c 8d70 ddbd d939 b63d
00000090: c2a4 c6bb 8135 b53d 993e 1e3d c675 27bd
000000a0: 0d5d 6b3e 493e 5cbe 55e2 8cbd f118 863d
000000b0: 98e4 c13b 0af7 373e 655b 403e 4b51 0f3e
000000c0: ec89 a1be 702f 4f3e 305a 87bd 7cfa 2d3b
000000d0: d63c d93b 11a4 1dbd 939e 62bc 493b 08bd
000000e0: 1dda 53bd d002 763d feee ab3d b3d9 003e
000000f0: b81c 343e c89f 7bbc d08e 89ba 7107 f73d
00000100: 3e7a 97be 1334 03be 1a10 36bc bcef 6e3a
00000110: 1657 5dbe a094 893e d07b 013e 5b37 2d3b
00000120: 41ce b63d 4e3f 6d3c 398a bc3c 2242 22be
00000130: 462e ec3d bd6f 27be e245 e73c 4bd8 103d
00000140: b508 d73d 8f7f 153e 507d e2bd 6060 00be
00000150: c36b 49bd 431d 53be d1a6 67bd ab3a 43be
00000160: 5aa3 433e ec7a 2f3d 8720 27bd 0708 ecbc
00000170: a4e5 ba3d f419 203d 1503 abbd 61ec 85bd
00000180: 83a5 c4bc 335b bc3d fcbd b53d 0d98 b13d
00000190: 3381 a13c 6377 6ebe 4ce8 623d 5416 83ba
000001a0: d703 47ba c2fa 873e 576b cabd d8dc 93be
000001b0: 07a9 cd3d 6239 47bd 83c8 203e 403e ecbc
0.1945747 -0.23252341 -0.06624256 0.09582482 -0.33969268 0.062091384 0.027393367 -0.000965901
-0.26646903 -0.085224316 -0.14918257 -0.08772668 -0.09896744 -0.018267998 0.18981434 0.107486755
-0.08008409 0.02138556 0.10743606 -0.008418112 -4.900699e-05 0.09646659 0.09482896 0.036554802
-0.016623558 -0.23531511 -0.085275516 -0.21503538 -0.16847458 -0.010554697 0.0114281755 0.17649509
0.14656816 0.029221818 -0.10812483 0.08897752 -0.006062121 0.08848096 0.038633917 -0.040883802
0.22984715 -0.21508135 -0.06879107 0.06547726 0.005917143 0.17965332 0.18784864 0.13995855
-0.3155054 0.2023294 -0.06608999 0.0026547005 0.0066295667 -0.038486544 -0.013831752 -0.033259664
-0.05172168 0.060061276 0.083951935 0.12583046 0.1758908 -0.015357919 -0.0010494832 0.12061966
-0.2958545 -0.12812833 -0.011112237 0.00091147027 -0.21615252 0.26871204 0.12644887 0.00264307
0.089260586 0.014480425 0.023015128 -0.1584554 0.115322635 -0.16351219 0.028231565 0.035362523
0.104997076 0.14599441 -0.11059058 -0.12536764 -0.049175035 -0.20616631 -0.056555573 -0.19065349
0.19105282 0.042841837 -0.040802505 -0.028812421 0.09125832 0.03908725 -0.08350197 -0.06539226
-0.024004703 0.09197082 0.08874127 0.086715795 0.019714927 -0.2328773 0.055397317 -0.0010001161
-0.000759182 0.265585 -0.09883755 -0.28879428 0.10042005 -0.04863871 0.15701489 -0.028838277
