weights/299_blocks_block16_expand_conv_weight.npy (npy, 301184 bytes, 1 tensors)

array f4 [672, 112, 1, 1]
00000000: 777d ab3d d143 733b a1c4 7b3e ac83 90be
00000010: 539b 56bd e791 92bd 2fff adbd 00d4 06bc
00000020: 93ae b8bc 07d4 753d 3bb7 f63d 36e4 56bd
00000030: 664c c83c 3384 613d 4730 b33d 9631 563d
00000040: 80ab e03a b1c9 45be b8e6 073c 8e36 b7bd
00000050: 22f2 ad3d 0aff 3c3d 80b9 163d ed3c 38be
00000060: ce04 ccbc 6cca 643c b3bf cb3c 495a 1f3d
00000070: eebc eb3c 2b58 3cbd 2ceb 2a3d fbbb 23be
00000080: 7fd4 80bc 18e4 1c3c d8bb 6cbd b114 b0bd
00000090: a840 9abd 58bb 6a3e 20fb 35bc 26a6 84bc
000000a0: a350 f93d 2472 93bc be15 56bd 286d fa3d
000000b0: 807b e4b9 646f 273d d205 20bd 82b4 81bd
000000c0: 755a b5bd ecbe 113d f530 fa3d 7f83 18be
000000d0: 80c2 083a 9812 d3bc b095 11bd 45f0 8d3c
000000e0: 8614 973d a2e4 623d e2eb 7abe 0ad1 79bd
000000f0: a125 08be c2a6 da3c 4e50 32bd cc98 11bd
00000100: 3846 55bd 189d a63b b57e c2bd 128a 59bd
00000110: fd3c c2bc f093 4d3d fc97 4d3d bd54 0b3e
00000120: f847 4c3d c790 13bd 056a 743d 920c e53d
00000130: 7d2b 15bd 5c63 89bc 3108 333d ba05 3b3d
00000140: 2888 b6bd 972b d9bd 70b7 dbbd db19 febd
00000150: 37ac 013e f14f 803d 8859 0dbd 9d7e 6e3d
00000160: fa3f c1bc 801e 9ebd a9d0 e9bd 25f8 6cbe
00000170: 0842 8ebd ac1c 903d d402 603c d74b 94bd
00000180: 98cc 1abd 7a12 5fbd c665 b83d d09c babb
00000190: 4c81 edbd 0360 583d 3e4d d43c 0da2 8abd
000001a0: 2c32 81bc 9e95 c0bc 5018 90bc fd03 013e
000001b0: e34a bbbd f49a 833c 807f 303c 9a65 a93d
000001c0: 43cf cfbd 030b 02be 3a68 59bd 6873 37b9
000001d0: 4020 fe3d 68bb abbd ef4d 9c3d 101d 943d
000001e0: fd08 f43c 77f5 1dbd 8c85 dabd fc9c ac3d
000001f0: e1d0 e43d 08ef 10bd 6861 98bd e03d 5a3c
00000200: 2fd5 34be f183 7fbd 773a 04be e835 a6bd
00000210: c5c0 56be 1dd3 ae3d f048 e5bb 52e2 21be
00000220: 46e9 bfbd bbd3 673d 7755 8bbd 78e4 c5bb
00000230: 188f 153d de41 6c3d a76b 20bd 80f0 42bd
00000240: a493 6ebd 667b 6c3d 197b 3f3d e795 1dbe
00000250: 45fc 00bd dbf6 d5bd 045b 063c 61fe 5abd
00000260: 7fca 9ebd 502f c63b 0df9 a5be 1d92 a3bd
00000270: ee18 05bd 2ffc aebd aab9 80bc cc9a 5fbe
00000280: b0da c93a fc86 25be 10b7 b03c e45c 97bd
00000290: 8ad8 93be ba16 643d 4ae1 bfbd bbb0 b4bc
000002a0: 7acd b9bc b786 edbd 78d6 883d 0236 013d
000002b0: cd0b ac3d 784c 3dbc 2878 933c 8410 b1bb
000002c0: d2f7 7abd 52e1 99bd d386 dc3d 70bb ccbc
000002d0: d798 e63d 560e e43c 629e 623e 8491 ae3d
000002e0: 897c f53d 348e c5bd 688a 743c 00e2 8e3b
000002f0: 6a4c adbd 1c5c 1d3d 38fd 7a3c acdc 4dbd
00000300: 6339 153d 36c1 dcbc 7490 87bd 48b5 45bd
00000310: 92d4 c5bd 6cf2 093e 6e26 383d a459 bbbd
00000320: 938f 7a3d e9fc 973c 1257 67be 8847 b93d
00000330: feb4 2a3c a018 aaba 56a1 e5bd a0c2 643b
00000340: c62b e6bc 5ba6 8b3c 0e01 e63c 3ff7 02bc
00000350: 6356 4bbe 2089 59ba a825 c43c a646 0fbd
00000360: 28de 65bc 8e38 f7bd 8ab6 72bd 3475 0ebe
00000370: 3089 e63d 8ac5 77bd 34c9 d43c 18e0 e9bc
00000380: b727 693e 304e e83b 46c5 d1bd c1e2 7bbe
00000390: 148c 003e f5a2 9fbd 7a64 203d 146f ae3d
000003a0: 8c0f dabb 312f a0bd d2f0 8d3d f158 11be
000003b0: 858a d83e 6fd7 2cbd c4ab e8bc f683 47be
000003c0: 4788 6dbd ddec dfbd f2d6 22be 9e1a 8cbd
000003d0: de93 16bd 033c 993d 7245 0e3d 20c5 823d
000003e0: 686b 173e 9b75 0cbe d84a f3bd b2c6 823e
000003f0: 09ef 013e e05e 233b 5913 1a3e 906a e13c
0.0837354 0.003711928 0.24586727 -0.28225458 -0.052394222 -0.07156735 -0.08495938 -0.008229256
-0.022544181 0.06001666 0.12046667 -0.052463733 0.024450492 0.055057716 0.087494425 0.052293383
0.0017140955 -0.1931522 0.008294754 -0.08945952 0.08493449 0.04614166 0.036798 -0.17991991
-0.024904635 0.013964277 0.024871683 0.038904462 0.028776612 -0.04598252 0.041728184 -0.15989678
-0.015726326 0.009575866 -0.05779633 -0.085976966 -0.075318635 0.22923028 -0.011107236 -0.016192507
0.12173583 -0.017998762 -0.05226683 0.12227851 -0.00043579563 0.040877715 -0.03906805 -0.06333257
-0.08855144 0.035582468 0.12216369 -0.14893912 0.0005216971 -0.025765702 -0.035543144 0.017326484
0.073769614 0.055393822 -0.24504045 -0.06099037 -0.13295604 0.026690844 -0.043533616 -0.03554611
-0.05206892 0.005084645 -0.09496824 -0.05311019 -0.023710722 0.050189912 0.05019377 0.13606544
0.049873322 -0.036026742 0.05967142 0.11184038 -0.036418427 -0.016771011 0.043708984 0.04565976
-0.089126885 -0.10604017 -0.10728347 -0.12407275 0.12663351 0.062652476 -0.03450921 0.058226217
-0.023590077 -0.07720661 -0.11416752 -0.23141535 -0.06946188 0.07036719 0.013672549 -0.07241028
-0.037792772 -0.05446098 0.09003787 -0.005694963 -0.11596927 0.05282594 0.025915738 -0.0676919
-0.015770994 -0.023508843 -0.017589718 0.12599178 -0.09145143 0.016065098 0.010772586 0.08271332
-0.10146954 -0.12699513 -0.053077914 -0.00017495232 0.12408495 -0.08385354 0.07632052 0.07232106
0.029789442 -0.03856417 -0.10670003 0.0842838 0.11172653 -0.035384208 -0.07440454 0.013320416
-0.17659448 -0.06238169 -0.12912928 -0.081157506 -0.20971973 0.085363604 -0.00699722 -0.1580899
-0.09370665 0.056598406 -0.068034105 -0.0060391985 0.036513418 0.057680003 -0.039165165 -0.04759264
-0.05824627 0.05773487 0.046748254 -0.15389214 -0.031490583 -0.104474746 0.008200411 -0.05346525
-0.07753467 0.0060481206 -0.32416573 -0.07986853 -0.032494478 -0.08544194 -0.015713532 -0.21836394
0.0015400257 -0.16164774 0.021571666 -0.07390764 -0.28876144 0.055685736 -0.09369142 -0.022056928
-0.022680987 -0.115979604 0.06681532 0.031545646 0.08400688 -0.011553876 0.01800163 -0.00540358
-0.061271496 -0.075136796 0.10767903 -0.02499172 0.11259621 0.027838867 0.22130731 0.08523849
0.11986644 -0.09646264 0.014925577 0.0043604374 -0.084618405 0.03841792 0.015319161 -0.050259277
0.03643168 -0.026947599 -0.06619349 -0.048268586 -0.09659685 0.13471383 0.044958524 -0.09147957
0.06117208 0.018553214 -0.22591808 0.09046847 0.010419128 -0.001297731 -0.11212413 0.0034906045
-0.028097045 0.017047098 0.028076675 -0.007993518 -0.19857173 -0.0008298326 0.023943737 -0.034979485
-0.014030017 -0.12071334 -0.059256114 -0.13911897 0.11256635 -0.060491122 0.025974847 -0.028549239
0.22769056 0.007089399 -0.10242705 -0.24598219 0.12553436 -0.077947535 0.039158322 0.0851728
-0.0066546854 -0.07821501 0.069306985 -0.14194085 0.42293182 -0.04219764 -0.028402217 -0.19483933
-0.057991292 -0.1093385 -0.15902308 -0.06841014 -0.03676211 0.074821495 0.034734197 0.06385255
0.14787066 -0.13716738 -0.1187951 0.25542217 0.12688841 0.0024928376 0.15046443 0.027516633
