weights/312_blocks_block16_se_expand_bias.npy (npy, 2816 bytes, 1 tensors)

array f4 [672]
0.08116166 0.021826599 0.07360743 0.11742396 0.01695491 -0.11861721 0.070615545 0.09815326
0.08495742 -0.026397577 -0.047544245 0.0023403892 0.10058778 0.048501533 0.05917476 0.061278906
0.049481597 -0.01428045 0.03780171 0.08466826 0.04585245 0.10704408 0.029109841 -0.02265943
0.030858008 0.056962173 0.08043931 0.054625783 -0.02984699 0.078020304 0.06813617 0.041230455
0.0707152 0.009051149 -0.05022597 0.05708846 -0.1623277 0.079360306 -0.09324037 0.051127486
0.048961505 0.06359066 -0.030506136 0.02698613 0.033513546 0.024396067 0.052161165 0.057469983
0.053100765 0.08107594 0.05064113 -0.087883644 0.08919177 0.036410652 0.043268457 -0.13269065
0.07894757 0.008884594 0.044639084 0.04728547 0.05041759 0.023216786 -0.07489481 0.07415331
0.061752208 0.07362469 -0.00035696954 0.08198711 0.08636683 0.053323276 0.02616023 -0.113968946
0.07732142 0.011093078 0.06983342 -0.13273956 0.061273057 0.065392666 0.04279934 0.030172937
0.031552434 -0.050507035 0.021995598 0.056172486 0.02802406 -0.1735115 0.070833966 0.02209808
0.041512575 0.03812714 0.04422436 0.031357888 0.06786057 0.09419999 0.05397122 0.082229435
0.057694495 -0.033820085 -0.059866462 0.08197399 0.025670676 0.08383531 -0.16172555 0.07104633
0.049458306 -0.03585504 0.062161393 0.06729264 0.01181707 0.021964634 0.032850914 0.025560485
0.057172157 0.04442963 -0.04089158 0.027149038 0.08763302 0.055179533 -0.028649366 0.0069280392
-0.08437375 0.074357174 0.064405024 0.08480947 0.031625703 -0.05442811 -0.010383606 0.054070663
-0.09622498 0.022375064 0.048704118 -0.071005486 0.10523386 0.05184856 0.047437645 0.04176759
0.09165428 0.10990852 0.009964235 0.06762819 0.032685954 0.037261967 0.05856961 -0.032958847
-0.3367143 0.031804495 0.025932124 0.0706693 -0.0027571742 0.04600222 -0.011789834 0.054732457
0.03896063 0.035741188 0.083441205 0.14714153 0.11786338 0.0659924 0.027043318 0.040198203
0.054198835 0.05196568 0.051429234 0.050460234 0.06470362 0.012636588 0.022028154 0.11099704
0.14249593 0.094292074 -0.08371288 0.059893087 0.044677276 0.020772282 -0.06916583 0.014623537
0.08693836 -0.12068485 0.09079757 -0.111068375 -0.01141634 0.06649532 0.014457914 -0.019100957
0.08560476 0.06305581 0.049917884 0.049295012 0.009118866 -0.13479462 0.09757378 0.109334
-0.05206671 0.0985048 0.078483276 0.1250283 0.082828514 0.062064264 0.06891496 -0.10237652
-0.060624212 0.049241178 0.050270338 -0.012506679 0.10382956 0.044780016 0.028884375 0.0023558857
-0.13373718 0.11700724 0.037193496 0.00027827776 0.070161976 0.13095847 0.11418251 0.014803586
0.047257982 -0.004350375 -0.026060686 0.049807727 0.009861789 0.037617516 -0.15704161 0.09251837
0.07914086 0.018228577 0.035157677 0.055529542 0.008868608 0.059024934 0.12427037 0.045981456
-0.0062236437 0.06350606 0.053948913 0.084697224 -0.0061280383 0.032854334 0.025773628 0.07306002
-0.047125258 0.12230315 -0.091636986 0.021964163 0.020817159 0.071339466 0.11809635 0.047297187
0.04160751 0.026504189 -0.20363587 0.053284172 0.045000557 0.056024645 -0.12154157 0.093757115
00000000: 1638 a63d b2cd b23c 7ebf 963d f97b f03d
00000010: 06e5 8a3c 94ed f2bd e29e 903d 9404 c93d
00000020: 28fe ad3d bb3f d8bc c1bd 42bd 3761 193b
00000030: f700 ce3d 8ba9 463d 3c61 723d 97ff 7a3d
00000040: 37ad 4a3d 8cf8 69bc f7d5 1a3d 8d66 ad3d
00000050: c7cf 3b3d ed39 db3d c377 ee3c 45a0 b9bc
00000060: efc9 fc3c 2b51 693d 5dbd a43d 49bf 5f3d
00000070: ad81 f4bc 1cc9 9f3d fa8a 8b3d 44e1 283d
00000080: 21d3 903d 454b 143c bfb9 4dbd 97d5 693d
00000090: 3c39 26be a887 a23d cff4 bebd 0e6b 513d
000000a0: dc8b 483d d23b 823d 01e8 f9bc 0412 dd3c
000000b0: 8045 093d 43da c73c f2a6 553d a565 6b3d
000000c0: 3080 593d 240b a63d 136d 4f3d 57fc b3bd
000000d0: 2daa b63d 5623 153d 443a 313d 0fe0 07be
000000e0: 43af a13d b090 113c 79d7 363d 69ae 413d
000000f0: ad82 4e3d 2131 be3c 7362 99bd b1dd 973d
00000100: e2ef 7c3d 8bc8 963d a427 bbb9 dce8 a73d
00000110: 18e1 b03d 8269 5a3d fb4d d63c 8d68 e9bd
00000120: b15a 9e3d bebf 353c d304 8f3d e1ec 07be
00000130: 75f9 7a3d 97ec 853d 5c4e 2f3d 3c2d f73c
00000140: 203d 013d 77e0 4ebd 1d30 b43c 1f15 663d
00000150: b792 e53c 00ad 31be 6611 913d 0807 b53c
00000160: 1709 2a3d 342b 1c3d 9a24 353d 2171 003d
00000170: 7cfa 8a3d edeb c03d ed10 5d3d e867 a83d
00000180: 1051 6c3d ee86 0abd 8936 75bd fbe1 a73d
00000190: 4f4b d23c d9b1 ab3d 629b 25be bd80 913d
000001a0: cb94 4a3d bcdc 12bd f29c 7e3d b9d0 893d
000001b0: 629c 413c 2def b33c ae8e 063d 3964 d13c
000001c0: 5a2d 6a3d d8fb 353d ee7d 27bd a967 de3c
000001d0: f178 b33d ef03 623d 13b2 eabc 9b04 e33b
000001e0: 25cc acbd 9348 983d c8e6 833d 96b0 ad3d
000001f0: f489 013d 03f0 5ebd 0020 2abc 3379 5d3d
00000200: 9a11 c5bd e94b b73c f87d 473d 536b 91bd
00000210: da84 d73d 285f 543d fa4d 423d 7e14 2b3d
00000220: 3db5 bb3d b817 e13d 0841 233c a680 8a3d
00000230: b5e1 053d 01a0 183d b0e6 6f3d dbff 06bd
00000240: d165 acbe 6e45 023d 9b6f d43c 11bb 903d
00000250: b5b1 34bb d36c 3c3d 262a 41bc 242f 603d
00000260: 2e95 1f3d 5a65 123d 39e3 aa3d 45ac 163e
00000270: 5b62 f13d 0627 873d f389 dd3c dfa6 243d
00000280: 99ff 5d3d f7d9 543d 76a7 523d 64af 4e3d
00000290: 5583 843d b109 4f3c 6374 b43c 6b52 e33d
000002a0: 74ea 113e 341c c13d a971 abbd 7452 753d
000002b0: 85ff 363d a22a aa3c d1a6 8dbd 8f97 6f3c
000002c0: bd0c b23d 9e29 f7bd 14f4 b93d d177 e3bd
000002d0: 9a0b 3bbc b32e 883d e3e0 6c3c 9c79 9cbc
000002e0: 8c51 af3d 6823 813d b276 4c3d 91e9 493d
000002f0: 4c67 153c 9a07 0abe c3d4 c73d 81ea df3d
00000300: e743 55bd e2bc c93d d7bb a03d 6b07 003e
00000310: ffa1 a93d 1937 7e3d 4923 8d3d c8aa d1bd
00000320: 1851 78bd 1eb1 493d 45e8 4d3d d0e8 4cbc
00000330: 98a4 d43d 406b 373d ed9e ec3c 3465 1a3b
00000340: 66f2 08be 7ea1 ef3d 3558 183d cfe5 9139
00000350: 15b1 8f3d fa19 063e 85d8 e93d bd8a 723c
00000360: 9691 413d 978d 8ebb 387d d5bc 3003 4c3d
00000370: 5793 213c d314 1a3d 84cf 20be 457a bd3d
00000380: 9a14 a23d 1954 953c 7f01 103d f272 633d
00000390: a34d 113c 21c4 713d 7781 fe3d 0d57 3c3d
000003a0: b5ef cbbb 770f 823d 89f9 5c3d bd75 ad3d
000003b0: b6cd c8bb 4492 063d 3723 d33c 7ea0 953d
000003c0: 6a06 41bd 137a fa3d 2cac bbbd 30ee b33c
000003d0: bf88 aa3c 6d1a 923d 80dc f13d b2ba 413d
000003e0: a36c 2a3d 501f d93c ec85 50be 8140 5a3d
000003f0: 8152 383d 197a 653d c9ea f8bd bb03 c03d
