weights/323_blocks_block17_depthwise_weight.npy (npy, 96128 bytes, 1 tensors)

array f4 [960, 1, 5, 5]
00000000: e0c1 a53c 2095 68bc f301 1cbe 58d4 29bd
00000010: e021 c03b 4073 323b 705c 0fbd db74 33be
00000020: 98be 2fbd 2890 9a3b 60aa 0abc 1498 5dbd
00000030: 40bc 21bc 68db 50bd 605c f1bc 18bc 7ebd
00000040: 20f2 fe3b 5002 863e 904b 9c3c 5845 26bd
00000050: c888 b63b d6a2 163d 4d0b e93d 6c71 eb3c
00000060: 58dd 513c 6825 da3c c0e7 253d 904e 223c
00000070: 403d 433c 88ea 1a3d 2059 a53c 3269 373d
00000080: e891 0d3e a0a2 e73c 783e 053d 9032 1a3d
00000090: 3038 e83d c794 9e3e 3d39 f33d c8d8 003d
000000a0: e8cf 6a3d 8075 de3c 8853 843d e84a c93c
000000b0: cc99 443d b873 cc3b 2099 0dbd ac67 973c
000000c0: 1017 f3bc 4098 4f3c 103d a1bc 389d eebc
000000d0: 803a 7bbc bb57 483d 88c8 e03d 30bc 54bc
000000e0: d88e 64bd 3040 f9bd f146 583e 6c4b da3d
000000f0: fcbc d2bc 201f 89bd f03f 3dbe 838a 1ebe
00000100: 9053 d0bc b8bc 48bd 2827 1fbd 68e8 dcbc
00000110: 206e 6fbd 30e7 aebc 940c 8ebc 78e2 01bd
00000120: 207b 83bc b416 e1bc 6856 15bc c0a6 983b
00000130: 205d 95bb a816 04bd d8d8 253b 007d 3a3a
00000140: d8a3 b43c e613 693d 0016 243b 5447 203d
00000150: b84f 493d e454 4f3d bf57 443e 09b3 03be
00000160: b856 3a3e 4ed9 f53c 5807 3b3d 0cdc 853d
00000170: bcfb 24bd e070 f93c 843a 513d ee31 873c
00000180: 2845 563b 40a1 99bc fc46 153c a083 7f3c
00000190: 8ea2 c63c 80de cd3b a054 193d e87f 823c
000001a0: 70d9 183d b046 1c3d d0d4 b03d 8bed ce3d
000001b0: 122e b03d 8de0 253d e547 983d b299 1c3e
000001c0: 3888 bbbd 08dc e23d 6c9a d33d 0e93 143d
000001d0: 504d 3bbc a815 e8bd e065 07bc 4255 8d3c
000001e0: 9076 8d3c e0fd 973c 24f3 633c f65f bd3c
000001f0: a04e c93b ecee 75bc a0fd c43b 9078 b63c
00000200: 704f 513d 6019 ae3d 8072 a0bc df97 35bd
00000210: 485a 403c 9ebf 053d 9c79 9f3d 6016 843c
00000220: 08af 4ebd 6c8b 0dbd 1860 f7bd b4d5 ea3d
00000230: 007a 4dbc bdac 7fbd 94f3 23bd 986e 293d
00000240: a083 903d 1081 a1bb a01a 753c 765f b33d
00000250: 6a0a b13d c042 773d 20cf 94bc 0064 0d3b
00000260: f3e8 bc3d f061 ab3c 9880 86bc 808e 2e3c
00000270: 205f 933b bb25 1e3e 00ce 6aba 000c acbb
00000280: c858 3e3c 48ad 4c3c b1cf 743e 90c1 a83c
00000290: e03c 283c a8a3 1ebd 0097 2abc a0fc 2b3e
000002a0: 40a1 9ebc e06e f6bc 417b 10bc c859 b73c
000002b0: 58a6 6d3d 8009 433c 9093 38bc 9aac 26bd
000002c0: 1099 33bc 62d0 babc b027 e9bc 3cd0 f7bc
000002d0: 00f1 86bc ad7f 4ebd 288c 29bd baf3 1cbd
000002e0: bc28 a5bc 6002 4abd f09e 6cbd 1eb5 b0bd
000002f0: e01f 72bd 9aa5 04bd 10e8 38bd b47b 9abd
00000300: 94f8 a4bd 9838 6cbd 4bda 29bd 788d 1fbd
00000310: 3ff9 f4bc 4c40 bdbc c085 fabc c8b7 01bd
00000320: 0051 4fbb 8036 57bb 0018 79bb 70ff 33bc
00000330: 304f cc3c 4086 373c 8002 1cbb b01a b6bc
00000340: c01a e1bb 5cbb f13b b81f f9bc 7169 283d
00000350: a810 583d 200e 05bc 94da 173c e03b 82bc
00000360: c460 4f3d 3a36 853e 54b3 663d 807b 9ebc
00000370: 0c88 523d d04b 4b3d de66 413d 4039 733d
00000380: 188f 743d 1077 273d 9055 4a3d eee3 2d3d
00000390: 5685 943c 3b4d 323d 9c67 853c e4d2 493c
000003a0: 4438 473d 002a 173b 8475 293d 4a57 833d
000003b0: e1ce 8f3d f826 613e c6a3 523d 7f01 793d
000003c0: 1e66 603d 20a6 d1bc 00ec f33c 10ff cbbb
000003d0: c892 153d 866c 753d 537c 033d a47f 993d
000003e0: ac62 413d b43d 2b3d 2e47 05bd 0cd5 46bd
000003f0: b999 16be 9032 60bd 8a1f b3bc 4044 213d
0.020234048 -0.01419571 -0.15235119 -0.041462272 0.005863413 0.002722934 -0.035000265 -0.17525046
-0.042906374 0.004716892 -0.008463472 -0.05410011 -0.009871542 -0.050990492 -0.029462993 -0.0621911
0.0077803284 0.2617364 0.019079 -0.040593475 0.005570505 0.036776386 0.113791086 0.028740607
0.01280912 0.026629165 0.040504217 0.009906426 0.011916459 0.037821323 0.0201841 0.044778056
0.1382519 0.028275788 0.032530278 0.037645876 0.11338842 0.30972883 0.11876152 0.03145674
0.05732718 0.027155638 0.06461245 0.02457185 0.047998235 0.0062393807 -0.03456986 0.018482052
-0.029674083 0.012670577 -0.019682437 -0.029127702 -0.015333772 0.04891179 0.10975748 -0.0129843205
-0.05580029 -0.12170446 0.21120812 0.10658917 -0.02572488 -0.0669539 -0.18481421 -0.15482526
-0.02543047 -0.0490081 -0.0388557 -0.026966289 -0.058454633 -0.021350473 -0.017339982 -0.031710118
-0.016049922 -0.027476646 -0.009114839 0.00465855 -0.0045582205 -0.03224817 0.002530625 0.00071139634
0.022050783 0.056903742 0.0025037527 0.039130524 0.04914829 0.050618067 0.19174097 -0.12861265
0.18197143 0.030010846 0.0456613 0.06536111 -0.040279135 0.03044933 0.051081195 0.0165033
0.003269503 -0.018753648 0.009111162 0.015595347 0.024247434 0.0062826276 0.03743422 0.015930131
0.03731674 0.03815335 0.08634341 0.101039015 0.08602537 0.04049735 0.07435588 0.15293005
-0.09156841 0.11077124 0.10332188 0.036273055 -0.011432007 -0.113322556 -0.008264035 0.017252568
0.017268449 0.018553674 0.01391295 0.023117047 0.006143406 -0.015010577 0.00601168 0.022274286
0.051101148 0.08500934 -0.019585848 -0.04433429 0.011740275 0.032653444 0.07786867 0.01612395
-0.05045989 -0.03455679 -0.12078875 0.11466542 -0.012541294 -0.062420595 -0.040027216 0.041365236
0.070563555 -0.0049287155 0.014959961 0.08758442 0.086445644 0.060366392 -0.018165171 0.0021574497
0.09224119 0.020920724 -0.01641874 0.010654092 0.004497424 0.1544408 -0.0008957088 -0.005250454
0.011617847 0.012492485 0.23907353 0.02060011 0.01026842 -0.038730294 -0.010411978 0.16795588
-0.019364 -0.030082166 -0.0088184485 0.022381678 0.058019966 0.01190412 -0.01126565 -0.04069195
-0.010961786 -0.022804443 -0.028461307 -0.030250661 -0.01647234 -0.05041473 -0.04139343 -0.038318373
-0.020161025 -0.04931867 -0.057768762 -0.08628295 -0.05911243 -0.032384492 -0.045143187 -0.07543126
-0.08055225 -0.05767116 -0.041467946 -0.038953274 -0.029904006 -0.023101948 -0.030581355 -0.031669408
-0.0031633973 -0.003283888 -0.003800869 -0.010986194 0.024940103 0.011201441 -0.00238052 -0.022229522
-0.006869644 0.0073770713 -0.030410632 0.04111618 0.05275026 -0.008121043 0.009268422 -0.015897691
0.050629392 0.26017934 0.056323364 -0.019345999 0.051399276 0.049632847 0.047217242 0.05938077
0.059706777 0.04088503 0.049398005 0.0424537 0.018129986 0.043530684 0.016284756 0.012318347
0.048637643 0.0023065805 0.041371837 0.064131334 0.07021881 0.21987522 0.051425718 0.060792442
0.054784887 -0.02559191 0.02977562 -0.006225474 0.036516935 0.05991795 0.032100987 0.07495049
0.04721324 0.04180689 -0.032538585 -0.04854302 -0.14707078 -0.05473572 -0.021865625 0.03937173
