weights/328_blocks_block17_se_reduce_weight.npy (npy, 153728 bytes, 1 tensors)

array f4 [40, 960, 1, 1]
00000000: c051 bc3b b0af b2bc d00e 083c e049 7d3d
00000010: 200e a4bc c073 ea3b c844 dfbc 8068 6d3c
00000020: e034 bc3c d075 26bd c0be 213c 4027 803b
00000030: d63e 993c 2bd9 d5bd f84a 9b3a 9d11 b2bc
00000040: d81b dc3c 542e 8bbc 7a0e 99bd 8010 333b
00000050: 87a7 99bc 0050 b73c 101a 93bc d060 3dbb
00000060: 3cf4 27bc 5c27 9ebd 0006 bdba d407 9a3d
00000070: 78e5 fbbc 20d7 e23b 9854 28bd b0b6 c9bc
00000080: 8017 af3b 0023 84ba 2080 a3bc e8d7 943c
00000090: 40e0 f2bc ed61 b53c 4713 593c d0c5 33bc
000000a0: 3e11 88bd 98a6 d93c c047 f8bb 80a7 303b
000000b0: 804b aabd 223c bd3d 684a 993d d545 783e
000000c0: 38fc 973c 4028 86bc 6821 d8bc f9fe eabb
000000d0: b06c bbbc e01b 453c 4064 4c3b 78ff cd3c
000000e0: 3306 11bd 80e7 003b 20b5 e53b 981f d03c
000000f0: b08f 363c 5cbb 2bbd 245e 6bbd 14fb 7a3c
00000100: a069 3d3a a83a 913c 00fc c1b9 d41d 173d
00000110: 78ad 4e3d d8a0 efbc 8886 3dbd a0c2 abbb
00000120: 008d 953a 1880 f93c 9491 e0bc c0e0 e13b
00000130: c082 563c 2001 9b3b 488e 84bb d814 e53c
00000140: 4dd1 5fbe 9058 34bc e898 0f3c e1db fabd
00000150: 40b3 073b 1167 303d 7033 ac3b 008c aabb
00000160: b45b 353d b0cc 1dbc c039 90ba 40d8 273e
00000170: 8448 9dbd 0056 563a 48ba c23c 60ec 393b
00000180: 5a1e 963d 9084 c4bb 8c50 8cbc e163 2e3d
00000190: f8f8 67bd 50f4 833c 70e9 48bc e0d4 5e3c
000001a0: 1032 40bd c023 a33b b06f a13b 0039 c8bc
000001b0: b8ae 1a3d 847a 85bd 70dc d73b d25c 183d
000001c0: 005c aa3a b8d5 be3c a7e3 7fbc 00e4 4eba
000001d0: ca24 223e 8c3b 203c 12e5 33bc 8ca1 e23c
000001e0: 0020 a4bb 806c 9b3c 4031 283c 60d4 b13c
000001f0: 00c2 c1ba 5010 b1bc 1046 0f3c b853 183c
00000200: d0ae e63c 20e0 95bb 00da cdbb 90f8 9bbd
00000210: 38bf cf3d c0be 9bbb a095 a1bb 22b6 c93c
00000220: a008 023d c8b8 e0bc b44a 00bc 10ff e8bb
00000230: 3040 39bc c059 aabb 74d0 7ebc 8461 bdbc
00000240: d7c9 023d 54aa e33c e07d ebbc 80df f43b
00000250: a8d1 2bbc d04c f2bb e05d 94bb b0e7 c4bb
00000260: 4097 b03b 2e0f 10bd 7a57 d93c 0078 d7bb
00000270: 4038 b03b 603f 81bc d881 9a3c 88be e5bd
00000280: 60b0 923c 523e 00bd e834 fb3c 74fa a7bc
00000290: bec9 3f3c b617 c83e 2061 53bc 054d a73d
000002a0: 702d cebc b8a3 243d 6002 67bd 7796 a63c
000002b0: 68fd 7b3c e0b3 163d 0f49 a5bc ca7b 6f3d
000002c0: 4836 abbd 1439 cabc 52ff 82bc 9640 db3d
000002d0: e846 8dbb d094 dc3c b019 15bc c4f9 303c
000002e0: be70 a0bd d885 d83c 82e0 81bc 2d03 56bd
000002f0: 78bc d8bc 0566 05bd 0030 a138 afe5 88bd
00000300: 0021 6d3b 9ac9 e23b b0cb 5a3c 081c 1f3c
00000310: 305d c13c d0ae 44bc f0af 07bd a073 aebb
00000320: 601b dbbc 00f0 6dbc d871 05bc 1022 163c
00000330: 45cd e43c 8438 9d3c 26a8 3bbd 8048 88bb
00000340: da50 07bc 0036 ac3c 0029 18bd 44d4 83bc
00000350: 00c6 303c a0aa 5f3c c33b 893e b89c ba3b
00000360: 8087 313a 5c4f 49bd f0c6 8c3b 8087 e23a
00000370: 6a11 0c3c 086f 223d 7cd4 82bc 0889 adbc
00000380: d0b6 983b fc70 3abd 8058 7f3a 0009 61bb
00000390: e0b4 3bbc a46e 57bd 0905 bdbc c0b4 233b
000003a0: 80d5 2b3b 7c19 7dbd 18dc 853c 8036 02bc
000003b0: eb26 acbc c0ff 13bc 7e90 1f3e a853 823c
000003c0: 503c b23c e01f aa3c 20f6 2f3c 975d 313d
000003d0: a893 00bd be28 86bc f00e 2fbc fc11 06bd
000003e0: c8bc 703d d275 27be 818d 9abd 08bb 8fbc
000003f0: f4f2 72bd 80c1 533c 1889 f43c 400c ec3b
0.00574705 -0.02181229 0.008304313 0.06183803 -0.020026267 0.0071549118 -0.027254477 0.014490247
0.022974432 -0.0406397 0.0098721385 0.003910929 0.01870672 -0.10441812 0.0011847904 -0.021736914
0.026868746 -0.016989864 -0.07473464 0.0027323067 -0.018756641 0.022377014 -0.017956764 -0.0028896816
-0.010251101 -0.07722351 -0.0014421344 0.07521024 -0.030749068 0.0069226176 -0.0410963 -0.024623245
0.0053433776 -0.0010081232 -0.019958556 0.018169358 -0.029647946 0.022141421 0.013249225 -0.010972455
-0.06643914 0.026568696 -0.0075769126 0.0026955307 -0.08315182 0.09239985 0.07484895 0.24245389
0.018552884 -0.016376615 -0.026383117 -0.0071715084 -0.022878975 0.012030572 0.0031187683 0.025146231
-0.035406303 0.0019669235 0.007010117 0.02540569 0.011142656 -0.041926727 -0.057462826 0.015318651
0.0007225517 0.017728165 -0.00036999583 0.03689368 0.0504584 -0.029251501 -0.046270877 -0.005241707
0.0011409819 0.030456588 -0.027413167 0.0068932474 0.013092697 0.0047303587 -0.0040452816 0.02796404
-0.21857186 -0.011007443 0.008764483 -0.1224897 0.0020706207 0.04306704 0.0052551553 -0.0052046776
0.044276908 -0.009631321 -0.0011003539 0.16391087 -0.07679847 0.0008176267 0.023770466 0.002836965
0.07330008 -0.005997248 -0.017128251 0.04257572 -0.05663392 0.016107708 -0.012262687 0.013600558
-0.046922743 0.004978627 0.0049266443 -0.024441242 0.03776428 -0.065175086 0.0065875575 0.037197895
0.0012997389 0.023295268 -0.015618241 -0.0007892251 0.15834346 0.009779822 -0.010979908 0.027664922
-0.0050086975 0.018972635 0.010265648 0.021707714 -0.0014782548 -0.021614224 0.008744732 0.009297304
0.028159529 -0.004573837 -0.006282091 -0.07615769 0.10143894 -0.004752964 -0.004931167 0.02462298
0.031746507 -0.02743186 -0.007830311 -0.007110484 -0.011306807 -0.0051986873 -0.015552629 -0.023117788
0.03193077 0.02779118 -0.028746545 0.0074729323 -0.010486998 -0.0073944107 -0.0045277923 -0.0060090646
0.005389124 -0.035170726 0.02653097 -0.0065755844 0.0053777993 -0.01577729 0.018860742 -0.112179816
0.017906368 -0.031309433 0.030664876 -0.020505168 0.011705814 0.3908059 -0.012901574 0.08168987
-0.02516815 0.040195197 -0.05639875 0.02033542 0.015380241 0.036792636 -0.020176439 0.058467664
-0.08359963 -0.02468542 -0.015990887 0.10705678 -0.004311431 0.026926428 -0.009100363 0.010801736
-0.07834004 0.02643101 -0.015854124 -0.052249122 -0.026457056 -0.032567997 7.686019e-05 -0.06684434
0.0036183 0.0069210054 0.013354227 0.009711273 0.023604006 -0.012004569 -0.03312677 -0.005323842
-0.026746452 -0.0145225525 -0.008144818 0.009163395 0.027929911 0.019191988 -0.045814656 -0.0041590333
-0.008259023 0.021021843 -0.037148476 -0.016092427 0.010789394 0.01365152 0.26803407 0.005694952
0.0006772205 -0.04914795 0.004296176 0.0017282814 0.008549074 0.03965667 -0.015970461 -0.021183506
0.004660465 -0.045517907 0.00097406656 -0.003433764 -0.011456698 -0.05259575 -0.02307369 0.0024979562
0.0026219785 -0.061791882 0.0163403 -0.007947564 -0.021014651 -0.0090331435 0.15582463 0.015909031
0.021757275 0.020767152 0.010739833 0.043302145 -0.031390816 -0.01637685 -0.010684714 -0.032731995
0.058773786 -0.16353539 -0.07546521 -0.017545238 -0.05931373 0.012924552 0.029850528 0.0072036088
