weights/342_blocks_block18_depthwise_weight.npy (npy, 96128 bytes, 1 tensors)

array f4 [960, 1, 5, 5]
00000000: 88aa 6f3d 404e e13c 70e0 f33d d0be 833c
00000010: 2064 623c 2094 4d3c 4c67 963d 1d77 523e
00000020: 7476 be3d c097 80bb a87e 32bd 5048 2dbd
00000030: b6cd c8bd 23b5 88bd 9395 22bd a01f 70bc
00000040: 92f3 dbbd 22d1 25be c821 c6bd 40e4 73bc
00000050: 2a96 90bd 6f58 c9bd ffbb 16be 174f c4bd
00000060: 54c6 a6bd 309e 9b3c 6034 aa3c 1890 3c3d
00000070: 984b 213d 400d c73c 8869 243d 181e 923d
00000080: 409b 463d 2c64 c43d 5467 233d 8564 a23d
00000090: 6d2c 943d c7e1 0a3e 983d a43d dce6 863d
000000a0: 98b8 303d 1c33 883d 06f7 a33d dad1 a33d
000000b0: 587e 1f3d 9ae9 813d 6c01 933d 1df9 a43d
000000c0: 606d bd3c c92b 623d 1a6b 5e3d 7028 fc3b
000000d0: c809 e7bc 8c50 01bd f07c a5bc 605a 8a3b
000000e0: 30ff 983c b00a 0abe 20c2 89bd 88c6 42bd
000000f0: 302e b1bc 24d7 82bd e517 8cbd ef28 ebbd
00000100: f048 22bc 8267 38bd 9532 ffbd d0d4 e03c
00000110: 5e1f 1b3e 7047 153e e0f8 39bc 4040 c4bc
00000120: d3f3 683d ec5c 353e ee91 003e e8d6 113d
00000130: 102c fe3c d418 b2bc 7053 91bc ce97 80bd
00000140: 7035 c53c b02d 4a3d a40c 22bd 9e16 97bd
00000150: ac2d 97bd c43e 033e bae7 1d3e fac8 2bbd
00000160: d4c2 0cbe 5a9b 09be 7024 503d 38af 823d
00000170: 88f9 533c 08d7 abbc 887c 2ebd d8a4 903d
00000180: ac71 0e3d 3010 9fbb 0046 b2ba a0c5 28bd
00000190: a02a 75bc 20ad 7abc 4044 fdbb 308e 3cba
000001a0: 9a6f 19bd 116f 6e3d 5d41 6d3d 6e70 4cbd
000001b0: 78c8 68bd f801 47bc 7860 c63d 5293 483e
000001c0: 6fb4 24be d707 aebd 644f 0ebd 1145 923d
000001d0: a2c7 d03d 1c2f 1abd 58b1 51bd a15f 84bd
000001e0: b0ea 743c 6845 c2bc 4883 38bd 80be 703b
000001f0: 80c1 3fbd 20ef 8bbd c04c f63a 0024 ee3a
00000200: 505e a7bc 00d6 b2ba 007d 14bd d098 f7bc
00000210: 00e7 02bc ac8b 6d3c b034 523d 3adc 7ebd
00000220: d291 87be 46f5 8ebd 6141 8d3e 7159 e03d
00000230: a86d 38bd d039 f7bc 5822 28bd d079 f73c
00000240: 2d50 933d d040 d8bc d069 513d a094 9ebc
00000250: 9cf9 82bd b0c3 f93c 0c22 6b3d f070 e03c
00000260: 5f1b 353d e042 bc3c 48f0 483d 14f2 793c
00000270: 0081 c1bb a06d 7a3d 20f8 3a3c 20da db3c
00000280: 98e1 513d 580e 5c3d 6a85 4f3e ec2d 2f3d
00000290: 849f 2e3d e031 f43b 7099 ffbb 2f17 a03d
000002a0: 20d7 cebb 7058 0d3c 3cc1 733d 7869 f33c
000002b0: d05c 8f3c 20e8 093d 6470 363d 6868 f33c
000002c0: 1533 633d d832 e33d a895 863d 5056 c83b
000002d0: d00c 1ebc 80c1 083c 6879 e93c 0046 90bc
000002e0: 40c0 393c 7408 7ebd 08b1 b4bd 9066 25be
000002f0: c8ea e7bd 6a13 30bd 8086 9ebb 160f 213b
00000300: b05a 073d 10ec 5cbc 60ca c8bc c815 473d
00000310: 8451 313d 66bc dd3d 645d 713d 7726 5b3d
00000320: 0056 8bbc 90b0 11bd f0bb 80bc b05a 4abc
00000330: 10d8 b4bc cf3a d7bc 54f4 87bc 00e0 c5bb
00000340: 6c0a 86bc 80ce e4bb 00d2 533c 5479 3c3e
00000350: fcc3 233e cdf4 20bd 8018 833c d050 94bd
00000360: 7413 cd3c 001f b03c 69db 8ebc 60b4 05bc
00000370: 7c72 a1bc eb02 31bd a445 12bc 6307 a1bc
00000380: 2043 a8bb a00f 89bb 6a07 f03c 58d1 0d3d
00000390: 2077 d63c 1c3a cc3c 605f 233d a03c 793d
000003a0: 7f0c c73d 004a 433d 6091 f83c 20bb 2f3d
000003b0: 2439 b83d 68cc a03e bc41 c03d c405 2b3d
000003c0: 306f 163d 00a1 093d 52df 4e3d e0b7 e73c
000003d0: c0f7 df3c a086 ca3c 0082 21ba 1c90 333d
000003e0: 00be bfba ecbd 043d 50f5 d83c 40d3 803c
000003f0: 8c46 673d 4850 033d 488a 093d e8de 603d
0.05851224 0.027503133 0.119080424 0.016082197 0.013817817 0.012547523 0.07343921 0.2055325
0.09299937 -0.00392434 -0.04357782 -0.04230529 -0.09804861 -0.06675174 -0.039693426 -0.0146559775
-0.10739817 -0.16193059 -0.09674412 -0.014885962 -0.070598915 -0.098313205 -0.14720152 -0.09585398
-0.08143297 0.018996328 0.020776927 0.046035856 0.039378732 0.02429831 0.040139705 0.07134646
0.0484879 0.09589419 0.039893463 0.07929329 0.07235036 0.1356269 0.080195606 0.06587002
0.043144792 0.06650373 0.080061 0.079990104 0.03893885 0.06343384 0.071780056 0.08055327
0.023123443 0.055217538 0.05430136 0.00769525 -0.028202906 -0.031570956 -0.020201176 0.0042221993
0.01867637 -0.1348064 -0.067264795 -0.047552615 -0.02162847 -0.06388691 -0.06840495 -0.11482417
-0.009905085 -0.045020588 -0.1246082 0.027445227 0.15148684 0.14578032 -0.01135084 -0.023956418
0.056873154 0.17711228 0.12555668 0.03560534 0.03102687 -0.021740355 -0.017739981 -0.062789544
0.024073333 0.049359977 -0.039562836 -0.07377361 -0.07381758 0.12816912 0.15420428 -0.041939713
-0.13746196 -0.13438168 0.050816 0.063810766 0.012937911 -0.020976558 -0.04259923 0.070626915
0.034776375 -0.0048542246 -0.0013601184 -0.041204095 -0.014963776 -0.015300065 -0.0077290833 -0.00071928184
-0.037459947 0.05821139 0.057923663 -0.04991191 -0.056831807 -0.0121464655 0.09686369 0.19587448
-0.16084455 -0.08497589 -0.03474368 0.071420796 0.10194327 -0.037642583 -0.05119452 -0.06463552
0.014948532 -0.023714736 -0.045047075 0.003673464 -0.046815395 -0.06832719 0.0018791184 0.0018168688
-0.020430714 -0.0013644099 -0.03625202 -0.030224234 -0.007989645 0.014498632 0.051319778 -0.062221743
-0.2647844 -0.06980376 0.27588943 0.109545596 -0.04502645 -0.030178934 -0.041048378 0.030209452
0.07193027 -0.026398093 0.0511263 -0.01935798 -0.063952655 0.030488819 0.057405517 0.027397603
0.044215556 0.022981107 0.049057275 0.01525547 -0.0059052706 0.061139703 0.011411697 0.026837409
0.051240534 0.053724617 0.20265737 0.042768404 0.042632595 0.0074522346 -0.0078002736 0.07816922
-0.006312266 0.008627042 0.059510455 0.029713377 0.017500311 0.033668637 0.044540778 0.02971287
0.055468637 0.11093682 0.065715134 0.006113805 -0.009646609 0.008346915 0.028500274 -0.017611504
0.01133734 -0.06201978 -0.088228285 -0.16152406 -0.11324078 -0.042987265 -0.004837811 0.0024575642
0.03304547 -0.013484016 -0.024510562 0.048604757 0.04329063 0.1082695 0.058926955 0.05350348
-0.017008781 -0.035568774 -0.015714616 -0.012350723 -0.022075683 -0.02627316 -0.016595997 -0.006038666
-0.016362391 -0.0069826245 0.012928486 0.18405658 0.15992731 -0.03929596 0.016002893 -0.07241976
0.02503369 0.021499157 -0.017438607 -0.0081606805 -0.01970791 -0.043215673 -0.008927736 -0.019656843
-0.005134955 -0.004182771 0.02930041 0.034623474 0.02617985 0.024930052 0.03988588 0.060848832
0.0971918 0.047677994 0.030342758 0.042903066 0.08995274 0.3140595 0.09387538 0.041753545
0.03672713 0.033600807 0.050505944 0.02828592 0.027339816 0.024722397 -0.0006161034 0.043838605
-0.0014628768 0.032407686 0.026484162 0.015725732 0.056463763 0.032058984 0.03357914 0.05490008
