weights/350_blocks_block18_se_expand_bias.npy (npy, 3968 bytes, 1 tensors)

array f4 [960]
0	0x38296a68	4.039184e-05
1	0x3c782e8f	0.015147819
2	0x3c8d0a10	0.017216712
3	0x3c9e0b26	0.019292425
4	0x3c7b248f	0.0153285405
5	0x3c3bc625	0.011460816
6	0x3c9ce233	0.019150829
7	0x3b75e0f3	0.0037518113
8	0xba263231	-0.00063398766
9	0x3c8d3c65	0.017240712
10	0xbdbd98e3	-0.092576765
11	0x3cb421ff	0.021988867
12	0xbb6f1aeb	-0.003648455
13	0xbba38963	-0.004990743
14	0x3cda5231	0.02665052
15	0x3d1fcb4b	0.039012235
16	0xbbd7d23e	-0.006586342
17	0x3c88b4a3	0.016687697
18	0x3cb514a8	0.022104576
19	0x3b46821f	0.003028996
20	0xbcbcd295	-0.023049632
21	0xb88342a0	-6.258977e-05
22	0xba4f55f5	-0.0007909232
23	0x3d1a1bf5	0.03762432
24	0x3b117ce3	0.0022199682
25	0x3c61c850	0.013780668
26	0x3d098019	0.03356943
27	0x3c9fadd4	0.019492067
28	0x3c7fc41a	0.015610719
29	0x3d13c678	0.036077946
30	0x3bb5b821	0.0055456315
31	0x39e5836d	0.00043776204
32	0x3c80f1d8	0.01574032
33	0x3c88231d	0.016618306
34	0xbc0983ab	-0.0083932085
35	0x3ad9ab65	0.0016606866
36	0x3b96b27b	0.0045989132
37	0x3c82f0ee	0.015984025
38	0x3c1d18fa	0.009588474
39	0xbbc4a3cc	-0.0060009714
40	0xbcb052d2	-0.021523867
41	0x3ca5b7e3	0.020229286
42	0x3cb4a5df	0.02205175
43	0x3c8770d3	0.016533291
44	0x3c48bf65	0.012252663
45	0xbc226bc6	-0.0099133905
46	0xbc584b28	-0.013201512
47	0x3c46f29b	0.012142803
48	0xbd034926	-0.03205218
49	0xbb42c9bb	-0.0029722292
50	0x3be41f54	0.0069617424
51	0xbb9d1024	-0.004793184
52	0xbbcc14f6	-0.0062280847
53	0x3ceaaa64	0.028645702
54	0x3c00b10a	0.007854709
55	0xbd2a3658	-0.041555732
56	0x3b98134f	0.0046409736
57	0x3ba68368	0.005081583
58	0xbbd8e884	-0.006619515
59	0xbc1ca7e4	-0.009561513
60	0x3caaefb7	0.020866258
61	0x3c071b29	0.008246222
62	0xbc6c9436	-0.014439633
63	0x3c2821ae	0.010261936
64	0xbc2852cc	-0.010273647
65	0xbcf63e2e	-0.030058946
66	0xbc13a8bc	-0.009012397
67	0xbca439a9	-0.020047026
68	0x3b505407	0.0031788365
69	0xbd38cf0a	-0.045119323
70	0x3c21c670	0.009873971
71	0x3b26deb0	0.0025462322
72	0x3b230ab7	0.0024878213
73	0x3c1d28c3	0.009592238
74	0xbb399a9d	-0.0028320916
75	0x3bdcedee	0.0067422306
76	0x3c2c0dfd	0.010501382
77	0xbbde61c4	-0.006786557
78	0x3c706dcc	0.014674615
79	0x3c06ea4b	0.008234571
80	0x3b9ebca3	0.0048442646
81	0x3c4acfa9	0.012378612
82	0xbc166e89	-0.009181627
83	0xbc202c50	-0.00977619
84	0x3c84885f	0.016178308
85	0x3b071b80	0.0020615757
86	0x3d0cc03e	0.034363024
87	0x3c58b2af	0.013226195
88	0xbc0aaaeb	-0.008463602
89	0xbbb3f917	-0.0054923403
90	0x3c0c0714	0.008546609
91	0x3bf7c241	0.0075609987
92	0xbb5024a6	-0.0031760125
93	0x3ca42bfa	0.0200405
94	0x3cbf50a7	0.023353888
95	0xbc0f33bf	-0.008740365
96	0x3c40f3a8	0.011776842
97	0x3bca482b	0.006173154
98	0x3c2e3eea	0.010635117
99	0xbc5319db	-0.012884582
100	0x3c369a70	0.011145219
101	0x3bb75079	0.00559431
102	0x3aa1b418	0.0012336997
103	0xbc82beda	-0.015960146
104	0xbd622048	-0.055206567
105	0x3c4291c3	0.011875573
106	0xbad6d7b9	-0.0016391195
107	0x3c11273c	0.008859452
108	0x3b935b89	0.004496996
109	0x3c3c5c4a	0.011496613
110	0x3a7ff6c2	0.0009764248
111	0xbd27bce3	-0.04095162
112	0xbbddead0	-0.0067723766
113	0xbbee1964	-0.0072662104
114	0x3c3399d3	0.0109619675
115	0xbcc53c92	-0.024076734
116	0xbc884678	-0.016635165
117	0x3c4f81b6	0.012665203
118	0x3cd62afa	0.02614354
119	0xbc6aaf53	-0.014324027
120	0xbc488320	-0.012238294
121	0xbb87b3d2	-0.0041413093
122	0x3b0e2e02	0.0021694903
123	0xbc3c6037	-0.011497549
124	0x3c7e6309	0.0155265415
125	0x3ca996c7	0.020701779
126	0x3ba01417	0.0048852074
127	0x3bd764e4	0.0065733064
128	0x3a2b342f	0.0006530908
129	0x3c0d3794	0.008619208
130	0xbb4c2862	-0.0031152
131	0xbbbb6716	-0.005719076
132	0xb8adff83	-8.2968756e-05
133	0x3afc2d87	0.0019239642
134	0xbcc1eec7	-0.023673428
135	0xbd944553	-0.07239785
136	0x3a67ec81	0.00088471925
137	0xbc59eea7	-0.013301528
138	0xbc7427dc	-0.014902081
139	0xbba7e704	-0.0051239748
140	0xbb745e79	-0.0037287755
141	0xbba20420	-0.0049443394
142	0xbbc7176e	-0.006075791
143	0xbd2de81a	-0.042457677
144	0xbbf5646e	-0.007488779
145	0xba2eb973	-0.00066652073
146	0x3b886217	0.004162084
147	0xbc4b9900	-0.012426615
148	0xbbf0df34	-0.0073508266
149	0x3b581e2f	0.0032976975
150	0xbb655458	-0.00349929
151	0x3c24b7f6	0.010053625
152	0x3b736bc7	0.0037143098
153	0xbd9ffe15	-0.07812134
154	0x3ba3cac6	0.0049985377
155	0x3c568ed9	0.013095581
156	0x3ae1fefe	0.0017242131
157	0x3ca1f6b7	0.019770963
158	0xbc206506	-0.009789711
159	0xbc0f5694	-0.008748669
160	0xbceed1fb	-0.02915286
161	0xbb890747	-0.0041817757
162	0xbb8cd3ad	-0.0042976947
163	0xba9737d8	-0.0011537028
164	0xbc2fd387	-0.010731584
165	0xbc97f30c	-0.018548511
166	0x3b10295e	0.0021997313
167	0x3bdb1826	0.0066862283
168	0xbb84fcef	-0.0040584723
169	0xbce0f6df	-0.027461467
170	0xbca9c044	-0.020721562
171	0x3c7bf388	0.015377887
172	0xbb35ed9d	-0.0027760037
173	0xbd8adbb7	-0.067801885
174	0xb9e16de1	-0.0004299721
175	0xba823bf6	-0.0009936083
176	0xbc3117b7	-0.010808877
177	0xbc302943	-0.010752025
178	0xbbdeeb9e	-0.00680299
179	0xbc314ff9	-0.01082229
180	0x3b6aefb3	0.0035848438
181	0xbc539224	-0.012913261
182	0x3ca7374b	0.020412108
183	0xbc0ecaf8	-0.008715384
184	0xbb62e829	-0.0034623242
185	0x3bdbcbdd	0.006707652
186	0xbce5834b	-0.028016707
187	0xbcf69177	-0.03009866
188	0xbbd76fc2	-0.006574602
189	0x3b8a20e0	0.004215345
190	0x3c2a4538	0.01039248
191	0xbc55d31a	-0.013050819
192	0xbd55823d	-0.052126158
193	0x3b159325	0.00228233
194	0xbbba2a3e	-0.005681305
195	0xbaea9b99	-0.0017899155
196	0xbb4986dd	-0.003075055
197	0xbbb90236	-0.0056460155
198	0xbc923e3c	-0.017851941
199	0xbbb4778b	-0.0055074147
200	0xbc53f1ce	-0.012936069
201	0x3be72c44	0.0070548374
202	0x3bbbe9d8	0.0057346635
203	0x392189b1	0.0001540545
204	0xbb512761	-0.003191434
205	0x38afcbaa	8.382586e-05
206	0xbc93766a	-0.0180008
207	0x3ab080e5	0.0013466148
208	0xba05d3c3	-0.00051051023
209	0xbc884a62	-0.016637031
210	0x3c8d5054	0.017250217
211	0x3c96a867	0.018390847
212	0x3bfe9184	0.0077688117
213	0x3bd4a906	0.0064898757
214	0x3cdd6126	0.027023863
215	0xbd0cebb7	-0.034404483
216	0x3aaac676	0.0013029117
217	0xbc8f1a0f	-0.01746848
218	0x3ac1bc42	0.0014780837
219	0x3cb7bf4e	0.022430088
220	0xbcbafebe	-0.022826549
221	0x3b9df249	0.0048201424
222	0x3bb6734d	0.005567944
223	0x3cb133e2	0.021631185
224	0xbc99b0d6	-0.01876108
225	0xbc5b76d1	-0.013395027
226	0xbc0bd030	-0.0085335225
227	0x3c9e1c2b	0.01930054
228	0xbbb57096	-0.005537103
229	0xbb8e23df	-0.0043377723
230	0x3c57eb28	0.013178624
231	0x3c74449a	0.014908934
232	0x3c65e929	0.0140326405
233	0x3c031ecd	0.008002949
234	0x3b639ad2	0.0034729731
235	0x3c599e27	0.013282335
236	0xbba87f77	-0.005142148
237	0xbc5a94bc	-0.013341125
238	0xbafb0747	-0.0019151949
239	0xbc8ee94a	-0.017445225
240	0x3c85943a	0.016306031
241	0xbbb05d11	-0.005382188
242	0x3b81c9e8	0.0039608367
243	0xbb9ad0d3	-0.004724601
244	0x3c8f521b	0.017495206
245	0xbc8d2c8a	-0.017233152
246	0xbc1c7544	-0.009549443
247	0x3abf2237	0.001458234
248	0x3c5b5f90	0.013389483
249	0xbca11d84	-0.019667394
250	0x3c9083b5	0.017640928
251	0x3c9e436c	0.019319259
252	0xbc340bef	-0.010989173
253	0xbc18ae47	-0.009318895
254	0xbcc58255	-0.024109999
255	0x3bb83dfc	0.0056226235
