weights/366_blocks_block19_se_reduce_weight.npy (npy, 153728 bytes, 1 tensors)

array f4 [40, 960, 1, 1]
0	0x3c0faee0	0.008769721
1	0x3c8fe038	0.01756297
2	0xbce43a80	-0.027859926
3	0x3cdc13f2	0.02686498
4	0xbca4c340	-0.020112634
5	0x3c04bf18	0.008102201
6	0x3c0ad3c0	0.008473337
7	0xbc75bf08	-0.014999159
8	0x3cb47b64	0.022031493
9	0xbc2954a8	-0.010335125
10	0x3c0cf8e0	0.008604258
11	0xbcad32a0	-0.021142304
12	0x3b75e5f0	0.0037521087
13	0x397ef900	0.00024316087
14	0x3c65cbc0	0.014025629
15	0xbbd98900	-0.006638646
16	0xbbf31be8	-0.007419098
17	0x3c7580a0	0.01498428
18	0xbc782542	-0.015145602
19	0x3b367740	0.0027842075
20	0xba98f770	-0.0011670422
21	0x3b802b80	0.0039114356
22	0xbc7dfde0	-0.015502423
23	0xbc8abc20	-0.016935408
24	0xbba01b80	-0.0048860908
25	0xba104f80	-0.00055050105
26	0x3ba8aa80	0.0051472783
27	0xbc8699d0	-0.016430765
28	0x3ca64d00	0.020300388
29	0xb9743400	-0.00023289025
30	0x3b967740	0.0045918524
31	0xbb8e85e0	-0.0043494552
32	0xbaaee170	-0.0013342332
33	0x3aa37780	0.0012471527
34	0xbb48a4a0	-0.0030615702
35	0x3b3e3280	0.00290218
36	0xbc83798c	-0.016049169
37	0x3ca528b8	0.020161018
38	0xbc100fc0	-0.008792818
39	0x3b1dc400	0.0024073124
40	0x3cd60a30	0.026127905
41	0xbc89a0ab	-0.016800245
42	0x3c3e8dd8	0.011630498
43	0xbd250f5d	-0.040297855
44	0x3ba7b280	0.0051177144
45	0xbc6aa6f0	-0.014322028
46	0x3c527c48	0.012847014
47	0xbe013684	-0.12618452
48	0xbb18d480	-0.002332002
49	0xba335e00	-0.0006842315
50	0x3b918ba0	0.0044416934
51	0xbc80a9f0	-0.015706033
52	0x3d1e74ec	0.038685724
53	0xbbd90e80	-0.006624043
54	0xbd3d0da8	-0.0461556
55	0x3b7c7c00	0.0038526058
56	0xbca16ff2	-0.0197067
57	0x3af94560	0.0019017868
58	0x3d091ae4	0.03347291
59	0xbbf09600	-0.0073421
60	0xbc0debe0	-0.008662194
61	0xbc891bb8	-0.01673685
62	0xbc0e6714	-0.008691568
63	0xbc543570	-0.012952194
64	0xbb9db260	-0.0048125237
65	0x3c042590	0.008065596
66	0x3b597000	0.003317833
67	0x3b747270	0.0037299655
68	0x3a4a9a00	0.0007728636
69	0xbb9df060	-0.0048199147
70	0xbc85b344	-0.016320832
71	0x3e01573a	0.1263093
72	0xbb3cf500	-0.0028832555
73	0x3988ee80	0.00026117638
74	0xbccdd410	-0.025125533
75	0x3b034e80	0.0020035803
76	0xbceeb18c	-0.029137395
77	0x3bb18360	0.0054172724
78	0xbc69f970	-0.014280662
79	0x3c934368	0.017976478
80	0xbc7f0152	-0.01556428
81	0x3c429470	0.011876211
82	0x3cbdf2c8	0.023187056
83	0xbc5ca772	-0.013467656
84	0x3b1536a0	0.0022768155
85	0x3937e800	0.00017538667
86	0xbaa0f4c0	-0.0012279972
87	0xbc0a1c60	-0.008429617
88	0xbc551060	-0.013004392
89	0x3c682ee8	0.01417134
90	0xbbcdda6a	-0.0062821405
91	0xba77c780	-0.000945203
92	0xbbc2bda0	-0.005943015
93	0xbc91fdc4	-0.0178212
94	0xb9e19200	-0.00043024123
95	0xbab24700	-0.0013601482
96	0xbdd5f11e	-0.1044638
97	0x3cbd8d68	0.023138717
98	0xbc33c0b3	-0.010971236
99	0xbbf5c6a0	-0.0075004846
100	0xbb771f80	-0.0037707984
101	0xbc886a00	-0.016652107
102	0x3b125160	0.0022326335
103	0xbb3d3a80	-0.002887398
104	0x3cb45591	0.022013457
105	0x3b678f60	0.003533326
106	0xb8558000	-5.0902367e-05
107	0xbb8c56b0	-0.004282795
108	0xba41de80	-0.0007395521
109	0xbc3af260	-0.011410326
110	0x3c5603b4	0.013062406
111	0x3aab0cc0	0.0013050064
112	0xbb18ff40	-0.00233455
113	0xbee1f582	-0.4413262
114	0x3c1c39a0	0.009535223
115	0x3c3974c0	0.011319339
116	0xbaf27f80	-0.0018501133
117	0xbac2a500	-0.0014850199
118	0x3be4b1c0	0.0069791973
119	0x3c28b1b6	0.010296276
120	0xbc9fdab0	-0.019513458
121	0xbcfe1a20	-0.031018317
122	0xbb466d00	-0.0030277371
123	0xbc120f2e	-0.008914752
124	0x3cab64ec	0.020922147
125	0xbb768000	-0.0037612915
126	0x3c286d90	0.010280028
127	0xbb08e6c0	-0.002088949
128	0xbb8ddaa6	-0.0043290434
129	0xbc2c0898	-0.010500096
130	0xbd1f26c1	-0.038855318
131	0xbb375b00	-0.0027977824
132	0x3d49e1d0	0.049287617
133	0xbbb07090	-0.0053845122
134	0x38a06000	7.647276e-05
135	0x3b248a80	0.0025106966
136	0xbc8d9a2c	-0.017285429
137	0xbbb87c90	-0.0056300834
138	0x3b930dd0	0.0044877306
139	0x3bad1b80	0.0052828193
140	0x3c863b08	0.01638557
141	0x3af96580	0.0019027442
142	0x3c0706e8	0.008241393
143	0x3b09cec0	0.0021027774
144	0xbb3af4c0	-0.002852723
145	0xbc7c03f4	-0.015381802
146	0x3c8036a4	0.015651055
147	0xbcdcf740	-0.026973367
148	0xbad33600	-0.0016114116
149	0xbbcdc040	-0.0062790215
150	0xbb406a80	-0.0029360354
151	0x37360000	1.0848045e-05
152	0xbcb24288	-0.02176024
153	0x3c46d8ec	0.012136679
154	0x3c482460	0.012215704
155	0x3bc96800	0.006146431
156	0x3a23f100	0.00062538683
157	0xbd839868	-0.064255536
158	0xbb3fbac0	-0.0029255599
159	0x391e6800	0.00015106797
160	0x3bdced40	0.0067421496
161	0xbbd24407	-0.006416801
162	0xbc29bd8c	-0.010360133
163	0x3c72e3f8	0.01482486
164	0x3cf5ddd0	0.030012995
165	0xbaeb1800	-0.001793623
166	0x3b67f200	0.0035392046
167	0x3ca365d0	0.019946009
168	0xbcba8af8	-0.022771344
169	0xbb471f20	-0.0030383542
170	0xbbb52180	-0.005527675
171	0xbc197910	-0.009367242
172	0xbc5e9922	-0.013586314
173	0xbc8972a2	-0.016778294
174	0x3cd065ea	0.025439221
175	0xbc3dcd73	-0.011584627
176	0xbc357bc0	-0.011076868
177	0xbb9ac420	-0.004723087
178	0x3cbd2520	0.023088992
179	0xbc948430	-0.018129438
180	0x3cbf30f0	0.023338765
181	0x3cd04c86	0.025427114
182	0x3ca4b940	0.020107865
183	0xbaf00c00	-0.0018314123
184	0xbc3278a0	-0.010893017
185	0x3ba06930	0.004895352
186	0xbbf1f5c0	-0.007384032
187	0x3c855810	0.016277343
188	0xbc44af40	-0.0120046735
189	0xbbc0aae0	-0.005879745
190	0xbabcd4c0	-0.0014406666
191	0x3c67ec60	0.014155477
192	0xbbf1cd00	-0.007379174
193	0xbc6aa3a0	-0.014321238
194	0xbb94eae0	-0.004544601
195	0xbc26d780	-0.010183215
196	0xbac345c0	-0.0014898106
197	0xbbcd5200	-0.0062658787
198	0x3c7e52fa	0.015522713
199	0xbccf4d68	-0.025305465
200	0xbc47acd7	-0.012187204
201	0x3a46de00	0.0007586181
202	0x3d4409b0	0.0478608
203	0x3ccf0c08	0.025274292
204	0x3bb56488	0.005535666
205	0x3b66b2a0	0.0035201684
206	0x3c15c7cc	0.009141874
207	0xbb17d700	-0.0023168921
208	0xbc5f1a30	-0.013617083
209	0xbb45e540	-0.0030196458
210	0xbbf25350	-0.0073951855
211	0xbc73da64	-0.014883611
212	0xbc0eb910	-0.0087111145
213	0xbc42af60	-0.011882633
214	0xbcdfaf60	-0.027305305
215	0x3b983420	0.0046448857
216	0xbc0988c0	-0.00839442
217	0xba1d9400	-0.00060111284
218	0xbc03b514	-0.008038778
219	0xba15ba00	-0.0005711615
220	0xbbb17ef8	-0.005416747
221	0x3c9c85b0	0.019106716
222	0x3a354e00	0.0006916225
223	0xbabb5360	-0.0014291815
224	0xbc5ced50	-0.013484314
225	0x3c1464a4	0.009057198
226	0x3c397320	0.011318952
227	0xbb3b0c80	-0.0028541386
228	0xbb16b680	-0.0022996962
229	0xbbac2000	-0.005252838
230	0x3c29f120	0.01037243
231	0x3c69a1b8	0.014259748
232	0xbc8a8042	-0.016906861
233	0xbc4fc160	-0.012680382
234	0xbb9a4818	-0.0047083013
235	0xbc01a740	-0.007913411
236	0x3cc2cac0	0.02377832
237	0xbc388700	-0.011262655
238	0xbc532540	-0.012887299
239	0xbc9187b0	-0.017764896
240	0xbbcb5540	-0.006205231
241	0xbc72ace0	-0.014811724
242	0x3c4120c0	0.011787593
243	0xbc2c4df0	-0.010516629
244	0x3c36c454	0.011155207
245	0x3bba6700	0.005688548
246	0xbc01d6c8	-0.007924743
247	0xbbb76610	-0.0055968836
248	0xbbe0ada0	-0.006856635
249	0xbc1ecea8	-0.009692825
250	0x3a079340	0.0005171783
251	0xbc0e7a50	-0.008696154
252	0x3d0ca678	0.034338444
253	0x3ba3e860	0.0050020665
254	0x3bda16a0	0.006655529
255	0xbc8a0af8	-0.016850933
