weights/372_blocks_block19_bn2_bias.npy (npy, 768 bytes, 1 tensors)

array f4 [160]
000000 5a d7 c3 3e 3b f0 98 3e b6 f3 9c be 24 2e a3 be
       0.38250238 0.2987078 -0.30654687 -0.3187114
000010 c0 d4 f4 3d 9a a3 1d 3e df 3b 3b 3d 53 dd 82 be
       0.11954641 0.1539444 0.045711394 -0.25559482
000020 0a 27 ff 3e 92 25 6f 3c 8e 08 d7 be d9 6a fb be
       0.49834472 0.01459636 -0.41998714 -0.49104956
000030 2e d2 1f 3f a2 f6 38 3f fb 0c ba be b7 ed 11 bb
       0.62430084 0.7225133 -0.36338028 -0.0022266933
000040 5a 2f 90 be ef 4a b5 bd 73 f4 a2 be b3 9d c8 be
       -0.28161126 -0.08852183 -0.31827125 -0.39182815
000050 55 9a e0 be a9 98 63 be 66 15 80 3d 1a 67 6d bf
       -0.43867746 -0.22226204 0.062540814 -0.92735445
000060 5a f1 43 be ee a4 6d 3e a9 b9 a8 be 33 4d 15 3e
       -0.19135037 0.23207447 -0.32954147 0.1458023
000070 eb 9d b1 bd 4a 51 c9 be a5 59 8e be 69 57 07 bc
       -0.086726986 -0.3931983 -0.27802768 -0.008260586
000080 63 4b e0 bd be e9 bc bd 3e e1 0a bf 51 3b 09 3f
       -0.10951879 -0.0922427 -0.5424994 0.53606135
000090 92 f6 75 be 44 df e9 3d 75 8c d2 3e b6 c1 9d bf
       -0.2401984 0.11419538 0.41122785 -1.2324741
0000a0 5e ed 21 be 33 7e 27 bf a9 61 00 3f 6d ec 59 bd
       -0.15813205 -0.6542694 0.5014902 -0.05320399
0000b0 55 07 98 3e 8a dc 9c be 90 8d b5 3e b5 a5 86 be
       0.29693094 -0.30637008 0.35459566 -0.262983
0000c0 30 2b 2d 3e 6e 46 45 3f 3e 35 a7 3e 5a 2e ff bd
       0.16911006 0.7706059 0.32657808 -0.12460013
0000d0 72 58 4f 3e 4f e2 ac bd a0 aa 9f be a6 80 84 3e
       0.20248583 -0.084416024 -0.31184864 0.258794
0000e0 53 a4 04 3e 05 ea 55 be a7 6f 35 3f 28 06 40 be
       0.1295331 -0.20890053 0.7087349 -0.18752348
0000f0 25 93 32 be 71 46 0c bf 0b 53 98 be 65 dd 49 3e
       -0.17438944 -0.54794985 -0.29750857 0.19713362
000100 5a 0e 4d 3e 58 bd ce 3d 23 b7 0a be e4 72 2f be
       0.20025006 0.10094708 -0.13546424 -0.17133671
000110 70 fb 4b be 1b e0 8e 3e b3 58 87 bc ab 7d b4 3e
       -0.19920135 0.27905354 -0.016521787 0.35252127
000120 90 4e 27 3d 2a d2 23 3e 02 ba 84 3e e9 83 d1 bc
       0.040846407 0.1599814 0.25923163 -0.025575595
000130 18 cd 3a 3f 86 9d 15 3c d4 05 a5 b9 c3 c0 99 bf
       0.729692 0.009131795 -0.00031475595 -1.2011951
000140 26 33 83 be e1 6c d4 bb e5 e9 2c 3e 7f e0 b1 3e
       -0.2562496 -0.006482706 0.16886099 0.3474159
000150 73 21 a1 3e d9 2a 19 be f2 d9 9f 3e 71 94 f1 3d
       0.31470832 -0.14957751 0.31220967 0.11795891
000160 f7 ad d8 3e ef d2 4a 3e 5a b8 b8 be 6a 38 f4 3d
       0.42320225 0.19807027 -0.3607815 0.11924823
000170 23 c9 dd 3e a1 cb 48 be 44 12 bb bc 2a 10 05 be
       0.43317518 -0.19608928 -0.022835858 -0.12994447
000180 fa c1 e7 be 1d 9d 30 be b7 8e 0b 3f dd 06 a6 be
       -0.4526518 -0.17247434 0.5451464 -0.3242711
000190 73 f8 b8 3e fd 52 b7 3e 4d 33 30 3e 31 aa 1f be
       0.36127052 0.35805503 0.1720707 -0.15592267
0001a0 b3 23 85 bf bb d7 a9 3d 8b 72 20 3e 19 d0 fd 3e
       -1.040152 0.082931004 0.15668695 0.49572828
0001b0 b1 d4 1b bf 4b d1 1a be d5 97 8b 3f 60 5f 5a be
       -0.60871416 -0.15118901 1.090571 -0.21325445
0001c0 30 7c c4 3e 99 e5 a8 3e 84 f9 72 3f 55 73 6c 3e
       0.38375998 0.3298767 0.9491198 0.2309087
0001d0 ba 0b 8a 3b 6c 67 96 bd 47 85 fb bd c6 ae de bc
       0.0042128237 -0.07343945 -0.1228128 -0.027182948
0001e0 9e 81 12 3e ba c8 f9 be 50 82 79 be 90 5e 55 3e
       0.14307258 -0.48785955 -0.24366117 0.20836854
0001f0 8c e8 a3 bc 80 b0 ac be a5 5f 3c be aa a8 a6 be
       -0.020008348 -0.3372841 -0.1839586 -0.32550555
000200 f6 3f f8 bd d2 5d c9 3d fa eb be be a8 f4 67 be
       -0.121215746 0.09832348 -0.3728941 -0.22651923
000210 94 27 08 be 5b ee be 3e fe dc 37 bf f7 ae 2b 3e
       -0.13296348 0.37291226 -0.7182158 0.16765963
000220 14 d7 f3 be 9f 5c 37 3d 5e 98 0e 3d 70 84 94 3e
       -0.4762503 0.044766065 0.034813277 0.29007292
000230 2b 19 b0 3d ab e0 76 3e 73 ee ae be 7d 7c 49 3f
       0.085985504 0.24109142 -0.34166297 0.7870558
000240 ef a4 a0 be 6e 37 69 bf 9e ad 02 bd 8e 13 af be
       -0.31375834 -0.91100204 -0.031903856 -0.34194607
000250 b8 1f 16 3f f6 da 66 3f 3e 88 ca 3e a9 e2 03 3e
       0.5864215 0.9017786 0.3955707 0.12879433
000260 b9 5b 1a bf f6 3d 89 3e 6b 55 24 bf 08 ab 7b bf
       -0.6029621 0.26805085 -0.6419284 -0.9830785
000270 f0 c2 aa bb 71 ae 28 3e ae e8 17 bf 28 99 c6 3e
       -0.0052112266 0.16472794 -0.59339416 0.38788724
