weights/383_blocks_block20_bn1_running_mean.npy (npy, 3968 bytes, 1 tensors)

array f4 [960]
000000 6d 40 f6 3b 9f ed 7a be ab 22 1f be 3d 15 d0 bb
       0.0075150044 -0.24504708 -0.15540569 -0.006350188
000010 3a 05 bb bb 3c 84 1a bc 18 b4 2f bd 3d 54 d3 bb
       -0.00570741 -0.009430941 -0.04289636 -0.006449251
000020 2a 58 bc 3b ad fa f5 ba 84 37 ce bc 93 84 51 bd
       0.0057478147 -0.0018766724 -0.025172956 -0.051151823
000030 d6 2a b3 3b bf 88 d9 bc 58 d9 66 bc fd be aa 3b
       0.005467753 -0.026554463 -0.014089905 0.005210756
000040 d6 e7 e9 bd aa a0 c7 bd b2 73 26 bd 98 8a 0c 3e
       -0.11421172 -0.09747441 -0.04063768 0.13724744
000050 c9 0a dc bb 90 2b 25 bb 54 56 42 bb b1 ad 2a bd
       -0.006715153 -0.0025202967 -0.0029653506 -0.04166955
000060 e9 e1 aa 3d 71 92 7f 3b ce c2 8d 3c fa 92 d7 bd
       0.0834387 0.0038997198 0.017304804 -0.105260804
000070 f7 d8 1d bc 52 a9 0e be 6c 67 6a bb 88 3e 70 bb
       -0.009634248 -0.13931778 -0.003576721 -0.0036658365
000080 ce 88 32 3a f6 42 6d bd f7 ce 2b bd 53 85 16 be
       0.00068105466 -0.057925187 -0.041945424 -0.14699297
000090 33 4e 8d 3b 80 17 4b bd 1b 0a 1f bd b2 21 0c bc
       0.0043123006 -0.04958296 -0.038827997 -0.008552955
0000a0 1b 98 51 bc 23 b3 90 bc 71 5b 76 3b 39 84 41 3d
       -0.012792612 -0.017663544 0.0037591124 0.047245238
0000b0 bd fe 7f 3a 75 21 4c 3d cd b5 c0 bd 8d d8 4a 3c
       0.0009765437 0.049836595 -0.09409676 0.012380731
0000c0 13 6b 2e be b9 c2 8f bc ed f7 90 bd 6e 04 3f ba
       -0.17033033 -0.017548906 -0.07078538 -0.0007286732
0000d0 ae b0 92 3d 68 71 b3 bd 19 2c 0e bd 10 52 40 bc
       0.07162605 -0.08761865 -0.034710024 -0.011738315
0000e0 f9 4b 92 bd b7 ee 0e bc 5b a2 cf bd 93 0a 4c bc
       -0.07143397 -0.008723906 -0.10138389 -0.012453693
0000f0 4b 0b d1 bc ab 6d 1d 3c fa 63 95 bd 74 05 24 bb
       -0.02551808 0.009608666 -0.0729446 -0.0025027664
000100 08 3f 8f bf b2 10 e4 bd a6 83 32 3c d0 5b 7d bc
       -1.1191111 -0.11135997 0.010895645 -0.015463784
000110 47 dc fa bb 3a 25 82 bb c0 5b 9d bc c8 e6 10 3b
       -0.0076556536 -0.003971723 -0.019208789 0.0022110213
000120 5d 16 45 ba 13 67 f8 3c b5 1d 0d be 3c cf 3f bc
       -0.0007518286 0.030322587 -0.13780864 -0.011707123
000130 13 44 22 be e1 32 f2 bc 51 90 69 bd 8f fb de 3d
       -0.15846281 -0.029565277 -0.057022396 0.10887825
000140 4e be 84 bd 36 34 c6 3b bb 6c 91 3c 07 2f d8 bb
       -0.0648161 0.0060487045 0.017752042 -0.006597403
000150 38 fb ba 3b 9d ea 95 be e3 74 6d bd f0 72 38 bc
       0.005706217 -0.29280558 -0.0579728 -0.011257872
000160 8d d3 91 bd dd e7 b7 bc 8f b0 23 bd af 4c 2e 3c
       -0.07120428 -0.022449428 -0.0399633 0.0106384
000170 b5 da ab be 00 0c 96 bc ef 19 e5 3c 76 0d 2d bb
       -0.33565298 -0.018316269 0.027966468 -0.0026405728
000180 23 14 17 be c3 84 10 be 21 54 a1 3b 0d f9 a6 3d
       -0.14753775 -0.14113145 0.004923359 0.081529714
000190 32 8b 5a bd 32 b7 e3 bd 78 99 68 3d 26 f4 ec bd
       -0.053355403 -0.11118926 0.056786984 -0.11570005
0001a0 1a f5 2f bb 41 56 7c bd f4 53 64 bd 2b 7d 02 be
       -0.0026848973 -0.061605696 -0.055744126 -0.1274306
0001b0 57 c6 95 3d e9 73 0c bc a8 f9 36 bd 0e ab d1 bc
       0.07313221 -0.008572557 -0.044671685 -0.02559426
0001c0 65 e2 dc 3c a7 37 db bc 9b e7 ac bd 7e d9 8a 3b
       0.026963422 -0.026759936 -0.08442613 0.004237353
0001d0 c7 e1 5a bf ef 03 8b bc f7 71 ea bd 76 8b 86 3b
       -0.8550076 -0.01696965 -0.11447518 0.0041059805
0001e0 a9 fd ac bd 68 ec 26 3e 0e 27 d9 bc 2a bd 0d bd
       -0.08446819 0.1630112 -0.02650788 -0.03460423
0001f0 34 e0 f8 bd 3a c8 50 3d cb c5 1f 3e e1 a3 db ba
       -0.12152138 0.0509722 0.15602796 -0.0016757214
000200 44 35 98 bd 1b 56 e8 bc 94 b6 5d bd 3e 51 3f bc
       -0.074320346 -0.02836137 -0.0541292 -0.0116770845
000210 ce c5 e4 b9 3c 20 b8 3a 2a 78 47 bf f3 06 29 3c
       -0.00043634925 0.0014047693 -0.7791773 0.010316598
000220 e8 56 61 bd 57 83 86 3c c9 65 a0 bd f2 a0 a2 3c
       -0.05501452 0.01642005 -0.07831914 0.019852135
000230 80 0f 61 3c c3 21 83 3b f4 21 bc bd 36 73 42 be
       0.013736606 0.0040018274 -0.091861635 -0.18989262
000240 46 6a 9c bd a0 e4 b5 bc 58 4a 3a 3c 5b 34 01 be
       -0.076374575 -0.022203743 0.011370264 -0.12617628
000250 10 e3 0e bc b0 15 d2 bb e7 d4 d8 bd 06 32 47 bd
       -0.008721128 -0.0064112768 -0.10587483 -0.04863169
000260 39 ca 9e bd 35 1e 79 bd 9f 20 dd be 36 87 30 bd
       -0.07753415 -0.060819823 -0.4318895 -0.043097697
000270 aa 9d af bc 63 07 d3 bc b8 3b 27 bc 6e c6 8d bd
       -0.021437485 -0.025760358 -0.010207109 -0.06922613
000280 00 20 64 bc 75 fc 17 3c ea 3d 30 be f9 c0 2a 3d
       -0.013923645 0.009276499 -0.17211118 0.04168794
000290 55 6d 7e be ff cb 2b 3c 62 be 5c bd 98 a5 c6 bd
       -0.24846394 0.010485648 -0.0538925 -0.09699553
0002a0 83 fa 94 bd 5d 2e 13 bc 39 84 73 bd 68 ee 4b 3b
       -0.07274344 -0.008983222 -0.05945227 0.0031117443
0002b0 4a d1 4b bc 93 4a ef bd d0 12 0a bd b5 f2 a6 bb
       -0.012440035 -0.11684146 -0.033709347 -0.005094851
0002c0 e7 73 63 bc 2a b3 d3 bd 84 51 14 bb 95 1f 56 bb
       -0.013882614 -0.10336907 -0.0022631595 -0.0032672633
0002d0 f4 4e f8 3b 68 c4 b1 39 17 4f 71 ba a4 ea da ba
       0.0075777713 0.00033906405 -0.0009205206 -0.0016702008
0002e0 fb 93 43 3a 9f 55 76 bb 13 e4 45 ba 04 2c 09 bd
       0.00074607105 -0.0037587655 -0.00075489393 -0.033489242
0002f0 6c 66 24 3c 1e ce 73 be be 59 22 3b 97 8e 10 bb
       0.010034185 -0.23809096 0.0024772729 -0.0022057646
000300 9f 65 cb bd 8f d4 16 bd 81 48 8a bc 7d fb 90 bb
       -0.09931492 -0.036823805 -0.016880276 -0.004424511
000310 4a bb 5e 3d 4f 67 e0 bc c8 d1 43 bd 53 3c 03 bc
       0.05437783 -0.027393011 -0.047807485 -0.008009988
000320 e1 ff 45 3c 5f 7a ab bd fd b1 16 be 43 0d 90 b9
       0.012084932 -0.0837295 -0.14716335 -0.000274757
000330 a2 55 b5 be 6a 73 8a bd 83 02 09 bc 9d 99 96 3b
       -0.35416895 -0.06760295 -0.008362415 0.004595949
000340 da 1b c7 bc 95 26 0b 3e 39 1f 60 bc 85 fc 16 be
       -0.024305273 0.13588937 -0.013679319 -0.14744766
000350 82 dd f0 bd 06 6a c5 bd e6 14 8e bd 96 ca bb 3c
       -0.11760999 -0.09639363 -0.0693758 0.022923749
000360 4f fd d0 bc b6 14 f1 bd 86 ba a7 39 8b 7f 2c 3c
       -0.025511412 -0.117715284 0.00031991693 0.0105284555
000370 bc a6 1f bd 50 af 3c bd 77 db e8 3b a3 7f c9 3c
       -0.03897737 -0.04606563 0.0071062404 0.024596995
000380 6c 07 38 bd 49 3e 07 bb 31 cb 4e 3b c7 20 11 bd
       -0.044928953 -0.002063649 0.0031554217 -0.03543165
000390 2d a0 e3 bd 9b d8 8a bc 05 13 98 bd 0c 91 0a 3a
       -0.111145355 -0.016948989 -0.07425503 0.0005285896
0003a0 4e f6 a5 bc 8e 3d b3 bd 11 26 ba bd 5d 64 5d 3c
       -0.020259049 -0.08751975 -0.09089292 0.013512698
0003b0 49 85 95 bd 6b c2 1f bd 23 c4 7d bd e2 0d ba bc
       -0.07300813 -0.03900377 -0.06195463 -0.022711698
0003c0 f7 3b 7b 3b c4 d2 2e bd 96 e9 27 bd ca 80 82 3a
       0.0038335302 -0.04268147 -0.04099425 0.0009956595
0003d0 69 77 4d bd e5 3c 32 bc bc 65 09 be 0f bf 33 bd
       -0.050162707 -0.010878776 -0.13417715 -0.04388338
0003e0 45 02 b1 ba 4a 44 0a 3c 76 a8 d8 bd ae 53 45 3c
       -0.0013504705 0.008439133 -0.105790064 0.012043877
0003f0 ba 3e c5 3b c9 18 84 bd 2f 17 bf bd d0 c6 c0 3c
       0.0060194405 -0.0645004 -0.09330594 0.023532301
