weights/387_blocks_block20_se_expand_weight.npy (npy, 153728 bytes, 1 tensors)

array f4 [960, 40, 1, 1]
0	0xba895480	-0.0010477453
1	0xbc27e698	-0.010247849
2	0xbd2987a0	-0.041389108
3	0x3bb67810	0.005568512
4	0xbd619598	-0.055074304
5	0x3b6c1080	0.0036020577
6	0x3bed27c3	0.007237406
7	0xbb47c9a0	-0.0030485168
8	0x3d7a8704	0.061163917
9	0xbce8d8c4	-0.028423674
10	0xbcf51a74	-0.02991984
11	0xbd16d843	-0.036827337
12	0x3bc5f260	0.0060408562
13	0xbad0eafc	-0.0015939171
14	0x3d43f343	0.047839414
15	0xbb66ab9a	-0.0035197497
16	0x3ca41c2c	0.020032965
17	0x3c5ff724	0.013669763
18	0xbcc6f430	-0.02428636
19	0xbd188d7e	-0.037244312
20	0xbbc36088	-0.005962435
21	0xbc1439f7	-0.009047023
22	0x3c483a76	0.012220969
23	0xbc8a26d8	-0.016864225
24	0xbc97fd54	-0.018553413
25	0x3c68b8e4	0.014204238
26	0x3a035cc0	0.0005011074
27	0xbc6b331f	-0.01435545
28	0xbd8c9846	-0.06864981
29	0x3a3bba00	0.00071612
30	0x3c3c5688	0.01149524
31	0xba02ed80	-0.00049944967
32	0x3d1a3c56	0.037655197
33	0x3bc13170	0.005895786
34	0x398ddd00	0.00027058274
35	0xbbe42c78	-0.006963309
36	0xbcf5b073	-0.029991364
37	0xb953c500	-0.00020195916
38	0x39c7e580	0.0003812723
39	0xbd0c86fc	-0.03430842
40	0x3c509b42	0.012732329
41	0x3b2f2b30	0.0026728623
42	0xbd71d095	-0.05903681
43	0xbb759d64	-0.0037477845
44	0x3c137f86	0.009002572
45	0x3ddd1392	0.10794748
46	0x3c469f44	0.012122933
47	0x3cc4391a	0.02395301
48	0x3a539880	0.00080717355
49	0x3c5dfa00	0.013548374
50	0xbd087216	-0.033311926
51	0x3c02c8dc	0.007982459
52	0xb9c4cf40	-0.00037538446
53	0xbb88b418	-0.0041718595
54	0x3d433b38	0.047663897
55	0x3b2a7100	0.0026007295
56	0x3d1375ac	0.036000893
57	0x3ac904e0	0.0015336536
58	0xbd1a46bf	-0.037665125
59	0x39b5cf80	0.0003467761
60	0x3cd63a0c	0.026150726
61	0xbb674dc0	-0.0035294145
62	0x3a599cc0	0.00083012506
63	0xbd848995	-0.06471554
64	0x38cff800	9.916723e-05
65	0x3d2a23e8	0.04153815
66	0x395a2e00	0.00020807236
67	0xbc98b5fe	-0.018641468
68	0xbd364568	-0.044499785
69	0x3a31c1f8	0.0006780918
70	0x3b128920	0.0022359565
71	0xbc1f78ae	-0.009733362
72	0x3db29caa	0.087212875
73	0xbbec4cfc	-0.0072113257
74	0xb9f79480	-0.00047222152
75	0x3c1a4788	0.009416468
76	0x3be7f5f0	0.0070788786
77	0x36362000	2.713874e-06
78	0xb905b200	-0.00012750179
79	0xbcd0a2ad	-0.025468195
80	0xbdc011d3	-0.093784
81	0x3d81cb63	0.06337621
82	0xbdbcc6bc	-0.09217593
83	0xbd6556b8	-0.055990905
84	0xbd934d2a	-0.07192452
85	0xbdd2aa2f	-0.10286366
86	0xbd2e35c2	-0.042531736
87	0xbd983692	-0.074322835
88	0xbef0b754	-0.47014868
89	0xbd4fe6f9	-0.050757382
90	0xbe232fbd	-0.1593618
91	0xbe250b2e	-0.16117546
92	0x3b2d7740	0.0026468784
93	0x39f63d60	0.00046966504
94	0xbdd8447d	-0.10559938
95	0xbca49254	-0.020089306
96	0xbd94e851	-0.07270873
97	0xbe4fbeac	-0.2028758
98	0xbde13682	-0.10996725
99	0xbc5b513c	-0.013386067
100	0x3c830168	0.015991881
101	0xbd510fe0	-0.05104053
102	0xbc85f1ce	-0.016350653
103	0xbc5d01ba	-0.013489181
104	0x3da7ceff	0.08193778
105	0xbca39346	-0.019967686
106	0xba0c8540	-0.0005360432
107	0xbd0b4166	-0.033997916
108	0xbd557b7f	-0.05211973
109	0x3b8422e0	0.0040324777
110	0xbda4b295	-0.08041874
111	0xbc141cc6	-0.009040063
112	0xbd0b5a66	-0.034021758
113	0xbd360b2d	-0.04444425
114	0x3b0b6710	0.0021271147
115	0xbc083d8a	-0.008315453
116	0xbd72772e	-0.05919569
117	0xba509a40	-0.00079575554
118	0x3a3fe520	0.0007320214
119	0x3b7570c0	0.0037451237
120	0xbd2a16f1	-0.041525785
121	0xbd8e5650	-0.069500566
122	0xbcbf62d8	-0.023362562
123	0xba928cb0	-0.0011180844
124	0xbda2e345	-0.079535045
125	0xbd9a582f	-0.07536351
126	0x3c7a4fd0	0.015277818
127	0xbcc81090	-0.02442196
128	0xbca417a4	-0.020030804
129	0x3be51738	0.0069912933
130	0xbcce6612	-0.025195155
131	0xbcfaea72	-0.03062937
132	0xbc3749d8	-0.011187039
133	0xbb26003c	-0.002532973
134	0xbd8985b3	-0.06714954
135	0x3d4d4382	0.05011321
136	0x3c9a994f	0.018871931
137	0xbc68a250	-0.014198855
138	0xbc2cda44	-0.010550085
139	0x3d3e6f43	0.046492826
140	0xbd3ebaf8	-0.046565026
141	0xbc0c305c	-0.008556452
142	0x3c927e5e	0.017882522
143	0x3c48e8b0	0.012262508
144	0xbce9d2c3	-0.028542882
145	0xbc77d5b7	-0.015126637
146	0x3a106500	0.0005508214
147	0xbd27db2a	-0.040980496
148	0x3c9f75e8	0.019465402
149	0x3a917ee0	0.0011100434
150	0x3aba0f80	0.0014195293
151	0xbc8ba7be	-0.01704776
152	0x3db40110	0.08789265
153	0xbd8cacb5	-0.06868879
154	0xb9d56d80	-0.0004070811
155	0xbcd62f0a	-0.026145477
156	0xbcc93487	-0.02456118
157	0xb9445500	-0.00018723682
158	0x3a176408	0.00057750987
159	0xbd098d45	-0.03358199
160	0x3c0d8974	0.008638728
161	0x3d135b5a	0.03597579
162	0xbc0b8498	-0.0085154995
163	0x3ac61140	0.0015111342
164	0x3d429917	0.04750928
165	0xbd070d59	-0.032971714
166	0x3cb2707e	0.021782156
167	0x3b868b98	0.0041059963
168	0xbb371e22	-0.0027941545
169	0x3d328ba0	0.043590188
170	0xba986440	-0.0011626557
171	0xbcd9b830	-0.026577085
172	0x3c44f268	0.012020685
173	0x3a84a1b0	0.0010118987
174	0x3c0a404c	0.008438181
175	0x3b006210	0.00195897
176	0x3c211658	0.009831987
177	0xbbbfd270	-0.0058539435
178	0xbd499a99	-0.0492197
179	0x3caab1c9	0.020836728
180	0x3c8518d2	0.016247187
181	0x3a836c00	0.0010026693
182	0x3c9aac6b	0.018881043
183	0x3d4ab750	0.049491227
184	0xbc97b02f	-0.018516628
185	0x3bb60af0	0.005555503
186	0x3954ca00	0.00020293146
187	0x3d057aa7	0.032587674
188	0xbcdf1ca4	-0.027235337
189	0x3a6aa600	0.00089511275
190	0x3cb1fee3	0.021727985
191	0xbb8769c0	-0.0041324794
192	0x3d5f4bdc	0.054515705
193	0x3c4721fc	0.012154099
194	0x392daf00	0.00016563758
195	0xbcd26ea6	-0.025687527
196	0x3c1e9d75	0.009681095
197	0xb8eff000	-0.000114411116
198	0x39d1ebc0	0.00040039234
199	0xbc950086	-0.018188726
200	0x3daee0f2	0.08538999
201	0x3d4d9ea0	0.050200105
202	0x3c722eea	0.014781693
203	0x3d0d75a2	0.03453601
204	0xbda66e59	-0.08126516
205	0xbda73896	-0.0816509
206	0xbc90c1e0	-0.017670572
207	0x3db6d1ac	0.089267105
208	0xbd899536	-0.06717913
209	0xbd941950	-0.072313905
210	0x3d32d4d6	0.043660007
211	0xbdcb5bc4	-0.09929612
212	0x3ca05cda	0.019575525
213	0xbb4c1d80	-0.0031145513
214	0xbdd4b618	-0.10386294
215	0x3d4e5a42	0.050379045
216	0x3c096a05	0.008387093
217	0xbd1e2b9a	-0.0386158
218	0xbdc96940	-0.09834528
219	0x3c147956	0.009062132
220	0xbcf52c72	-0.02992842
221	0xbcc3a73e	-0.023883458
222	0x3d1f56de	0.038901202
223	0xbd010bea	-0.031505503
224	0x3d3a997e	0.045556538
225	0xbdc62fa7	-0.09677058
226	0x3a6d4780	0.0009051487
227	0x3d5ef8c5	0.054436464
228	0xbd043888	-0.032280475
229	0x3b252b80	0.002520293
230	0x3dabbd2a	0.083856896
231	0x3d9bf4ca	0.07615049
232	0xbd0d851c	-0.03455077
233	0x3d0880f3	0.0333261
234	0x3b27b3d4	0.0025589364
235	0xbdf42b89	-0.11922366
236	0xbd861b77	-0.06548207
237	0xba7dbe80	-0.0009679571
238	0x3b358640	0.0027698427
239	0xbd6f9a7b	-0.058496933
240	0xbd300160	-0.04297006
241	0x3bff9b69	0.0078005088
242	0xbdaadac6	-0.08342509
243	0xbc8c86bc	-0.01715409
244	0xbc20d820	-0.009817153
245	0x3d4130d2	0.0471657
246	0x3cc59a6e	0.02412149
247	0xbb26fda0	-0.0025480762
248	0xbd50b93d	-0.050957907
249	0xbc6902a4	-0.014221821
250	0xbd8dc7b5	-0.06922857
251	0x3d4146a8	0.047186524
252	0xbc8406b4	-0.016116478
253	0xbb645c70	-0.0034845136
254	0x3d9fa92a	0.07795937
255	0xbd37386b	-0.04473154
