weights/425_blocks_block22_se_expand_weight.npy (npy, 153728 bytes, 1 tensors)

array f4 [960, 40, 1, 1]
-0.0061905533 -0.06324577 0.002570942 0.0547349 -0.056854643 -0.08927901 0.003856793 0.028681375
0.05058704 -0.21179746 -0.113722794 0.047483664 0.07721397 -0.047541294 -0.093227334 0.049069684
0.042182766 -0.12509054 -0.017137215 0.08210042 -0.027790405 0.081779964 -0.002670113 0.024475927
0.06313208 -0.0021814909 -0.1875371 0.08302799 -0.083248585 0.1253258 -0.051791944 -0.10154912
-0.08032512 -0.11972293 0.114928335 0.040730406 -0.023095347 0.063495256 -0.00057823956 0.114942625
0.026839364 -0.061024882 0.026678963 0.022144502 0.011443516 -0.10256361 -0.03313099 0.03950688
0.114392206 0.0714506 0.07544827 -0.024616508 0.0131730735 -0.03185252 0.05875454 -0.030364215
0.04867911 0.06454277 -0.032784365 0.03973309 0.047585085 0.03384351 -0.010457713 -0.05122082
0.08191992 -0.066353396 0.068689734 0.0884648 0.02018442 0.049247082 0.07560605 -0.085121825
-0.010543739 0.067721374 0.04696488 -0.10919829 -0.023913318 -0.024718635 -0.032530833 -0.17470556
-0.0055957995 -0.014985364 0.043221917 0.041967016 -0.09410466 -0.02593931 -0.018994221 0.0051403306
0.032516506 0.027050804 0.118742965 0.00854251 -0.003082437 -0.020349441 0.032354206 0.008625884
-0.12390148 0.0222434 0.0357004 -0.011879548 -0.0214319 -0.0034582382 -0.1551968 0.07800282
-0.050067972 0.04780506 0.02961163 0.04063414 0.09271604 0.11562945 0.05366591 0.011672527
0.0566615 0.023456652 0.02794549 -0.054948576 -0.0042210817 -0.030841429 -0.01278853 -0.057559676
0.016117804 -0.056009866 -0.062016387 -0.067906834 0.26587453 -0.08493656 0.030465893 0.040551934
0.010811738 -0.043916587 0.061886154 -0.011774112 0.004034683 -0.013106681 0.18353161 -0.057055462
-0.1032568 -0.044342414 -0.034534268 0.13520342 0.0019903295 0.040702872 0.23421888 -0.10059281
0.0064116046 -0.058515746 0.038821276 0.044076174 -0.09564154 0.079704545 0.027333077 -0.00067868084
-0.047686562 0.037110977 -0.026703194 0.051944453 0.10398853 0.19758467 0.13127859 -0.06594561
0.012088265 -0.13916564 0.052065533 -0.046793185 -0.02644245 -0.08920082 0.05689676 -0.013685148
-0.13338056 0.04869762 0.042868003 -0.022068247 -0.026920864 -0.045476496 0.055868797 0.054094013
-0.059598524 -0.015996488 0.1102185 0.044903923 0.0024964958 0.10370642 -0.082925886 -0.02762606
0.043018464 -0.06419896 -0.010721537 -0.0396485 0.089722045 0.0069770543 0.03485061 -0.017966716
-0.1786504 -0.06427554 -0.09937838 -0.095061354 -0.032140657 0.09902893 -0.0733544 0.00054821745
0.088084355 -0.0075864047 0.037073273 0.09253448 -0.057775103 0.09552138 -0.043707706 0.017789561
0.03686359 -0.06759106 0.063806616 0.035608284 -0.028896928 -0.0979652 -0.12723784 0.0022913604
-0.11305715 -0.08441455 -0.08017912 -0.077350944 0.018028945 0.05286691 -0.05713962 -0.07700596
0.0049044043 -0.02839151 -0.010243632 -0.07749495 -0.019585427 -0.071317956 -0.1357738 -0.051972114
-0.062351845 0.022350278 -0.03722714 -0.02471757 -0.059995174 -0.033504333 -0.047720186 -0.1392044
0.093484774 0.07661588 0.073982984 0.018891092 0.022151187 0.10229721 -0.5364287 0.108758986
-0.033280972 -0.08861834 0.024697075 0.019345738 0.068433404 -0.054154243 0.0673021 -0.16658713
00000000: 20da cabb 0087 81bd 407d 283b b431 603d
00000010: 6ae0 68bd ead7 b6bd 40c2 7c3b 34f5 ea3c
00000020: 5b34 4f3d 6fe1 58be 7fe7 e8bd 3b7e 423d
00000030: 5c22 9e3d a9ba 42bd f9ed bebd 4bfd 483d
00000040: d6c7 2c3d bc17 00be 5863 8cbc 4424 a83d
00000050: b4a8 e3bc 417c a73d 10fd 2ebb bd81 c83c
00000060: 644b 813d 58f7 0ebb ba09 40be 940a aa3d
00000070: 3c7e aabd 6855 003e ca23 54bd fcf8 cfbd
00000080: 7f81 a4bd 4c31 f5bd 8c5f eb3d edd4 263d
00000090: 7432 bdbc cd09 823d 0095 17ba 0a67 eb3d
000000a0: 3ade db3c 3af5 79bd d78d da3c 6368 b53c
000000b0: 967d 3b3c df0c d2bd 5cb4 07bd f7d1 213d
000000c0: 7646 ea3d b154 923d 9f84 9a3d 8fa8 c9bc
000000d0: e0d3 573c ca77 02bd 9aa8 703d 60be f8bc
000000e0: bf63 473d 002f 843d e648 06bd 2abf 223d
000000f0: 94e8 423d 7e9f 0a3d d456 2bbc eccc 51bd
00000100: a2c5 a73d 4ae4 87bd 34ad 8c3d 082d b53d
00000110: cc59 a53c 4fb7 493d 58d7 9a3d 5a54 aebd
00000120: a6bf 2cbc 81b1 8a3d 3f5e 403d 5aa3 dfbd
00000130: dde5 c3bc bc7e cabc 0d3f 05bd 04e6 32be
00000140: f85c b7bb 2c85 75bc 7709 313d 9be5 2b3d
00000150: f2b9 c0bd ad7e d4bc c599 9bbc 3870 a83b
00000160: 0730 053d a699 dd3c 832f f33d e2f5 0b3c
00000170: b602 4abb dfb3 a6bc d885 043d 9453 0d3c
00000180: 0fc0 fdbd ca37 b63c 953a 123d 70a2 42bc
00000190: f491 afbc 9ca3 62bb e9eb 1ebe f1bf 9f3d
000001a0: 1314 4dbd 3dcf 433d 1794 f23c fc6f 263d
000001b0: e8e1 bd3d 22cf ec3d c9d0 5b3d 203e 3f3c
000001c0: e415 683d 2a28 c03c f1ed e43c c211 61bd
000001d0: 0051 8abb 2aa7 fcbc fc86 51bc b2c3 6bbd
000001e0: 7c09 843c 9a6a 65bd e504 7ebd bd12 8bbd
000001f0: b520 883e 38f3 adbd 9c93 f93c c919 263d
00000200: b723 313c e1e1 33bd 567c 7d3d 34e8 40bc
00000210: 6035 843b 68bd 56bc b6ef 3b3e fdb2 69bd
00000220: 4d78 d3bd 64a0 35bd ce73 0dbd c472 0a3e
00000230: 3070 023b 0eb8 263d 13d7 6f3e 9a03 cebd
00000240: 7018 d23b 35ae 6fbd 0f03 1f3d 3889 343d
00000250: b6df c3bd 233c a33d 9ee9 df3c 80e9 31ba
00000260: fc52 43bd ae01 183d a8c0 dabc b5c3 543d
00000270: f0f7 d43d a353 4a3e e56d 063e 7e0e 87bd
00000280: dc0d 463c 7081 0ebe ab42 553d 36aa 3fbd
00000290: d69d d8bc ebae b6bd 940c 693d ac37 60bc
000002a0: ea94 08be 2877 473d 5c96 2f3d 78c8 b4bc
000002b0: 2589 dcbc 9045 3abd aed6 643d af91 5d3d
000002c0: 951d 74bd 110b 83bc 3dba e13d 2ded 373d
000002d0: 409c 233b 0864 d43d 0cd5 a9bd 0c50 e2bc
000002e0: 2134 303d bf7a 83bd 63a9 2fbc 7766 22bd
000002f0: 31c0 b73d c69f e43b 83bf 0e3d ef2e 93bc
00000300: 21f0 36be e5a2 83bd e486 cbbd 87af c2bd
00000310: eca5 03bd aecf ca3d d53a 96bd 40b6 0f3a
00000320: 9265 b43d 6097 f8bb 25da 173d b882 bd3d
00000330: 96a5 6cbd b7a0 c33d da06 33bd 6abb 913c
00000340: 47fe 163d 2f6d 8abd 0bad 823d fed9 113d
00000350: 40b9 ecbc fba1 c8bd a34a 02be a62a 163b
00000360: 828a e7bd 89e1 acbd f334 a4bd 2c6a 9ebd
00000370: 70b1 933c f98a 583d 3c0b 6abd 4db5 9dbd
00000380: 20b5 a03b 5095 e8bc e8d4 27bc acb5 9ebd
00000390: 9e71 a0bc 260f 92bd 4908 0bbe b6e0 54bd
000003a0: a664 7fbd ee17 b73c 7c7b 18bd 807c cabc
000003b0: 80bd 75bd d73b 09bd 3e76 43bd 998b 0ebe
000003c0: f274 bf3d c9e8 9c3d 6484 973d 7ec1 9a3c
000003d0: 6876 b53c 3381 d13d 6453 09bf 08bd de3d
000003e0: a151 08bd 887d b5bd 8551 ca3c f47a 9e3c
000003f0: d026 8c3d d7d0 5dbd afd5 893d d195 2abe
