weights/429_blocks_block22_bn2_bias.npy (npy, 1216 bytes, 1 tensors)

array f4 [272]
00000000: b16e 1fba f9e4 0f39 fcc4 5b3a 5feb 4fb9
00000010: adb2 deb9 3e6b 2dba e783 8eba 46af cbb9
00000020: 271a deba 0906 693a 225f 3139 bfdc c0b9
00000030: 72c0 ab3a daa2 1eb8 e4e2 d4b9 98d6 9d3a
00000040: e598 1eba c665 c1b9 57f2 d43a b531 eab9
00000050: 9f1b 2cba f51e 4239 e7f3 0a39 a5db 1eba
00000060: b6b6 3ab8 ca3b 94ba 81ac 86b9 d90b c839
00000070: 512f dc3a b045 e8b8 337e 06b9 f379 82b9
00000080: 5bee a1b9 6573 4739 a3b1 023a 409f 583a
00000090: 37f9 1d3a b679 9cba 557e 67ba 1aa9 0f39
000000a0: eb2b 5e38 fe06 1f3a 4d81 0639 2973 0a3a
000000b0: 0669 c1b9 8578 4ab9 a1b8 ce39 62be 883a
000000c0: ee30 3bba edd8 6db8 d077 52b9 e65f b038
000000d0: be1b 04ba 460d a038 e01a ec39 9c9b f039
000000e0: ead1 5cba 881a 4a39 8501 a23a 2810 003b
000000f0: f46e d4b9 bbb0 8cb9 60e8 ee38 df07 06bb
00000100: 25a0 42b9 16d3 063a dbcf ae3a da8b 75ba
00000110: 9947 2cb9 5d4c b038 63a6 0e3a d01f 3339
00000120: 148c b4b9 0129 9939 492f bab9 8a32 6f38
00000130: c00d fb38 d415 4a3a 28f1 9dba c8f2 c2ba
00000140: c9c7 77ba ba90 4c39 9100 313a e6e9 82ba
00000150: 5c10 2eba 8e12 34b8 298f 5239 5597 2039
00000160: d41c 6a39 2df5 dbba 74cb 9f3a 154d 00ba
00000170: 5053 96ba 540c f937 3084 88ba 7c70 6537
00000180: e945 8938 b023 2cba ebd8 f0b9 2587 5338
00000190: 291a d239 f10f 1d3a 4e10 a1b8 b8b6 09bb
000001a0: 728e abb9 d588 8aba e240 123a bc81 563a
000001b0: b277 47ba c34f 243a 96b3 b5b8 083a 563a
000001c0: 020f 18ba cc56 e639 f9a0 5d3a 647e 713a
000001d0: e07e 2aba 9b41 093b 34ab 25b9 a5ff 33bb
000001e0: 2a03 87ba 9c60 133a 2b0d c539 66cf 4b39
000001f0: 491c ddb9 9b23 62ba 9902 d5ba 0573 ebba
00000200: 9653 36b8 eda9 8dba 0932 003a 5528 c9b9
00000210: 5ea1 f4b9 e90c d0b9 2d7a 5b3a 8a71 bc39
00000220: e4f9 013a e093 4dba 8854 80ba 7199 913a
00000230: 0292 2cba 7b6e 573a fece f539 7666 17ba
00000240: 4847 28ba b402 85ba dbcc 8c39 e6ff 183a
00000250: 8618 d4ba 748b 7d38 b060 c5ba 9791 2b39
00000260: 8a36 7eb9 9599 32b9 7570 27ba ceed 5d3a
00000270: 9135 3b3a 8039 20ba 241f 0138 7c24 afba
00000280: dace 51ba b0cc 423a b3de 1b3a 6eb4 793a
00000290: 90c7 7639 c55a 153a 0ce1 b63a 3a04 2db9
000002a0: cb95 4bb9 20fa d839 070d 3aba 4dc2 e038
000002b0: f7c8 5eb7 fc13 4c3a 2d07 82ba e0f8 81ba
000002c0: ea4d adb9 9992 373a 1877 f839 e435 8c3a
000002d0: 0b75 a13a 29f7 4bba 7eec 963a dcf0 56b9
000002e0: 34f8 30ba f041 203a 2a4a 21ba b897 32ba
000002f0: 09e1 0a3a a279 7bb9 6343 f7b9 ca16 6f39
00000300: f349 a4ba b5c7 6eba ba56 9d39 38bc 393a
00000310: 88d5 88b9 efd9 7238 a9a2 b7ba f2b8 0d3a
00000320: d4a3 c7ba d88b 613a 1e6b 93ba 42f0 4b38
00000330: 8e66 813a 620a 58ba 38f5 c6b9 60fe b039
00000340: 0ee8 22b9 eb95 16ba a5ea 62ba 06ea 42ba
00000350: 7792 2bba b3af d736 3087 f2b9 97d0 573a
00000360: 37ab 333a cf6f 19ba 0a5e 89ba 1138 203a
00000370: db88 14ba dda5 6d36 946f 5637 cc3f a6b9
00000380: ee6e edb9 12f9 10ba 5a04 6039 c0cd 2939
00000390: f10b 4f39 f1e7 3bb8 1a39 3739 6c95 a3b9
000003a0: 8e6b 5f3a 5c2b 9f39 160f 7c38 b11a adba
000003b0: 7ac5 bf39 3ae0 33ba f3bc 46ba 9323 d13a
000003c0: 8084 a5ba 6a6a f539 e076 6cba 5166 0fba
000003d0: 3661 1239 9450 883a 542e 01ba fd87 f7b9
000003e0: 30d5 7339 453d 3c37 3d51 7eba d9ef 88ba
000003f0: 61a0 be39 9bd9 b93a 9faa 2f3a d1f9 9638
-0.0006081863 0.00013722842 0.000838354 -0.00019828741 -0.00042476263 -0.00066154066 -0.001087305 -0.00038849766
-0.001694505 0.0008889144 0.00016915475 -0.00036785562 0.0013103618 -3.7821803e-05 -0.00040604838 0.0012042103
-0.0006050005 -0.00036887656 0.0016246539 -0.00044668993 -0.0006565395 0.00018512814 0.00013251566 -0.0006059951
-4.451602e-05 -0.0011309322 -0.00025686997 0.000381558 0.0016798769 -0.000110756024 -0.00012826249 -0.00024886391
-0.00030885902 0.00019021107 0.00049855764 0.0008263476 0.00060262106 -0.0011938128 -0.00088307756 0.00013700538
5.2969826e-05 0.00060664106 0.00012827404 0.00052814424 -0.00036890077 -0.00019309118 0.0003942894 0.0010432715
-0.0007140775 -5.670723e-05 -0.00020071794 8.4101965e-05 -0.00050395343 7.631867e-05 0.0004503345 0.00045892305
-0.00084236136 0.00019274105 0.0012360072 0.001954088 -0.00040518458 -0.00026834555 0.000113920076 -0.002045147
-0.0001856094 0.00051431486 0.0013337092 -0.0009366848 -0.0001642987 8.406558e-05 0.00054416637 0.00017082621
-0.00034436642 0.00029212984 -0.00035511915 5.702911e-05 0.00011971174 0.0007708941 -0.001205002 -0.001487338
-0.00094520726 0.00019508871 0.00067520986 -0.000998792 -0.0006640011 -4.2932625e-05 0.00020080492 0.00015315165
0.00022326718 -0.0016781442 0.0012191371 -0.00048942986 -0.0011468921 2.9688854e-05 -0.0010415372 1.36756535e-05
6.545691e-05 -0.0006566597 -0.00045937984 5.0432183e-05 0.00040073812 0.000599145 -7.680115e-05 -0.002101345
-0.00032721792 -0.0010569344 0.00055791263 0.0008182784 -0.00076090836 0.0006267989 -8.664203e-05 0.00081720995
-0.0005800576 0.00043933687 0.0008454468 0.0009212254 -0.0006503891 0.0020943645 -0.00015799404 -0.0027465608
-0.0010300626 0.0005622001 0.0003758458 0.0001943685 -0.0004217348 -0.00086265214 -0.0016251385 -0.0017963356
-4.3470027e-05 -0.0010808088 0.00048902683 -0.00038367757 -0.00046659535 -0.0003968247 0.00083723926 0.00035942747
0.0004958196 -0.00078421645 -0.0009790817 0.0011108351 -0.0006583036 0.0008218062 0.00046884263 -0.0005775461
-0.0006419313 -0.00101479 0.0002685551 0.00058364717 -0.0016181625 6.0449776e-05 -0.0015058722 0.00016362067
-0.00024243645 -0.00017032617 -0.0006387302 0.00084659166 0.0007141466 -0.0006112084 3.0785e-05 -0.0013362314
-0.00080035406 0.00074310135 0.00059459655 0.00095254823 0.00023534731 0.00056974246 0.0013952567 -0.0001650014
-0.00019415391 0.00041385088 -0.0007097278 0.00010717344 -1.3279022e-05 0.00077849603 -0.0009920351 -0.000991609
-0.00033055182 0.0007002741 0.00047390978 0.0010697213 0.0012318207 -0.0007780665 0.0011514572 -0.00020498357
-0.00067508523 0.0006113341 -0.0006152714 -0.0006812769 0.0005297815 -0.00023982537 -0.00047161718 0.00022801306
-0.0012534246 -0.0009108738 0.0003000999 0.0007085237 -0.00026099035 5.7900263e-05 -0.0014010268 0.0005406282
-0.001523132 0.0008603907 -0.0011247133 4.862273e-05 0.0009872483 -0.0008241293 -0.00037948205 0.0003375886
-0.00015535971 -0.00057443854 -0.00086561806 -0.0007435385 -0.0006544957 6.4279534e-06 -0.0004625856 0.00082326814
0.0006853821 -0.00058531476 -0.0010480296 0.000611187 -0.0005666145 3.5412297e-06 1.2781373e-05 -0.0003170952
-0.00045286812 -0.00055302784 0.00021363926 0.00016193744 0.00019745507 -4.4800287e-05 0.00017473512 -0.0003120111
0.0008522802 0.00030359149 6.009553e-05 -0.0013206807 0.0003657749 -0.00068617205 -0.0007581256 0.0015956037
-0.0012627989 0.00046809326 -0.00090203993 -0.00054702634 0.00013959859 0.0010399991 -0.0004927863 -0.0004721283
0.00023253704 1.1219939e-05 -0.00097014365 -0.0010447457 0.00036359116 0.0014179231 0.0006701145 7.199089e-05
