weights/435_blocks_block23_bn0_running_mean.npy (npy, 6656 bytes, 1 tensors)

array f4 [1632]
00000000: 74c3 11ba ba2a b239 ebf1 543a d5a0 1c3a
00000010: 34e0 8bba 970d 54ba bd60 edb9 137d 25ba
00000020: ecae 263a 7fe4 063a 69d2 2eba 0aee 45ba
00000030: 252d 61ba 75c8 73ba baa2 0538 6d11 c1b9
00000040: fb97 003b 9f8f b1b8 fb12 b939 4bbc 6eba
00000050: 072d 813a f9f3 503a ea45 19b9 b0da 86ba
00000060: d300 a9ba 2bcd 943a 12dd b33a a8b7 353a
00000070: aae6 5939 fff2 443a 6378 27ba 9a3e 98ba
00000080: e483 1539 86d6 b5b9 7ad1 c238 5506 d136
00000090: 8dcc 82b9 3a93 20ba a2ec 10ba 872b 27ba
000000a0: 03e6 0139 c89c 713a 77df 6739 d7e9 9d38
000000b0: d475 c4b9 57b4 9db9 7050 e239 2b60 56ba
000000c0: 6b2e 20ba 4587 553a 1d1b a6b8 3a07 2439
000000d0: 0c5d 6bba 3e61 8e3a c540 3e37 b39b 2dba
000000e0: f6e0 d739 1c95 803a 9f70 4fb9 0d85 af39
000000f0: 1710 1fb8 21a2 ea3a e63c edb9 ab66 fdba
00000100: bf44 5639 8aeb 4aba fe20 ae37 8c42 113b
00000110: 9f75 c4b9 9bcd 8bba 6cc2 ab3a b3fb 80ba
00000120: 9976 2b3a dd4e 45b9 8965 b53a e0a5 65b9
00000130: 330b 343a 88aa 38b9 7cc6 95ba 031a 2d39
00000140: 3226 183a 9a4c 5eba ea59 283a afe7 1e3a
00000150: 531d 62b6 6858 82ba 0760 5e39 6948 90ba
00000160: 6a32 e139 c4da 033a 2961 c7ba b7ef 10ba
00000170: b22b e8b9 d2fc bd39 459a 30ba 1d4c 003a
00000180: 1cf7 4dba fe29 c038 3d5d c1b9 e991 393a
00000190: 706a eeb9 7c92 23ba 99e1 ddb7 1e99 a7b9
000001a0: 3b85 8db9 d844 8b3a c5fa eab8 7ba1 7839
000001b0: 51b1 acb7 ae62 82ba 047c 8339 643f c9b9
000001c0: b5ff 16ba 3462 0aba acff 1039 0408 a4ba
000001d0: 9fa0 f0ba 09a8 323a 73f8 b139 4047 63b9
000001e0: 1310 f63a 1944 d0b9 c1b8 63ba 263b 0b3a
000001f0: 5f29 00ba 04ca 603a 828a 823a 859e ff38
00000200: decb 82ba ce57 8db7 00f7 8a39 68bf f739
00000210: 5591 1eba 2663 80ba 53cc dab9 43a5 8739
00000220: 06dd 21ba 548a a839 7fa0 2fba bc28 1b39
00000230: 9295 0d3a 3279 15ba b05e ea39 e09f f839
00000240: 9c76 0d3a 0f73 a2b8 5bad 01b9 4f4b 973a
00000250: 2bf1 83b9 0d3f a43a 4b01 9d3a a3e8 8fba
00000260: 1992 f9b9 79a9 1f3a 97ae bfb9 0052 aeb8
00000270: 3b12 a7b9 c0a2 0abb 5ffa 7c39 caf0 0338
00000280: bd9e 4738 99aa 04ba c420 803a 3ba1 eeb9
00000290: f6bf 07ba e1de bf39 06ab 263a d21b 70ba
000002a0: 3ccb 16ba e10e 9839 e18f 92b9 08ea b8ba
000002b0: 9d54 c33a c0f1 09ba 3866 51b9 f91b 8839
000002c0: a4a6 e039 d4a6 b5ba a934 86ba 7781 5fba
000002d0: 6aa6 063a 804c 3839 2c8f eb39 8759 0fba
000002e0: a98f 7e37 692c 263a 1ff0 c538 b6d2 df39
000002f0: e8bb 54ba 16a9 4cba 0030 d138 f76a a039
00000300: 31f5 4fb9 7831 033a 3ee8 20b9 d57c 5a39
00000310: 5faa b839 cd17 88b9 c550 83ba 5967 ce38
00000320: 52f5 4b38 8070 0339 9b96 c6b9 de9f 9cba
00000330: 9045 1538 2389 4f3a 2eb0 e739 8848 0438
00000340: c6e9 d439 a86e 6939 57a8 77ba 376b 9b3a
00000350: b4c6 7fb9 4aff a3ba 15aa 5837 a082 4ab8
00000360: 01d8 b2ba ef92 c13a 5c48 8fba 6451 91b9
00000370: b33c 9fb9 1d05 373a b186 6339 4b1c a83a
00000380: 1a37 193a ef77 a8b9 a0ca 483a 3a41 453a
00000390: c2b2 c837 a68d beba b149 0cba 540e 343a
000003a0: b0f9 7a39 c532 4a39 cb8c 53ba b742 c7ba
000003b0: f974 ea38 6061 7938 10c9 a6b7 dd3a 703a
000003c0: 7a8c 15ba 38ae c139 56e3 0539 3600 e338
000003d0: c4fd f7ba 62ac dcb9 d782 8e39 b469 acb8
000003e0: 79d2 bdb9 824a 4ab9 b047 35ba 74cf e139
000003f0: 7f4c 9938 030e c03a 5d46 17ba fce5 b0b9
-0.0005560436 0.0003398264 0.0008123207 0.00059748936 -0.0010671676 -0.0008089183 -0.00045276238 -0.0006312888
0.0006358463 0.0005145743 -0.0006668927 -0.0007550424 -0.0008589796 -0.0009299585 3.1861222e-05 -0.00036824812
0.0019621837 -8.466769e-05 0.0003530009 -0.00091070373 0.0009855338 0.0007970925 -0.00014617262 -0.0010288563
-0.0012893922 0.0011352649 0.00137225 0.0006931969 0.00020780662 0.0007513016 -0.00063884835 -0.0011615336
0.0001425888 -0.00034682843 9.289659e-05 6.2294225e-06 -0.00024947934 -0.0006125454 -0.0005528425 -0.00063770305
0.00012388085 0.00092167826 0.00022113124 7.5298994e-05 -0.00037471822 -0.00030079737 0.0004316601 -0.00081777823
-0.00061104324 0.0008145462 -7.920547e-05 0.00015642951 -0.00089784036 0.0010862721 1.1339963e-05 -0.0006622627
0.00041175605 0.0009810063 -0.00019783013 0.00033477732 -3.792354e-05 0.0017901101 -0.00045249535 -0.0019332966
0.0002043424 -0.00077407865 2.075778e-05 0.002216491 -0.00037471668 -0.0010666134 0.0013104207 -0.0009840637
0.0006540805 -0.00018816763 0.0013839464 -0.00021900935 0.0006868124 -0.00017611135 -0.0011426951 0.00016508256
0.00058040314 -0.00084800425 0.00064220896 0.0006061745 -3.3693693e-06 -0.000994456 0.00021207343 -0.0011007908
0.00042952906 0.0005029852 -0.0015211451 -0.00055288844 -0.00044283044 0.00036237255 -0.0006736855 0.0004894154
-0.00078569516 9.163095e-05 -0.00036881297 0.0007078932 -0.000454742 -0.00062397844 -2.6450305e-05 -0.00031966803
-0.0002699288 0.0010625375 -0.00011204699 0.00023711279 -2.0586567e-05 -0.0009947622 0.00025078666 -0.00038384937
-0.0005760149 -0.00052789156 0.00013828155 -0.0012514596 -0.0018358416 0.00068152003 0.0003394518 -0.0002167495
0.0018773101 -0.00039723588 -0.0008686893 0.0005311243 -0.0004888977 0.00085750245 0.0009959491 0.00012188874
-0.000997897 -1.6849397e-05 0.0002650544 0.0004725412 -0.0006048878 -0.0009795174 -0.00041732434 0.00025872336
-0.00061745977 0.0003214652 -0.0006699636 0.00014797127 0.0005401011 -0.00057019584 0.00044702506 0.00047421362
0.00053963973 -7.746193e-05 -0.00012366979 0.001154283 -0.0002516595 0.0012530998 0.0011978535 -0.0010979365
-0.00047601832 0.0006090622 -0.00036560438 -8.31224e-05 -0.00031866305 -0.0021154135 0.00024125863 3.1457086e-05
4.7593134e-05 -0.00050608214 0.000977539 -0.00045515024 -0.0005178446 0.00036596417 0.0006357882 -0.0009159419
-0.000575233 0.00029002785 -0.00027954488 -0.0014107833 0.0014902536 -0.0005262159 -0.00019969873 0.00025960783
0.00042848766 -0.0013858923 -0.0010239083 -0.00085260667 0.0005136492 0.00017576106 0.00044929364 -0.00054683577
1.5173028e-05 0.0006339015 9.438418e-05 0.00042690866 -0.00081151584 -0.0007807178 9.974837e-05 0.00030597273
-0.00019832399 0.0005004625 -0.00015345306 0.00020836604 0.0003522215 -0.00025957674 -0.0010018578 9.8420955e-05
4.8627444e-05 0.00012535043 -0.00037877713 -0.00119495 3.5589153e-05 0.00079168583 0.00044191018 3.1538802e-05
0.00040609966 0.00022261834 -0.0009447387 0.0011857514 -0.00024392718 -0.0012511995 1.2914204e-05 -4.8282207e-05
-0.0013644696 0.0014768521 -0.0010931599 -0.00027717196 -0.00030372068 0.0006981658 0.00021698583 0.0012825815
0.00058446976 -0.00032132815 0.0007659588 0.0007524673 2.3925099e-05 -0.0014538064 -0.0005351557 0.000686859
0.00023934874 0.00019283134 -0.0008069991 -0.0015202378 0.00011179777 5.9456914e-05 -1.9882369e-05 0.0009164045
-0.00057048316 0.00036941632 0.00012768558 0.00010824243 -0.0018920233 -0.00042090105 0.00027181834 -8.221288e-05
-0.00036205704 -0.00019291978 -0.00069152843 0.0004306991 7.309857e-05 0.0014652613 -0.0005770678 -0.00033740688
