weights/467_blocks_block24_bn2_bias.npy (npy, 1216 bytes, 1 tensors)

array f4 [272]
000000 84 04 c2 bc 09 83 48 bd 60 8c ba bd c5 23 0f 3e
       -0.023683794 -0.04895309 -0.09108806 0.13978489
000010 b2 a0 8d be 6a 0a 98 be 79 8d 08 be b9 3f 9b 3e
       -0.27661663 -0.29695445 -0.13335218 0.30322054
000020 a9 aa 4f 3f 26 f0 a1 bc 5c 3e da 3e bf cc 77 be
       0.8111978 -0.019767832 0.426257 -0.24199198
000030 36 fd 82 be 9e db 81 bd 63 ee f8 3d 3a 3f 83 3e
       -0.2558381 -0.06340717 0.12154844 0.25634176
000040 16 11 e7 3e 78 8f 86 be 49 12 0e 3e 89 cb 4b bf
       0.45130223 -0.26281333 0.13874163 -0.79607445
000050 f8 d9 1a be 07 32 17 3f 29 f6 f7 bc d9 49 b0 3e
       -0.15122211 0.5906071 -0.030268745 0.3443134
000060 82 79 22 bf 32 0f f6 be 80 b0 8e 3e 7e 0e 7b 3e
       -0.63466656 -0.48058468 0.27869034 0.24517247
000070 7a ad 87 3c de e6 c2 3e d1 44 55 be 68 1a f2 bd
       0.016562212 0.38066763 -0.20827033 -0.11821443
000080 01 dd 03 3f 9f ac c4 be b1 9e 83 3e 49 83 bf 3d
       0.515091 -0.3841295 0.2570701 0.093512125
000090 70 1f 86 bd 0a d4 2b bd d5 1c 96 be c4 e6 92 3e
       -0.06548965 -0.041950263 -0.29318872 0.28691685
0000a0 f7 26 35 be a0 ee d8 be 2b d0 b5 bd 6e 5e 60 be
       -0.17690645 -0.42369556 -0.088775955 -0.21911022
0000b0 4c 5f 38 3e 12 5c 80 3d 1e d3 14 3d f9 cb 07 3e
       0.18005103 0.06267561 0.03633415 0.13261403
0000c0 66 ee 06 3f 3b e5 36 bf 0c 8a 8c 3b 66 41 cb 3e
       0.5270752 -0.7144353 0.0042889174 0.39698333
0000d0 c3 b5 40 bd cc 7d 04 bf 26 9b 01 3e ae 22 b2 3e
       -0.04704834 -0.5175445 0.1265684 0.34792084
0000e0 cb 92 9c be 20 d1 6a 3e ac 03 09 3e f2 3c 82 3e
       -0.30580744 0.22931337 0.13380307 0.25437123
0000f0 08 7e cc 3d 1d d7 ee 3e 5b 5d 93 be e3 be 97 be
       0.09984976 0.46648493 -0.28782162 -0.29637823
000100 7e 55 d5 bc 0c 40 f8 be 39 a5 af 3e 94 f8 2f bc
       -0.026041742 -0.48486364 0.34305742 -0.010740418
000110 6c 85 d7 3d e5 8c 64 3e 67 d6 1c be ed 33 fb bc
       0.10523495 0.22319372 -0.15316163 -0.030664409
000120 a6 66 4b 3c 04 a5 1d be 42 7e 18 3f 96 06 b3 3b
       0.01241461 -0.1539498 0.59567654 0.0054634316
000130 21 7c 1c 3f 19 8d b6 3d 97 7a 7d 3d 37 fc 9a be
       0.61126906 0.08913631 0.06188449 -0.3027055
000140 92 32 a0 3d 3a 1c 0a be 8e 5b ab 3d f0 51 e6 3d
       0.078221455 -0.1348733 0.08367072 0.11246097
000150 41 f0 9a 3d f7 93 94 bd 8c 2a 19 be de 3a 15 be
       0.07565356 -0.072547846 -0.14957637 -0.14573237
000160 5a b7 8a be 4a 52 a2 bf 4b 1a a9 be 72 dd 14 be
       -0.2709301 -1.2681363 -0.33027872 -0.145376
000170 fa 7e 3d 3e 68 ca ec bd 5a a0 1e 3e 7b 55 95 3e
       0.18505469 -0.115620434 0.15490857 0.2916678
000180 ad 0f 60 be 9b 27 49 be 5b e0 c4 be 73 62 19 3d
       -0.2188098 -0.19644015 -0.3845242 0.037447404
000190 cd 2a 5b be 3d 54 7a 3d 8e bf f6 3c 94 bf a2 3e
       -0.21403046 0.061115492 0.030120637 0.31786788
0001a0 86 5f a8 3d 9e 8e ed bd 93 4a 25 be 4e 5b 1d 3e
       0.08221345 -0.11599468 -0.16141729 0.15366861
0001b0 08 3f 90 3c 6d 43 3e bd 68 b7 51 bd f9 89 6b 3e
       0.01760818 -0.04645102 -0.0512003 0.23001851
0001c0 18 69 f1 bd ba db 46 bf ca 02 aa 3d e7 28 5a 3e
       -0.11787623 -0.77679026 0.08301313 0.21304666
0001d0 7d 11 bd be a1 d8 95 bd a6 b4 b8 be ab 71 13 be
       -0.36927405 -0.07316709 -0.36075324 -0.1439883
0001e0 f7 2f 45 3f 4e 32 8b bf 28 d5 3d 3e 4c cb 39 bf
       0.77026314 -1.0874727 0.18538344 -0.7257583
0001f0 d5 07 c7 3d 23 64 b7 bb 95 68 9b bc 4f 73 ae 3c
       0.09718291 -0.005596654 -0.018970767 0.021295218
000200 ab 7a b4 3d bc 20 94 bb e8 c6 27 be e6 d5 f4 3d
       0.088124596 -0.004520504 -0.1638447 0.119548604
000210 5c 81 48 3e bf 4e 37 3f a1 75 ab 3e 8b e5 28 3e
       0.19580597 0.7160453 0.3348818 0.16493814
000220 b8 77 af bd 3e c7 6f be cd 38 90 3e 7e 91 c3 3e
       -0.085677564 -0.23415849 0.28168336 0.3819694
000230 8c 52 9e bd af 48 9b be 09 63 99 be bb 6f 31 bf
       -0.07730588 -0.3032889 -0.2995837 -0.6931111
000240 98 7f 4c 3d b5 4a 91 3e 4b 32 97 be d7 75 60 3d
       0.04992637 0.2837731 -0.29530558 0.05479988
000250 50 dc 3d 3e 33 88 23 be 7a ab 80 3e 51 1d 54 3d
       0.18541074 -0.15969925 0.25130826 0.05178577
000260 03 78 8c be e9 82 f7 3d 00 b4 65 be 9e 6d c2 be
       -0.27435312 0.12085516 -0.22431946 -0.37974256
000270 b3 3f 95 3c 1b e9 0a be ea e4 ea 3e a2 76 c8 bd
       0.01821885 -0.13565485 0.45877773 -0.097882524
000280 f8 4c 21 3e fd 11 a1 3d 61 60 31 be dd ef 31 3f
       0.15752017 0.07864759 -0.17321922 0.6950663
000290 d2 f5 4a be a0 f9 aa bc 8f 90 c3 3e 56 e0 b5 be
       -0.19820336 -0.020870984 0.38196227 -0.35522717
0002a0 87 8b 6c be 2b 59 25 3f 23 d5 d6 bb 13 ca ae bd
       -0.231001 0.64589185 -0.0065561696 -0.08534636
0002b0 42 f4 80 be 44 32 e5 3c 72 c9 95 3e f4 ff e8 3e
       -0.25186354 0.02797807 0.29255253 0.45507777
0002c0 0b 41 9d 3e bf f4 0e 3e 64 ba 39 be b9 21 58 bf
       0.30713686 0.1396055 -0.18137509 -0.84426457
0002d0 52 c2 dc bc cb 24 32 be 3c 20 1e bf 50 3f 75 bf
       -0.026948128 -0.17396848 -0.61767936 -0.9579973
0002e0 a9 0c 10 3e 38 9c 20 be d7 fd 58 be 69 6a b7 3d
       0.1406733 -0.15684593 -0.21190582 0.08955843
0002f0 fc ad 19 3e 10 a8 16 3e b0 61 95 be d9 61 1b bf
       0.15007776 0.14712548 -0.29176092 -0.6069618
000300 66 a7 0b bc 04 ba 48 be 96 cb 83 3e 43 33 b6 bc
       -0.008523798 -0.1960221 0.2574126 -0.02224124
000310 cf af ad 3d ed df f8 3d e7 9c 1d 3e c0 d4 5e 3e
       0.084807985 0.121520855 0.15391885 0.21760845
000320 ea f4 7a 3e d1 c4 a9 3e b5 98 d3 bd 1f 6c 3f 3e
       0.2450749 0.33157972 -0.10331861 0.18693589
000330 1f 79 dd 3d ef 16 7f 3e 09 23 83 be b0 7f fb be
       0.10814118 0.24911092 -0.25612667 -0.49120855
000340 b8 12 18 3e 11 c4 da 3d ad dc 8a 3e 94 10 c2 be
       0.1485089 0.10681928 0.27121487 -0.37903273
000350 33 c7 a2 3d 37 b1 3d 3e 33 94 0e be 73 5b e7 3e
       0.079481505 0.18524633 -0.13923721 0.45186958
000360 13 72 1c 3d f0 ef e5 bd b4 f1 63 be 96 53 b7 bd
       0.038194727 -0.11227405 -0.22260171 -0.089514896
000370 ab 3c b0 bd 2b 6e 45 bf 1e 93 9a 3e 58 e1 59 be
       -0.086053215 -0.7712123 0.30190367 -0.21277368
000380 b4 9a 7e bd 26 7c d3 3e e6 de aa 3e 1f ce 7f 3e
       -0.062159255 0.41305655 0.33373183 0.24980973
000390 6f 58 81 be f0 9d 20 be e0 b9 ea 3d ef ca 00 3d
       -0.25262782 -0.15685248 0.11461234 0.031443533
0003a0 06 e0 5c 3e bc a1 5e 3e 4d 96 8a bd 13 68 3b be
       0.21569833 0.21741384 -0.06766949 -0.1830142
0003b0 db 43 80 be c6 29 d5 3d 6f ff 3c be db 1d 48 3d
       -0.2505177 0.10408358 -0.18456815 0.048856597
0003c0 1c c6 b6 3c db 69 2b 3e 32 59 52 3d 63 05 c3 bd
       0.022311263 0.167396 0.051354595 -0.09522512
0003d0 f0 3a 8f 3d 06 b2 97 be bb b1 a1 3e 4c 1c ed be
       0.06993663 -0.2962801 0.3158091 -0.4631065
0003e0 d8 10 6e be b9 1a 95 3e ad d3 3f 3f d6 63 90 3d
       -0.23248613 0.2912195 0.74932367 0.07050292
0003f0 2b e6 96 bb 62 70 f2 be e7 e2 c9 3e a1 05 85 bf
       -0.004605075 -0.47351366 0.39430925 -1.0392343
