weights/505_blocks_block26_bn2_bias.npy (npy, 1216 bytes, 1 tensors)

array f4 [272]
000000 50 57 99 bd 5d 32 87 3d 87 1e 4f be 14 13 01 3e
       -0.07487357 0.06601403 -0.20226489 0.12604934
000010 3a ee 8d be 50 61 b1 be cc 2f d7 bd f8 33 ac 3e
       -0.27720815 -0.34644556 -0.105071634 0.336334
000020 2c 79 2b 3f 5a 15 76 3e 3f 66 d3 3e 62 2a b1 bd
       0.6698177 0.24031582 0.41288945 -0.08650662
000030 8e c1 f4 bd ab 00 4f 3d c8 33 34 3e a4 4a 4b 3e
       -0.1195098 0.050537746 0.17597878 0.19852692
000040 fc 13 2e 3f 11 24 9d be 5d 0b 58 bd e9 b4 2b bf
       0.67999244 -0.3069158 -0.052745212 -0.6707292
000050 82 fd 6f bd c3 75 eb 3e cf 53 f8 bb c3 85 09 3f
       -0.058591373 0.45988283 -0.00757835 0.5371973
000060 e2 7f 1d bf 02 20 89 be ad 60 91 3e 15 5a 13 3e
       -0.6152326 -0.26782233 0.2839407 0.14389832
000070 16 7f a7 bc 67 f0 9b 3e e7 4c ff be 5e d3 05 3e
       -0.020446341 0.3045685 -0.4986336 0.13068911
000080 fb c5 bc 3e e5 5b da be 3e 52 bb 3d 6a 69 82 3d
       0.36869797 -0.42648235 0.09146546 0.063677624
000090 32 de 85 3d 5f fc 8f bc 35 a6 9a be b2 52 9e 3e
       0.06536521 -0.017576395 -0.3020493 0.30922467
0000a0 12 05 7e bd 83 56 b1 be 1f 17 ef bc 38 c8 96 be
       -0.062016554 -0.34636316 -0.02918583 -0.2944963
0000b0 45 f4 e2 3d d4 a8 0c be 02 4a 56 3d 49 5b 17 3e
       0.11081747 -0.13736278 0.052316673 0.14780916
0000c0 4d e7 d9 3e 76 42 fb be af 35 4a bd 5e e3 cb 3e
       0.4255928 -0.49074143 -0.049367603 0.39821905
0000d0 97 35 07 3c da 7d a6 be 5d 80 8e 3d 16 9e 9d 3e
       0.008252523 -0.32517892 0.06958077 0.30784672
0000e0 3b b8 56 be dc df 5c 3e 32 c8 b8 bd e6 bf 91 3e
       -0.20968716 0.2156977 -0.09022559 0.2846672
0000f0 32 9f 8c 3c 70 da d1 3e 16 4a aa be f4 36 58 be
       0.017165754 0.40986967 -0.33259648 -0.21114713
000100 52 f3 57 bd 4e 5b 0e bf 72 b4 97 3e 36 ec 80 bb
       -0.052722283 -0.5560807 0.29629856 -0.0039344085
000110 e2 62 2f 3e 4e 87 ec 3d 08 db e0 bc 47 9c f3 bc
       0.17127565 0.11549245 -0.027448192 -0.029737605
000120 5a 45 46 3c e2 76 52 3b b8 2e 9e 3e 4b 40 37 3d
       0.012101496 0.0032114317 0.3089502 0.04473905
000130 68 90 f5 3e a9 bf 38 3e f3 0d b2 3d 7f db 7a be
       0.47961736 0.18041863 0.08694067 -0.24497794
000140 eb 92 c6 3e ce 2e 24 be bb 78 87 3d bb 4f 13 3e
       0.38783965 -0.1603348 0.066148244 0.14385884
000150 23 08 a5 3d b6 46 51 be 35 b9 57 be 0f 75 c7 bd
       0.080581926 -0.2043713 -0.21066745 -0.09739124
000160 7a 77 95 be a4 f3 84 bf 2d 2c d1 be 18 b5 87 be
       -0.29192716 -1.0386853 -0.40854016 -0.2650535
000170 3c 03 8c 3e ca 70 b0 bd 71 4f e1 3d c0 33 00 3e
       0.27346218 -0.08615263 0.1100148 0.12519741
000180 f8 ee 11 be 3f 04 93 be 5e 4c b3 be e0 98 e8 bd
       -0.14251316 -0.28714177 -0.350192 -0.113572836
000190 5b da 83 be 23 ec 45 bd 31 98 ae bd 0a 02 95 3e
       -0.2575253 -0.0483209 -0.08525122 0.29103118
0001a0 1a a0 f2 bd 1f 2d 70 bc 9a c8 08 be 13 4f 7b 3e
       -0.11846943 -0.014659195 -0.13357773 0.24541883
0001b0 86 2d aa bc 9e 03 3d be 56 76 c0 bd 56 d9 46 3d
       -0.02077366 -0.18458411 -0.09397571 0.04854711
0001c0 e9 d3 f6 bd a9 8e 2d bf 23 b1 00 3e 1e 4a 3e 3c
       -0.120521374 -0.6779581 0.12567572 0.011614351
0001d0 d8 b9 0a bf e1 93 b5 3c c5 f6 c5 be 10 3c 83 bd
       -0.54189825 0.02216524 -0.38664833 -0.064079404
0001e0 4d 03 0c 3f 3f bf 80 bf ec c0 47 3e e7 7c 2f bf
       0.54692537 -1.0058364 0.19507188 -0.6854996
0001f0 44 20 64 3e 4d 19 3b 3d 23 31 ba bd 08 35 b6 3e
       0.22277933 0.045678426 -0.09091403 0.35587335
000200 f8 e0 53 3e a6 37 80 bb e4 81 20 be d1 43 13 3e
       0.20691288 -0.003912884 -0.1567455 0.14381339
000210 65 d0 12 3e 4c 04 f4 3e eb dc c4 3e db 12 f6 3c
       0.14337309 0.47659528 0.38449797 0.030038288
000220 c1 ba ae 3c fc 2f 85 be e8 2b d8 3e ce 27 e6 3e
       0.021329286 -0.26013172 0.42220998 0.44952244
000230 a1 fc de bd 7e 03 ba be 14 80 38 be cd 41 32 bf
       -0.10888029 -0.3633079 -0.18017608 -0.69631654
000240 79 a8 b3 3d ef 08 04 bd d2 ea be be 90 ab 23 3d
       0.08772368 -0.032235082 -0.3728853 0.039958537
000250 e1 83 51 bc 37 d2 91 be e5 8f e4 3d 6e 61 4c bd
       -0.01278779 -0.28480694 0.11160258 -0.049897604
000260 18 0c ea bd 91 88 8c 3d 19 d3 a7 be 8b 2c 07 be
       -0.11428088 0.068619855 -0.32778242 -0.13200586
000270 a8 d1 e7 bd b5 e6 38 bd 82 47 ce 3e 41 e8 16 be
       -0.11319286 -0.045141894 0.4028893 -0.14737035
000280 a3 fb 16 3c 64 2b 25 3d 81 29 cb bd 3c 6a 2c 3f
       0.009215268 0.040324584 -0.099200256 0.673496
000290 b6 bb 84 be 1f 05 89 bd 87 54 f0 3e ed 9a 73 be
       -0.25924462 -0.0669043 0.4693949 -0.23789568
0002a0 1f 2b 7d bd a7 5f ff 3e 8c d2 32 bd 46 b3 03 be
       -0.0618087 0.49877664 -0.043657824 -0.12861356
0002b0 77 4c ba be ea 0a 94 3d 28 6c b0 3e 58 4a 9c 3e
       -0.36386463 0.07228644 0.34457517 0.3052547
0002c0 8d 43 9b 3e 4c 4c 70 bc 1d 0f 68 be 12 5d 35 bf
       0.30324975 -0.014666628 -0.22662015 -0.7084514
0002d0 53 1c 4a bd 3f de af bd a0 e6 3d bf 3d b2 5b bf
       -0.04934342 -0.08587312 -0.7418003 -0.85818845
0002e0 11 5f 03 3e ae 4c 0b be f9 db a5 bd be ae cb 3c
       0.12829234 -0.1360347 -0.08098597 0.024863597
0002f0 89 3a 0a 3e ae 8c 6e 3e 15 9d f9 bd 9f 62 2e bf
       0.13498892 0.23295853 -0.12188164 -0.68119234
000300 56 93 fd bd ab 96 72 be ba e0 7f 3e 82 2f 31 be
       -0.12381618 -0.23690288 0.2498807 -0.17303279
000310 e1 06 05 3e 3c 30 87 3d ae 7c 49 3e 7f b7 99 3e
       0.12990905 0.06600997 0.19676468 0.3002281
000320 45 c9 65 3e 15 34 18 3d 04 4f f0 bd fc 91 d3 3d
       0.2244006 0.037159044 -0.11733821 0.10330579
000330 cf d8 bc 3d 7d b4 88 3e a5 5b 51 be 18 4f 5f be
       0.092210405 0.26700202 -0.20445116 -0.21807516
000340 45 0f b4 3d cc 45 66 3e bc ad 8d 3e 66 43 d8 be
       0.08791975 0.22487563 0.2767161 -0.4223892
000350 a8 57 b1 bc cc 31 7a 3e 53 d3 9e bd 17 88 b2 3e
       -0.021648243 0.24433059 -0.07755151 0.34869453
000360 c7 d0 64 be d1 d9 2f be e7 d8 5f be 93 86 c9 bd
       -0.22345267 -0.17172934 -0.21860085 -0.09840121
000370 12 b2 1b bc 8b bb 46 bf 38 6e c4 3e 3d cb 54 be
       -0.0095029045 -0.7762992 0.3836534 -0.20780654
000380 1d 39 16 be 6a 27 d1 3e ba 68 bd 3d 63 ba d4 3d
       -0.14670224 0.40850383 0.09248491 0.10387113
000390 b3 22 ef bd 1d c0 05 bd c9 52 23 3d 17 18 d8 3d
       -0.1167654 -0.032653917 0.039873872 0.1055147
0003a0 55 d5 14 3e 95 6f a2 3d aa 5c 2d be 98 d7 b0 3b
       0.14534505 0.07931439 -0.1692988 0.0053967945
0003b0 28 87 ec be fe 0e 80 3d 41 39 62 be 16 a7 ef 3d
       -0.46196866 0.062528595 -0.22092153 0.11701791
0003c0 2a 4f 32 3e 7b ca 3b 3d a0 85 3f 3e dc f8 8a bd
       0.17413011 0.045847397 0.18703318 -0.067857474
0003d0 15 cb 20 bd c7 0b 6c be 0e 73 96 3e 77 1e 1c bf
       -0.039256174 -0.23051368 0.29384655 -0.60983986
0003e0 88 8d 6d be 8b 50 8f 3e 32 c5 40 3f b8 d3 0b 3e
       -0.23198521 0.27991137 0.75300896 0.13654983
0003f0 5c a7 40 bd 08 80 e2 be dd a3 98 3e a7 11 7b bf
       -0.047034606 -0.44238305 0.29812518 -0.9807381
