weights/518_blocks_block27_se_reduce_weight.npy (npy, 444032 bytes, 1 tensors)

array f4 [68, 1632, 1, 1]
0	0x3c482d80	0.012217879
1	0x3d3244e8	0.043522745
2	0x3dbe1556	0.09281413
3	0xbd071186	-0.032975696
4	0xbc795730	-0.015218541
5	0x3bc9fb00	0.0061639547
6	0xbc6b62b8	-0.014366798
7	0x3d364378	0.044497937
8	0xbd9fd644	-0.0780454
9	0xbcd92292	-0.026505742
10	0x3bc337e0	0.0059575886
11	0xbc8392b7	-0.01606117
12	0xbbac6200	-0.005260706
13	0xbc0993c4	-0.0083970465
14	0x3bfa5190	0.0076391175
15	0x3d2d319e	0.042283647
16	0xbd278ba0	-0.04090464
17	0xbb7b5400	-0.0038349628
18	0xbd19ac16	-0.03751763
19	0xbcc1121c	-0.023568206
20	0x3c800f50	0.015632302
21	0xbb610c80	-0.0034339726
22	0x3e02bf6b	0.12768333
23	0xbc804bdc	-0.015661173
24	0xbb90c62d	-0.0044181556
25	0x3ce10fd0	0.02747336
26	0x3d53327c	0.051561818
27	0x3af44e00	0.0018638968
28	0x3c6fc6f8	0.01463484
29	0xbc5a91a0	-0.013340384
30	0x3ca5da02	0.020245556
31	0xbbf3d0f0	-0.007440679
32	0x3c980828	0.018558577
33	0xba806220	-0.0009794869
34	0xbc7bbe10	-0.015365139
35	0xbc91ee98	-0.017813966
36	0xbc3c7ab0	-0.01150386
37	0x3d28fbce	0.041255765
38	0xbc0a1c5e	-0.008429615
39	0x3c0092cc	0.007847499
40	0x3caaa1c8	0.020829096
41	0xbd2af5e6	-0.041738413
42	0xbc908f10	-0.017646343
43	0xbc0a0540	-0.008424103
44	0x3bef5c90	0.0073047355
45	0x3b633620	0.0034669712
46	0xbaa92c00	-0.001290679
47	0xbc34a190	-0.011024848
48	0xbb6df5d0	-0.0036309846
49	0x3b1e4b40	0.002415374
50	0xbc1bea80	-0.009516358
51	0x3e1c2d92	0.15251759
52	0x3b66ea80	0.0035234988
53	0x3d063188	0.03276208
54	0x3cac37b8	0.021022663
55	0xbbf19f60	-0.0073737353
56	0x3be92a20	0.0071156174
57	0x39523c00	0.00020049512
58	0x3cef6354	0.029222168
59	0xbb8571c0	-0.004072398
60	0xbd6bb418	-0.057544798
61	0xbd51d718	-0.05123052
62	0xbc83b388	-0.016076818
63	0x3cd338a0	0.025783837
64	0x3ba1a5a0	0.004933074
65	0x3d508d48	0.050915986
66	0xbc2e4050	-0.0106354505
67	0x3cd75de4	0.026289888
68	0x3c212c80	0.00983727
69	0x3c956d4c	0.018240593
70	0xbcb24794	-0.021762647
71	0x3cd588b8	0.02606617
72	0xbc146a50	-0.00905855
73	0xba056000	-0.00050878525
74	0x3c60cbc0	0.013720453
75	0x3d0ae467	0.033909228
76	0xbad23c80	-0.0016039759
77	0x3cce82a0	0.025208771
78	0x3acb7680	0.0015522987
79	0xbd90b862	-0.07066418
80	0x3c9aa5b0	0.018877834
81	0x3d213222	0.03935445
82	0x3ca72618	0.020403907
83	0xbcb130b0	-0.021629661
84	0xbc884990	-0.01663664
85	0x3d21916c	0.039445326
86	0x3ba5c200	0.005058527
87	0x3d866618	0.065624416
88	0xbd10bd3c	-0.035336718
89	0x3c0bcbf0	0.008532509
90	0x3bbed420	0.005823627
91	0xbe092ed2	-0.13396767
92	0x3bfe8fe8	0.00776862
93	0x3c2261a0	0.009910971
94	0xbd2371fc	-0.039903626
95	0x3d43d030	0.047805965
96	0xbc3d23a0	-0.011544138
97	0x3cb7cdec	0.022437058
98	0xbd4859a4	-0.048913613
99	0xbd55d0e4	-0.052201167
100	0x3b86c6e8	0.004113067
101	0xbcbc6190	-0.02299574
102	0xbb10e3a0	-0.0022108331
103	0x3bcbd6c0	0.0062206686
104	0xbc05fd68	-0.008178093
105	0xbc82da30	-0.01597318
106	0x3d11299c	0.035440072
107	0x3c199410	0.00937368
108	0xbd28fc21	-0.041256074
109	0x3c4164b0	0.011803791
110	0x3bb3b800	0.005484581
111	0xbcd1a33c	-0.025590532
112	0x3c6b7ec0	0.014373481
113	0x3c5c5800	0.013448715
114	0xbc19c350	-0.009384945
115	0xbbc6fa00	-0.006072283
116	0xbbc7ddc0	-0.0060994327
117	0xbc046930	-0.008081719
118	0x3c1a1fa0	0.009406954
119	0x3c10f4e0	0.008847445
120	0xbd8cff62	-0.06884648
121	0xbc3f0dc0	-0.011660993
122	0xb8ab7800	-8.176267e-05
123	0x3bc6ef60	0.006071016
124	0xbcbdbf74	-0.023162581
125	0xbbe7cf20	-0.007074252
126	0x3c8a0348	0.016847268
127	0xbbf340e0	-0.007423505
128	0xbbdd0160	-0.0067445487
129	0xbb92fb90	-0.004485555
130	0xbd299788	-0.041404277
131	0xbc20f740	-0.009824574
132	0xbc7bed4a	-0.015376398
133	0xbc0a9098	-0.008457325
134	0x3d3b302a	0.04570023
135	0x3b3d31c0	0.0028868765
136	0x3be43820	0.0069646984
137	0xbb596848	-0.0033173729
138	0x3c1eeba0	0.009699732
139	0x3ba6ba20	0.005088106
140	0xbbd52c80	-0.006505549
141	0xbcb3cdc4	-0.021948703
142	0xbcf473f6	-0.02984045
143	0xbce41e0e	-0.027846362
144	0xbcdaec78	-0.026724085
145	0xbc6970b0	-0.014248058
146	0x3c1569e0	0.009119481
147	0x3d9f9f00	0.07793999
148	0x3bf735c0	0.0075442493
149	0xbc8911fa	-0.016732205
150	0xbdba75f6	-0.091045305
151	0x3bbab6b0	0.0056980476
152	0xbcd1f158	-0.025627777
153	0x3cf6e7fc	0.030139916
154	0x3c618790	0.013765231
155	0x3cec5370	0.02884838
156	0xbc7cdc40	-0.015433371
157	0xbd542884	-0.05179645
158	0x3ce1e898	0.02757673
159	0xbc1dfcd0	-0.009642795
160	0xbd0e3024	-0.03471388
161	0xbb8cecc0	-0.0043006837
162	0x3aa0e880	0.0012276322
163	0xbc1a0db0	-0.009402677
164	0xbb890de0	-0.004182562
165	0xbc5a43a8	-0.013321795
166	0xbd3790c4	-0.044815794
167	0xbb9cc000	-0.0047836304
168	0xbcd421e0	-0.02589506
169	0xbd5cba94	-0.053888872
170	0x3bbca700	0.0057572126
171	0xbbf8a940	-0.0075885355
172	0xbb941c40	-0.004519969
173	0x3c5445c0	0.012956083
174	0x3d88017c	0.06640908
175	0xbcf56e28	-0.029959753
176	0x3b4afb00	0.0030972362
177	0x3ac33cc0	0.0014895424
178	0x3be93daf	0.007117949
179	0xbc2a9230	-0.01041083
180	0x392fb580	0.00016756915
181	0x3cb1882c	0.021671377
182	0x3b9b1fb0	0.004734002
183	0x3b928500	0.0044714212
184	0x3a63ad00	0.0008685142
185	0xbca360bc	-0.019943587
186	0x3c9913d0	0.018686205
187	0x3bc18d80	0.0059067607
188	0x3d3e81b8	0.04651043
189	0x3abbcd60	0.0014328174
190	0xbd1219a4	-0.035668984
191	0xb9630800	-0.00021651387
192	0xbcbe00f8	-0.023193821
193	0x3dbb6ee6	0.091520116
194	0xbd924084	-0.07141212
195	0xbd063ae2	-0.032771
196	0x3d3e7cdc	0.046505794
197	0xbc8cb588	-0.017176405
198	0xbc161b20	-0.009161741
199	0x3c6c4388	0.014420398
200	0xbd37e9b8	-0.044900626
201	0x3ba8d840	0.005152732
202	0x3bb4fd60	0.0055233687
203	0x3bcc9890	0.006243773
204	0xbc2e55c0	-0.010640562
205	0xbd00e362	-0.03146685
206	0xbc4ceba0	-0.012507349
207	0x3c2a6d94	0.010402102
208	0xbcc8c888	-0.024509683
209	0x3b093dc0	0.0020941347
210	0x3c8e4ca0	0.017370522
211	0xbc062010	-0.008186355
212	0x3cf59fde	0.029983457
213	0xbd634fa5	-0.055495877
214	0x3cb5d222	0.022194926
215	0x3ef090b4	0.469854
216	0xbd5bfebe	-0.053709738
217	0x3a915600	0.0011088252
218	0xbcb21e94	-0.021743096
219	0x3b160fa0	0.0022897497
220	0xbc501154	-0.012699444
221	0x3c8f3cb8	0.017485008
222	0x3d6be2d8	0.057589382
223	0x3d1a28c8	0.03763655
224	0xbca1e7ee	-0.019763913
225	0xbcc6b4e2	-0.024256174
226	0x3c571300	0.013127089
227	0x3cc4e228	0.024033621
228	0x3d3d9ee4	0.046294108
229	0xbbc03f10	-0.0058668926
230	0x3c3e46c0	0.011613548
231	0xb9e36000	-0.0004336834
232	0x3e1f6d47	0.1556903
233	0xbcc2bb78	-0.023771033
234	0xbc3b9c88	-0.011450894
235	0xbc033470	-0.008008108
236	0xbcacd078	-0.0210955
237	0xbcba7231	-0.022759529
238	0xbb827c60	-0.003982112
239	0x3ce5e5de	0.02806371
240	0xbca492f8	-0.020089611
241	0xbc9003e0	-0.017579973
242	0xbcc06050	-0.023483425
243	0x3e5998bd	0.21249671
244	0x3d7a934e	0.061175637
245	0x3c66b6a0	0.014081627
246	0xbcb92778	-0.022601828
247	0x3c1bbec0	0.009505928
248	0xbb6ad480	-0.0035832226
249	0x3d513144	0.051072374
250	0xbccffefc	-0.02539014
251	0xbc252c00	-0.010081291
252	0xbbc2a680	-0.0059402585
253	0x3b581580	0.00329718
254	0xbcda0ae8	-0.026616529
255	0x3c275390	0.010212794
