weights/601_blocks_block31_bn2_running_mean.npy (npy, 1920 bytes, 1 tensors)

array f4 [448]
00000000: 0d38 bc3c 4df6 153c 984e e23d 306e 24bd
00000010: 2b8e 6e3c fab2 51bc 4849 2ebd 10bc 40bd
00000020: 5d47 c83b 1c3a cc3c fcdf 17bd e74c 77bc
00000030: 1af0 d0bc d3cd aebc cae4 b1bc af55 883d
00000040: ac1c 803d eb0d 803d b96d 533d 1e45 bebc
00000050: 304a a2bb 65d3 6bbd cc77 ca3b e37f 28bb
00000060: b1d6 ef3c a1a2 af3c fa89 bf3c d5b1 013d
00000070: 0373 293d 5766 31bc 851d 8ebb c025 c43c
00000080: 4cd4 01bc 8fec c73b 150c fd3b de5e babd
00000090: 7ae7 3c3d 07a7 243c c02a 54bd 084a b53c
000000a0: f2dd b5bc 831b 223c 26ec e43d ba88 02bc
000000b0: e960 6dbd 4e62 d83b 67ce c13b 9256 373d
000000c0: 9c82 86bc 5452 e6bb 120c 333c e876 263d
000000d0: 3cf1 a03d 4ff6 293d 8618 a73c 0514 51bd
000000e0: 5dcb 923d 2ecf 1abc cfe6 e53c 8fdd 283c
000000f0: a2c1 9ebd 37de bb3c 0587 42bc 611e 143c
00000100: 8d1c 62bd c7dc 873d 86c0 1dbd e2a1 8b3c
00000110: 75b9 c8bc 9554 ccbc f227 78bb 8ce7 513d
00000120: 42af a4bc 7f4b 2cbd 3f4d 3ebd 43e2 583d
00000130: ec3f 05be d953 6f3d 14f4 8dbd a77f 4e3b
00000140: 87e6 ae3d 3866 e13c 725d c5bb c68c 763c
00000150: 8cbb acbd 9414 723c 56f1 cd3b 5261 a43c
00000160: 248a 7bbd 76c2 bf3d d858 453c 9cb8 e6bc
00000170: 72dd 8cbd 6391 01bd cb9b b4bb c991 1abd
00000180: 97af a93c 6fde 403d a002 73bb 1a3d 5f3d
00000190: 72a5 adbd a8b8 083d ca96 b8ba 2edc 8e3d
000001a0: c315 48bc 1821 d43d 50b5 5fbd 61b0 233d
000001b0: 8aeb 923b 021a d73c b4f6 363d 5096 bcbc
000001c0: 650d f23c 4cc1 513d 558b 8dbd 8386 7abc
000001d0: 677b b8bc 9835 d0bc 5356 ab3c d349 f2bc
000001e0: 201b 1fbc ed8c 69bc cffb c03d 27b8 283c
000001f0: c591 453d 3a9e f6bc 2a7e 2cbd 2535 18bc
00000200: a06f 44bd d105 683d 907e eb3c 9eb1 5f3d
00000210: 5fdf da3d 17cf 6cbd 46b1 fd3c 9d5d ec3c
00000220: 2d62 b7bd 5eb0 f6bc bf82 12bd 8770 49bd
00000230: bffc 3bbb a9f7 f5bd f233 383d 7a0a 963d
00000240: 92ae 86bd 2f9d 55bd e97b 4bbd d977 89bc
00000250: 9540 35bd 3cf4 cc3d b6b2 2ebd 3c61 7c3c
00000260: ecf7 d3bc e7f0 85bd d0c8 fc3c 99d6 453c
00000270: 7da6 87bd 60ff 28bd 3c19 d8bd 2f7b 28bd
00000280: ce03 1bbd e25b 93bd 711f 0a3c 6aa9 013e
00000290: 6c86 e3bc 6389 9bbc f208 9b3d 7dff 6c3c
000002a0: b203 403d a8b9 8c3c 8cc8 e23d 62ed 54bd
000002b0: 37bf 103d d2db 773b 8689 2a3c dac0 93bd
000002c0: e2c8 bd3b 3c17 5c3d dc25 5d3a 135e 00bd
000002d0: edfb aa3c bfb9 913c 30a4 f43c d754 5fbc
000002e0: 201a e23c 8a0e c73d 1557 a83c d5c1 3e3d
000002f0: 119c ad3c 7ff8 823d c2b3 eebd cec3 ed3c
00000300: 6158 303d 4934 e63c a278 193c 179b 5f3d
00000310: f46c 953d 751b 483d 3193 bbbd 5145 903a
00000320: 58da 79bd fcf0 02be 2cf2 b2bc 8b92 68bd
00000330: 3b21 9cbc 27a4 78bc f554 acbc 1e0f 9c3c
00000340: 3c27 3a3d c52e 14bd bf68 00bd eec1 debc
00000350: 8470 493d 8cb7 663c d640 01bd 814d 5abd
00000360: be12 d2bc b6b3 183c c1df d93c 11b4 68bd
00000370: f54d 28bd 2e34 bdba bc84 10bd c82a 1d3d
00000380: 2577 afbb 2d89 8f3d b49a 21bd d9a0 913c
00000390: c79b d3bb 7fc3 3f3c 1a15 9f3a 5282 cfbc
000003a0: 59f5 883a 0f30 a93a 0bfd 3d3d 0186 06bd
000003b0: fce1 f93c 8ef3 b7bc b8d9 223c 39be 5d3d
000003c0: 4468 c43b 69a6 4cbd 4831 c7bc 7110 8cbd
000003d0: 427b 573d 6055 663d ad70 a33c 79b7 45bd
000003e0: b6ff cc3c 8065 85bc 0f26 5a3d fbc0 2f39
000003f0: d0a2 13bb 0574 33bd 5307 bb3c 7e3b 38bd
0.022975946 0.009152961 0.11050147 -0.040144145 0.014560263 -0.012799019 -0.042550355 -0.04705435
0.006112023 0.024930052 -0.037078843 -0.015094019 -0.025505114 -0.021338379 -0.02171554 0.06656968
0.06255469 0.06252655 0.05161831 -0.023226317 -0.0049526915 -0.05757465 0.0061788317 -0.0025710992
0.029277178 0.021439852 0.023381222 0.031663734 0.04136945 -0.010827622 -0.004337015 0.023943782
-0.007924151 0.006101198 0.0077223876 -0.09100126 0.04611919 0.010049588 -0.051798582 0.022130027
-0.022200558 0.009894255 0.11177854 -0.007967168 -0.05795375 0.0066035157 0.0059144977 0.044760294
-0.016419701 -0.0070288572 0.010928171 0.04064074 0.07858512 0.041494664 0.020397436 -0.051044483
0.07167695 -0.00944881 0.02806416 0.01030673 -0.07751776 0.022933109 -0.0118730115 0.009040446
-0.05520301 0.06633907 -0.038513683 0.017044965 -0.024502495 -0.024942676 -0.0037865606 0.05124621
-0.0201031 -0.042064186 -0.046460386 0.052950155 -0.13012666 0.058429573 -0.0693132 0.0031509192
0.08540063 0.027514562 -0.0060231024 0.015048211 -0.08434209 0.014775414 0.006284873 0.020065937
-0.061411038 0.09363262 0.012045108 -0.0281642 -0.06878175 -0.031632792 -0.005511736 -0.037736688
0.02071361 0.04708713 -0.0037080422 0.05450163 -0.08478822 0.033379227 -0.0014083025 0.0697559
-0.01221222 0.10357875 -0.054616272 0.03996313 0.004483645 0.026257519 0.04466887 -0.023020893
0.029547403 0.051209733 -0.06911341 -0.015290859 -0.02251978 -0.02541618 0.020915186 -0.029576218
-0.009711057 -0.014254791 0.09423029 0.010297812 0.04823472 -0.030104745 -0.042112507 -0.009290014
-0.047958016 0.056646172 0.028746873 0.05461275 0.10687136 -0.057814684 0.03096832 0.028853232
-0.089542724 -0.030113395 -0.03576922 -0.04917958 -0.0028684584 -0.12010128 0.044971414 0.07326217
-0.065762654 -0.052151855 -0.049678717 -0.01678078 -0.044251043 0.100075215 -0.0426509 0.015404042
-0.025875054 -0.06540089 0.030857474 0.01207509 -0.06623552 -0.04125917 -0.10551688 -0.041133102
-0.037845425 -0.0719526 0.008430348 0.12662283 -0.027774058 -0.01898641 0.075700656 0.01446521
0.046878524 0.017178372 0.110734075 -0.0519842 0.035338607 0.0037820232 0.010408765 -0.07214518
0.0057917694 0.053733096 0.00084361224 -0.031339716 0.02087208 0.017788766 0.029863447 -0.013631067
0.027600348 0.0971957 0.020549336 0.04657157 0.021192582 0.06395053 -0.1165538 0.029024031
0.043053035 0.028101103 0.00936714 0.054591265 0.07296172 0.04885431 -0.09158934 0.0011006986
-0.060999244 -0.1278724 -0.021843992 -0.05678038 -0.019058814 -0.015175856 -0.021036604 0.019050177
0.045447573 -0.036177415 -0.031349894 -0.027192082 0.04917957 0.014081847 -0.031555973 -0.05329657
-0.025643703 0.00932019 0.026595952 -0.05681235 -0.04108997 -0.0014435106 -0.035282835 0.038370878
-0.0053547793 0.07008586 -0.039454177 0.017776893 -0.006457779 0.011704325 0.0012137026 -0.025330696
0.0010449096 0.0012907999 0.0463839 -0.03284264 0.030503266 -0.022455003 0.0099396035 0.05413649
0.0059938747 -0.04996339 -0.024315491 -0.068390734 0.052607782 0.056233764 0.019951189 -0.048270676
0.025024276 -0.01628375 0.05325895 0.00016761191 -0.0022527464 -0.043811817 0.02283064 -0.04497861
