weights/609_head_fc_bias.npy (npy, 4128 bytes, 1 tensors)

array f4 [1000]
0	0xbd210a07	-0.039316203
1	0xbd01f983	-0.031732094
2	0xbd406666	-0.046972655
3	0xbd9b58d9	-0.07585306
4	0xbd91dfa9	-0.07122738
5	0xbcc5b183	-0.024132496
6	0xbd5de254	-0.05417092
7	0x3c550144	0.01300079
8	0xbcc2737d	-0.02373671
9	0xbcd8648e	-0.026415136
10	0xbd411b2c	-0.047145054
11	0xbdac4bed	-0.08412919
12	0xbd2f932d	-0.042864967
13	0xbd39ef7c	-0.045394406
14	0xbd583dd1	-0.052793328
15	0xbd89599b	-0.06706544
16	0xbdc81a4d	-0.097706415
17	0xbd3760da	-0.0447701
18	0xbc79f71a	-0.0152566675
19	0xbd41e952	-0.047341652
20	0xbd7fd6ab	-0.062460583
21	0xbd55b213	-0.052171778
22	0xbd9954f9	-0.074869104
23	0xbd240803	-0.040046703
24	0xbd921796	-0.07133405
25	0xbda5d7b8	-0.08097786
26	0xbd1ef6b0	-0.03880948
27	0xbd74735d	-0.05968033
28	0xbd68b1db	-0.05681024
29	0x3b8a5e55	0.004222671
30	0xbd75244d	-0.059849072
31	0xbd59c5e6	-0.053167246
32	0xbd80d2f2	-0.062902346
33	0xbd578946	-0.05262115
34	0xbcd1fc3e	-0.025632974
35	0xbd9edd13	-0.0775701
36	0x3d26e642	0.040746935
37	0xbd80355b	-0.06260177
38	0xbd91f300	-0.07126427
39	0xbc887296	-0.016656201
40	0xbd7a4a38	-0.061105937
41	0xbd4a05b8	-0.04932186
42	0xbd9c8d55	-0.076441444
43	0xbd4da61d	-0.050207246
44	0xbd03e732	-0.032202907
45	0xbd822332	-0.06354369
46	0xbcd9554f	-0.026529936
47	0xbd122947	-0.035683896
48	0xbda468d8	-0.0802781
49	0xbd7fa5f0	-0.06241411
50	0xbd45b8ca	-0.04827193
51	0x3a9b2b24	0.0011838418
52	0xbc9e4915	-0.019321958
53	0xbbb387e2	-0.005478845
54	0xbd727cb6	-0.059200965
55	0xbd30c14f	-0.043153103
56	0xbd87c2dd	-0.06628964
57	0xbd8cc1be	-0.06872891
58	0xbd222885	-0.039589424
59	0x3be556d7	0.0069988775
60	0x3d2700f7	0.040772405
61	0x3c7a403e	0.015274106
62	0xbd222567	-0.03958645
63	0xbca0a8c3	-0.019611722
64	0xbc99f588	-0.018793836
65	0xbd355abe	-0.04427599
66	0xbd291180	-0.041276455
67	0xbd8c0d77	-0.06838506
68	0xbd88f2f9	-0.06686968
69	0xbd4a150c	-0.049336478
70	0xbd4a1336	-0.049334727
71	0x3c152d25	0.009105002
72	0xbdaaab41	-0.08333445
73	0xbc982f86	-0.018577348
74	0xbd782257	-0.060579624
75	0xbcaad6ce	-0.02085438
76	0x3ca9f2dc	0.020745687
77	0x3c0e346a	0.008679489
78	0x3c89310c	0.01674702
79	0x3c853f29	0.016265469
80	0xbd242bcf	-0.04008084
81	0xbdb397f7	-0.08769219
82	0xbaa4e209	-0.0012579571
83	0xbda2184e	-0.07914792
84	0xbd8e650c	-0.06952867
85	0xbcbe299d	-0.023213202
86	0xbc91e6be	-0.017810222
87	0x3cf731b6	0.030175071
88	0xbd0c7b9d	-0.034297574
89	0xbcfefe85	-0.031127224
90	0xbda112fc	-0.07864949
91	0xbdbfa2ae	-0.093572006
92	0xbd80a1c8	-0.06280857
93	0xbd998c91	-0.07497514
94	0xbdae9069	-0.08523638
95	0xbdb29640	-0.08720064
96	0xbd0d1536	-0.034444056
97	0xbd8cd725	-0.06876973
98	0xbdcb6141	-0.09930659
99	0xbcefa605	-0.029253969
100	0xbd5461f7	-0.05185124
101	0xbbd7639b	-0.006573153
102	0xbd15ec6e	-0.03660243
103	0x3bfc33a8	0.0076965876
104	0xbd04e60b	-0.03244595
105	0xbdc183b0	-0.094489455
106	0xbd027d31	-0.031857673
107	0xbce2943c	-0.027658574
108	0xbdb1aff6	-0.0867614
109	0xbdd9c257	-0.106327705
110	0xbd69071a	-0.05689154
111	0xbc98f67c	-0.01867222
112	0x3de1b5fd	0.1102104
113	0xbbfe8b7e	-0.0077680936
114	0x3c36f818	0.011167549
115	0xbdcc41cc	-0.09973487
116	0xbd9016f4	-0.07035628
117	0xbd779902	-0.060448654
118	0x3d225ad2	0.039637394
119	0xbd96b26a	-0.073582485
120	0xbd565962	-0.052331336
121	0xbc6c4bc8	-0.0144223645
122	0xbd2167ca	-0.03940562
123	0xbdc05d57	-0.09392803
124	0x3b9fad3f	0.0048729475
125	0xbd63a6f9	-0.05557916
126	0xbc3eda6f	-0.011648758
127	0xbd985ac2	-0.07439186
128	0xbd4781b2	-0.04870767
129	0xbd976342	-0.07391979
130	0xbd908450	-0.070564866
131	0xbd5705f9	-0.05249593
132	0xbcc8737e	-0.024469133
133	0xbd885a44	-0.06657842
134	0xbd746d45	-0.05967452
135	0xbd909ee4	-0.07061556
136	0xbdacc2a2	-0.08435561
137	0xbda67f78	-0.081297815
138	0xbdb29791	-0.08720315
139	0xbdb59a82	-0.08867361
140	0xbdd234b3	-0.10263958
141	0xbda83907	-0.08214002
142	0xbda9ad84	-0.082850486
143	0xbd9ce120	-0.07660127
144	0xbd0283c2	-0.031863935
145	0xbcedfdbe	-0.029051658
146	0xbd8c87f5	-0.06861869
147	0xbd9226df	-0.0713632
148	0xbd3173f1	-0.04332346
149	0xbd9dfbe6	-0.077140614
150	0x3c213159	0.009838426
151	0x3dfa2f6f	0.122160785
152	0xbd6375d9	-0.05553231
153	0x3c61c234	0.013779212
154	0xbc1c8e48	-0.009555407
155	0x3d40f12e	0.047105007
156	0x3bab1643	0.0052211597
157	0xbc4c9c9e	-0.012488512
158	0xbd40584d	-0.04695921
159	0x3d111358	0.03541884
160	0xbcf42f28	-0.029807642
161	0x3d8b894b	0.06813296
162	0x3d0825ba	0.033239104
163	0x3d9acf9c	0.075591296
164	0x3d63583f	0.05550408
165	0xbd8a7596	-0.06760709
166	0xbc766186	-0.0150379
167	0xbd922fd3	-0.07138028
168	0x3d59d822	0.053184636
169	0x3b21bebb	0.0024680335
170	0x3bf01e21	0.0073278104
171	0x3de7f9e7	0.11326962
172	0x3d35e0b4	0.044403747
173	0x3d061b7b	0.03274105
174	0x3d4f37bd	0.050590266
175	0xbd4f3e47	-0.0505965
176	0xbc3fff2e	-0.011718554
177	0x3c414134	0.011795331
178	0x3d835378	0.06412405
179	0x3cae4f99	0.02127819
180	0x3cc13581	0.023585083
181	0x3d1d2a32	0.03837032
182	0x3d0308ec	0.03199093
183	0x3c53b093	0.012920517
184	0x3dc3b563	0.09556081
185	0x3d09635b	0.03354202
186	0x3d273644	0.040823236
187	0x3d323711	0.043509547
188	0x3d00d9c8	0.031457692
189	0x3d740e50	0.059583962
190	0xbd164cd9	-0.03669438
191	0x3da8f579	0.08249945
192	0xbc0a3cae	-0.008437319
193	0xbc1a1cf0	-0.009406313
194	0xbd45b57e	-0.048268788
195	0x3dc8125f	0.09769129
196	0x3cfdacf2	0.030966256
197	0x3d562472	0.05228085
198	0x3c35e830	0.011102721
199	0x3d4ce72f	0.05002516
200	0xbc25fbc9	-0.010130831
201	0xbcb40eed	-0.021979773
202	0x3ccc56e0	0.024943769
203	0x3d666838	0.056251734
204	0x3c8d1c32	0.017225359
205	0x3d13ef53	0.03611691
206	0xbb5e1522	-0.0033887108
207	0x3d118759	0.03552947
208	0x3dbc801c	0.092041224
209	0x3da812c3	0.082067035
210	0xbbd4c42d	-0.0064931125
211	0x3c3832b5	0.011242558
212	0x3d2ba714	0.041907385
213	0x3c74021a	0.014893079
214	0x3c805877	0.015667183
215	0x3d161ed1	0.036650483
216	0x3c66396d	0.014051777
217	0x3d16d6c8	0.036825925
218	0x3d5e9c48	0.05434826
219	0x3bb400d1	0.0054932614
220	0x3d3aa719	0.045569513
221	0xbccbc854	-0.024875797
222	0x3cbf5844	0.023357518
223	0x3d74e370	0.059787214
224	0xbc17b302	-0.009258987
225	0x3cd5aeab	0.026084265
226	0xbbc1e375	-0.0059170076
227	0x3d87da83	0.06633475
228	0xbc17e69f	-0.009271293
229	0x3cb2d0ea	0.021828134
230	0xbbba3df6	-0.005683656
231	0x3cb3b553	0.021937048
232	0x3cfdac95	0.030966083
233	0xbcc22b87	-0.023702396
234	0x3d338366	0.043826483
235	0x3d609607	0.054830577
236	0x3dae3c9b	0.08507653
237	0x3d20cadc	0.03925596
238	0x3d80d949	0.06291444
239	0x3d67a9be	0.056558363
240	0x3d89c4ac	0.06726965
241	0x3c873426	0.016504359
242	0x3d40858d	0.047002364
243	0x3c5f7439	0.0136385495
244	0xbd111426	-0.035419606
245	0x3d4f190d	0.050561
246	0x3a6bb552	0.00089915574
247	0x3c955fda	0.018234182
248	0x3dae73bd	0.08518169
249	0x3da882dd	0.08228085
250	0x3d840f74	0.0644826
251	0x3dc92bc4	0.09822801
252	0xbd01dea4	-0.031706467
253	0x3d705b35	0.05868073
254	0x3d9b4deb	0.07583221
255	0xbd540531	-0.051762763
