weights/62_blocks_block3_se_reduce_weight.npy (npy, 6272 bytes, 1 tensors)

array f4 [8, 192, 1, 1]
000000 f2 79 7d be a0 d6 61 3e a0 4e 2e 3c 20 db 87 3c
       -0.2475355 0.22054529 0.010638863 0.01658398
000010 38 a0 19 3d 00 d2 c0 3a 00 45 c0 3b 3c dc a0 3d
       0.037506312 0.0014711022 0.0058676004 0.078545064
000020 94 cd 44 3e 8c a1 04 3e d0 2d 0b bd 24 09 33 bd
       0.19219047 0.1295225 -0.033979237 -0.04370989
000030 f0 d1 02 3d b0 b5 0b 3d c0 f5 41 bd 62 7d 10 3f
       0.031938493 0.034108818 -0.047353506 0.5644132
000040 00 62 be bc c0 f9 0f 3c 7a fe e9 3d a0 24 17 3c
       -0.02324009 0.008787572 0.11425491 0.009225041
000050 a0 76 4c 3c 60 2b 23 3d 40 30 61 3d e0 dc 3f bc
       0.012479454 0.039836287 0.054977655 -0.011710376
000060 00 72 06 3b c0 b5 3f 3d 20 29 40 3d d0 05 fd 3c
       0.0020514727 0.04680419 0.04691422 0.03088656
000070 00 92 e2 3b 08 e4 bb 3d 10 06 b7 3c 78 3c 94 3d
       0.006914377 0.09174353 0.022341758 0.07238096
000080 28 69 3e be 30 1c 33 3d a5 0b 7f be c2 1f 00 3e
       -0.18594801 0.043728054 -0.24906786 0.12512115
000090 80 96 ee bb f8 6f fc bc a0 a2 b5 bc 38 59 bf 3c
       -0.0072811246 -0.03081511 -0.022172272 0.023357973
0000a0 50 10 11 3d 40 28 c1 3c 58 f3 d6 3c 30 3f 92 3c
       0.035415947 0.023578763 0.026239082 0.017852396
0000b0 f4 1b 5c 3d 25 ad 79 3d 60 d6 e7 bc b6 83 10 3d
       0.053737596 0.06095614 -0.028300464 0.03528186
0000c0 68 05 bb 3d 0c 43 60 3e 20 73 6d 3d 34 d4 aa 3d
       0.091318905 0.21900576 0.05797112 0.08341256
0000d0 80 87 91 3c bc cf 1e bd 50 f0 2e bd 05 a5 90 3d
       0.017764807 -0.03877233 -0.04270965 0.07062725
0000e0 58 97 16 3d a0 ca 1f 3d 58 c5 01 3d 88 12 b4 3d
       0.036765426 0.039011598 0.031682342 0.08792597
0000f0 78 81 36 3d 60 0a 90 3c 80 29 62 3d c0 80 ce bb
       0.044557065 0.017583072 0.05521536 -0.0063019693
000100 f0 4b 98 bc 52 f5 21 3e a0 ab 03 bc c8 01 e7 bd
       -0.018590897 0.15816239 -0.008036524 -0.112796366
000110 20 37 24 3d f8 2d 48 3d e0 23 38 3d e2 9a 8a 3d
       0.040091634 0.048871964 0.044956088 0.06767823
000120 88 e5 ec 3d 50 04 0b 3d 80 cb 82 bb 40 74 49 bc
       0.11567217 0.03393966 -0.0039915442 -0.012295783
000130 1f fd 0c 3d 5c ba f6 bd d0 09 74 3d f0 8c 0a 3d
       0.034421083 -0.12047264 0.05957967 0.033825815
000140 80 c7 86 3c 5a 00 ea bd 8c cc 34 be 50 a5 6a 3d
       0.01645255 -0.11425848 -0.17656153 0.05728656
000150 b8 e7 41 3d d8 09 ba 3c 90 22 03 be c8 04 88 3d
       0.047340125 0.022709772 -0.12806153 0.06641537
000160 6c 16 46 3d 24 04 4b be 70 bc 0c 3d 34 34 21 3d
       0.048361227 -0.19825798 0.034359396 0.039356425
000170 c0 37 63 3d 78 3c e2 3d 5b 36 1c 3d 30 2d 32 3d
       0.05547309 0.1104669 0.038137775 0.043500125
000180 60 08 63 3d 82 d7 db 3d 7e 3d 5c 3d 10 7c 1c 3d
       0.05542791 0.10734464 0.05376958 0.038204253
000190 40 90 23 3c be 36 79 3e 50 ea 9e bc 40 27 96 bc
       0.009983122 0.24337289 -0.019398838 -0.018329263
0001a0 dc d7 04 3e a0 9e f3 3c 00 a0 ae 3b e0 f3 b0 3c
       0.12972969 0.029738724 0.005329132 0.021600664
0001b0 50 4c 14 3d 84 57 31 3d 20 e9 06 3d a8 22 c4 3c
       0.03620559 0.043296352 0.03293717 0.023942307
0001c0 70 f5 4f 3d 40 82 ce bb e8 6e 24 3d 9e 88 e4 3c
       0.050771177 -0.006302148 0.04014483 0.027897175
0001d0 d0 f3 6a bd 25 d2 c2 3d 40 1b 65 3c 00 f8 52 3c
       -0.057361424 0.09512738 0.013983548 0.012876511
0001e0 10 dc 02 3d f0 2b 0c 3e 80 8e 83 3e 33 2e 24 3d
       0.03194815 0.13688636 0.25694656 0.04008312
0001f0 98 ba cc 3d a4 eb 41 3e 80 00 30 3e e1 e3 c5 3d
       0.099965274 0.18937546 0.1718769 0.09662605
000200 10 87 15 3d 90 bb a2 bd f4 4f bd 3d 48 75 88 3d
       0.03650576 -0.07945931 0.092437655 0.066629946
000210 40 a9 43 bc 80 22 2d bd 00 df 0c bd 48 7f bc 3c
       -0.011942208 -0.04226923 -0.034392357 0.023009911
000220 78 0b 7e 3d 42 e5 80 3d c0 87 1b 3d c0 65 2e 3d
       0.062022656 0.062937275 0.03797126 0.042577505
000230 40 03 e9 3c 90 23 73 3d 00 8a a1 bc 75 e6 42 3e
       0.028443933 0.059360087 -0.019719124 0.19033225
000240 04 a8 ae 3d dc 24 8c 3d 80 45 e7 bb 00 38 64 3d
       0.0852814 0.06842968 -0.0070578456 0.05571747
000250 3c fa e2 bd 9e 8a 8a 3d 30 9b 04 bc 12 07 0b 3d
       -0.11082885 0.067647204 -0.00809364 0.03394229
000260 40 b9 5b 3b 80 3c af 3b 20 16 95 3c b8 15 c6 bd
       0.0033527166 0.0053477883 0.018199027 -0.09672111
000270 40 02 f6 3c 30 19 16 bc 20 71 9c 3c 10 27 93 3d
       0.03003037 -0.009161279 0.019096911 0.07185185
000280 e0 e1 a1 3c 01 d2 ad bc 38 24 a7 3d c9 b1 05 3e
       0.019761026 -0.021218302 0.08161205 0.13056101
000290 98 16 6f bd a8 17 5b 3d 60 7d 44 bb 14 56 32 be
       -0.058371156 0.053489357 -0.0029981956 -0.17415649
0002a0 90 7a d7 3d 32 3c 12 3e b2 15 09 3e d8 36 93 3d
       0.10521424 0.14280775 0.13387182 0.07188195
0002b0 30 02 45 3d f8 c5 54 3d f2 62 f3 bd 30 df 14 3d
       0.04809779 0.05194661 -0.11884107 0.03634566
0002c0 50 8f 1d 3e 30 38 b0 3c c2 2a 93 be a0 1f 38 3d
       0.153867 0.021511167 -0.2874356 0.044952035
0002d0 a5 10 84 bf 90 46 56 3d 7d c2 98 3e b8 b2 33 3d
       -1.031758 0.052313387 0.29835883 0.04387161
0002e0 80 ed 9c 3d 54 cc 08 3d 18 f2 ba 3d 46 67 f7 3c
       0.07662487 0.033397987 0.09128207 0.030200612
0002f0 50 fc 36 3d 20 5e ef bc 40 3f f6 3b 50 82 09 3d
       0.044674218 -0.029219687 0.007514864 0.03357154
000300 b8 20 79 bc e0 75 ff bd 2d a6 38 3e 18 2a c5 3d
       -0.015205555 -0.12473655 0.18032141 0.09627169
000310 32 3d a0 3e 30 74 61 bd 0a b2 96 3d a8 82 80 3e
       0.31296688 -0.055042446 0.07358177 0.25099683
000320 a2 52 1b 3e 6c 0f 17 be a0 72 45 3d d0 19 7e 3d
       0.1516824 -0.14751977 0.048205018 0.062036335
000330 6c 78 9a bd b6 50 cf bd 6d 3c 00 be 08 69 38 bd
       -0.075425 -0.10122816 -0.1252305 -0.04502204
000340 90 46 fa 3d a8 ef b4 bd 74 67 9c 3d 40 6c ee bd
       0.1222049 -0.08834773 0.076369196 -0.11641741
000350 a0 b5 c9 bd f3 15 48 3e a2 9e 12 3e ec 7a 03 3e
       -0.09849095 0.19539623 0.14318326 0.1283986
000360 44 5c ea 3d dc cc 9e bd 10 1e 22 3d e8 70 56 be
       0.114433795 -0.077539176 0.03957945 -0.20941508
000370 80 be 68 3d 80 7a df 3c d8 67 a3 3d f8 19 e0 3d
       0.0568223 0.027280092 0.07978791 0.10942453
000380 7c c4 48 3d 56 f2 87 3d c0 3d 6d bd 00 d4 84 3b
       0.049015507 0.06638019 -0.057920218 0.0040535927
000390 5c 9b cd 3c 60 ef b9 bd 3c 20 4a 3d f0 09 66 bc
       0.025098495 -0.0907886 0.049347147 -0.014040455
0003a0 50 8e 9e 3d 6a 4e 78 3e aa 3d ad 3d be ea b5 3e
       0.07741988 0.24248663 0.08459027 0.35530657
0003b0 00 5d 44 3c 30 d1 54 3d b9 68 35 3e c0 6b ca bb
       0.011985064 0.05195731 0.1771573 -0.0061773956
0003c0 20 4b 8c bd 6c 87 1e bd f2 e8 8c bd 45 2a 86 3d
       -0.068502665 -0.038703367 -0.06880368 0.06551031
0003d0 80 8b 72 3e d0 7d aa 3c 04 a7 c1 bd 50 94 2d bd
       0.23686028 0.020811945 -0.09455684 -0.04237777
0003e0 a8 1a a7 3d 2c a3 31 3e b0 f0 c1 3d 9a f2 a9 bd
       0.08159381 0.17347401 0.094697356 -0.08298226
0003f0 b8 a9 00 3d 00 08 82 b9 a0 76 1d 3d 2c 7d 01 3e
       0.031411856 -0.00024801493 0.038443208 0.12645406
