weights/81_blocks_block4_se_reduce_weight.npy (npy, 6272 bytes, 1 tensors)

array f4 [8, 192, 1, 1]
0.046142206 0.102234244 0.035678536 -0.112705275 -0.10061222 0.0010228157 0.03481908 -0.020462096
-0.068364054 0.0062111616 -0.10463676 0.05279678 0.06644115 -0.015081435 -0.0658254 -0.012738138
-0.6464405 0.04228443 0.09874742 0.040289015 0.13813776 -0.014162481 -0.20382842 -0.15283276
-0.32690978 0.06743407 -0.1451754 0.034405828 -0.04895538 0.056711525 0.010260396 0.052855432
0.057124287 0.09997475 -0.254971 0.15862557 -0.050903812 0.21055198 -0.11798583 0.22029585
0.98602474 0.08568856 0.008723021 0.015423872 0.05042717 -0.07709098 -0.03869164 -0.37938446
-0.019245178 -0.11584836 0.07248827 0.042439103 0.081626296 0.01091975 0.037107736 -0.13811803
-0.12861033 -0.026300251 0.1519767 0.10324612 0.044304103 0.028243601 -0.17461601 0.00086915493
0.13724542 0.07795194 -0.02358982 -0.004432723 0.017840922 0.04638028 0.06609279 0.23435634
0.13675408 0.071893096 0.012931764 -0.13904737 -0.0017391443 -0.08652872 0.04008794 0.3070896
-0.05145791 0.15712754 -0.0064956024 -0.10934356 0.026104838 -0.071319014 -0.024220169 0.007869244
-0.071012974 -0.1807546 -0.118388474 0.030994415 -0.067199826 -0.1515733 -0.026989937 -0.08255194
0.06053239 0.17060864 -0.067454815 -0.1147874 -0.031081706 0.18170735 -0.2640197 0.09945035
0.1526404 0.090937674 0.1321432 0.12587252 0.09029907 0.1523372 0.0010042489 0.022059854
0.060698345 0.025015235 0.101038754 0.06727153 0.10141873 0.05596313 0.06934433 0.061913613
0.8835434 0.32083148 0.09761751 0.059690997 -0.041493773 -0.17752992 0.03109917 -0.051343523
0.17822832 -0.07705355 -0.046116292 0.010290399 0.11219841 0.13138774 -0.009813428 0.09710487
-0.03208524 -0.08877778 0.29515505 0.04507214 0.022542153 0.013562024 0.15012953 -0.008095145
0.059628382 -0.0002680719 -0.071896106 0.07377976 0.021325082 0.042321444 0.15706488 -0.18844396
-0.03596686 0.031949148 -0.2352973 0.13103226 -0.041074693 0.018618166 -0.076747954 -0.084343955
-0.22324376 0.011768669 -0.012791395 0.068793505 -0.054669484 -0.21673393 -0.039621413 0.09334695
0.09160656 -0.14873946 -0.30483294 -0.12318647 -0.062478602 0.13481796 -0.27200052 -0.15065439
-0.04905942 0.11847682 -0.051035643 -0.029528946 0.049228072 0.07038221 -0.067636535 0.12188642
-0.014534831 0.13384679 0.07716048 0.09763959 -0.076152384 0.031725407 -0.047653258 0.121491075
0.07555765 0.035335436 -0.02116847 -0.13875292 0.023684561 0.02611351 0.016166627 -0.0141687095
-0.076426715 0.010676652 -0.04985425 0.009828985 -0.014331222 0.06106633 0.042983115 0.031804867
-0.0344079 0.12675536 -0.21853471 0.05812329 0.065748826 0.6097179 -0.13435939 0.052622437
-0.027353287 -0.052172482 0.03527376 -0.047925502 -0.0007632971 -0.034347877 0.046850353 -0.018543683
0.027528066 0.07057926 -0.22015822 0.014365874 0.038142323 -0.2612777 -0.009672165 0.017261267
0.013905816 0.00958699 -0.02697302 -0.027315661 0.059893955 0.059525907 0.02381593 -0.03510517
0.05576074 -0.06894773 -0.013925016 0.011845797 0.01561743 -0.023641199 -0.0061106086 -0.09023243
0.081647284 -0.027793594 -0.020125657 0.026681423 -0.018312693 0.037575424 -0.07924914 -0.0087997615
00000000: 9cff 3c3d 3060 d13d a823 123d 06d2 e6bd
00000010: c80d cebd 0010 863a 749e 0e3d 20a0 a7bc
00000020: 7402 8cbd 0087 cb3b cc4b d6bd 7041 583d
00000030: 4c12 883d 2018 77bc 78cf 86bd a0b3 50bc
00000040: 207d 25bf 7032 2d3d 163c ca3d 1806 253d
00000050: fc73 0d3e c009 68bc 66b8 50be 3180 1cbe
00000060: b860 a7be e01a 8a3d dca8 14be 20ed 0c3d
00000070: 7085 48bd 584a 683d 381b 283c f07e 583d
00000080: 28fb 693d 90bf cc3d 8f8b 82be be6e 223e
00000090: 8480 50bd f09a 573e 8ea2 f1bd 3c95 613e
000000a0: 1e6c 7c3f 7c7d af3d 00eb 0e3c 68b4 7c3c
000000b0: b88c 4e3d e0e1 9dbd 207b 1ebd ae3e c2be
000000c0: 10a8 9dbc e841 edbd bb74 943d a0d4 2d3d
000000d0: b02b a73d c0e8 323c 48fe 173d d06e 0dbe
000000e0: 6db2 03be a073 d7bc c89f 1b3e b472 d33d
000000f0: 3878 353d 205f e73c 8ace 32be 00d8 633a
00000100: 108a 0c3e 44a5 9f3d 703f c1bc 6040 91bb
00000110: 2027 923c 40f9 3d3d a85b 873d 1cfb 6f3e
00000120: 4309 0c3e b03c 933d c0df 533c 6f62 0ebe
00000130: 00f4 e3ba f835 b1bd 4033 243d d93a 9d3e
00000140: 88c5 52bd 0be6 203e 10d9 d4bb 84ef dfbd
00000150: d0d9 d53c b40f 92bd 6069 c6bc 00ee 003c
00000160: 406f 91bd bc17 39be a875 f2bd 00e8 fd3c
00000170: 10a0 89bd 0836 1bbe 001a ddbc fe10 a9bd
00000180: d0f0 773d 08b4 2e3e c025 8abd a815 ebbd
00000190: 109f febc 7e11 3a3e 972d 87be a0ac cb3d
000001a0: c44d 1c3e 883d ba3d 8c50 073e bae4 003e
000001b0: b8ee b83d 48fe 1b3e 00a1 833a deb6 b43c
000001c0: d49e 783d c0ec cc3c 68ed ce3d a8c5 893d
000001d0: a0b4 cf3d 9839 653d 6604 8e3d 2199 7d3d
000001e0: e62f 623f 0644 a43e b0eb c73d 8c7e 743d
000001f0: 60f5 29bd 67ca 35be b0c3 fe3c 964d 52bd
00000200: 7c81 363e 40ce 9dbd 70e4 3cbd 1099 283c
00000210: 48c8 e53d 828a 063e 80c8 20bc ebde c63d
00000220: d06b 03bd 20d1 b5bd 901e 973e 909d 383d
00000230: 52aa b83c 4033 5e3c 8ebb 193e 80a1 04bc
00000240: e43c 743d 008c 8cb9 443e 93bd d819 973d
00000250: f0b1 ae3c 4059 2d3d 9ed5 203e 74f7 40be
00000260: fc51 13bd 1cdd 023d c7f1 70be 522d 063e
00000270: f03d 28bd 2085 983c 082e 9dbd 86bc acbd
00000280: 039a 64be 60d1 403c 0093 51bc 9ce3 8c3d
00000290: 1ced 5fbd 80ef 5dbe 104a 22bd b02c bf3d
000002a0: 389c bb3d 284f 18be 1013 9cbe 3049 fcbd
000002b0: 90e9 7fbd b80d 0a3e a743 8bbe 2545 1abe
000002c0: 88f2 48bd faa3 f23d c00a 51bd b0e6 f1bc
000002d0: 60a3 493d 8c24 903d 0685 8abd 969f f93d
000002e0: 8023 6ebc 220f 093e 5006 9e3d 44f7 c73d
000002f0: c8f5 9bbd 80f2 013d 1030 43bd 50d0 f83d
00000300: f8bd 9a3d e4bb 103d 8069 adbc 3f15 0ebe
00000310: 2006 c23c 00ec d53c e06f 843c e023 68bc
00000320: 9c85 9cbd 20ed 2e3c f833 4cbd c009 213c
00000330: 80cd 6abc b020 7a3d 100f 303d d245 023d
00000340: 4cef 0cbd 28cc 013e 90c7 5fbe b012 6e3d
00000350: 52a7 863d 7916 1c3f 8295 09be a08a 573d
00000360: 0014 e0bc d0b2 55bd 387b 103d 884d 44bd
00000370: 0018 48ba 5cb0 0cbd 28e6 3f3d ece8 97bc
00000380: 8a82 e13c dc8b 903d 2871 61be d85e 6b3c
00000390: 203b 1c3d 31c6 85be 0078 1ebc 8067 8d3c
000003a0: 38d5 633c c012 1d3c 86f6 dcbc 18c5 dfbc
000003b0: 5d53 753d 70d1 733d a019 c33c 70ca 0fbd
000003c0: 6065 643d 7834 8dbd c025 64bc e014 423c
000003d0: 40e0 7f3c 30ab c1bc 803b c8bb c8cb b8bd
000003e0: b136 a73d 64af e3bc 90de a4bc 0093 da3c
000003f0: 8004 96bc b0e8 193d 604d a2bd e02c 10bc
